…
layer {
  name: "Image1"
  type: "ImageData"
  top: "img0"
  include {
    phase: TRAIN
  }
  image_data_param {
    source: "img1_list.txt"
    batch_size: 4
    root_folder: "./"
  }
}
layer {
  name: "Image2"
  type: "ImageData"
  top: "img1"
  include {
    phase: TRAIN
  }
  image_data_param {
    source: "img2_list.txt"
    batch_size: 4
    root_folder: "./"
  }
}
layer {
  name: "Flow"
  type: "FloData"
  top: "flow_gt_aug"
  include {
    phase: TRAIN
  }
  image_data_param {
    source: "flo_list.txt"
    batch_size: 4
    root_folder: "./"
  }
}
layer {
  name: "Mean1"
  type: "Mean"
  bottom: "img0"
  top: "img0_aug"
  mean_param {
    operation: SUBTRACT
    value: 0.411451
    value: 0.43206
    value: 0.450141
    input_scale: 0.0039216
  }
}
layer {
  name: "Mean2"
  type: "Mean"
  bottom: "img1"
  top: "img1_aug"
  mean_param {
    operation: SUBTRACT
    value: 0.410602
    value: 0.431021
    value: 0.448553
    input_scale: 0.0039216
  }
}
layer {
  name: "Eltwise3"
  type: "Eltwise"
  bottom: "flow_gt_aug"
  top: "scaled_flow_gt"
  eltwise_param {
    operation: SUM
    coeff: 0.05
  }
}
layer {
  name: "Concat1"
  type: "Concat"
  bottom: "img0_aug"
  bottom: "img1_aug"
  top: "input"
  concat_param {
    axis: 1
  }
}
layer {
  name: "conv1"
  type: "Convolution"
  bottom: "input"
  top: "conv1"
  param {
    lr_mult: 1
    decay_mult: 1
  }
  param {
    lr_mult: 1
    decay_mult: 0
  }
  convolution_param {
    num_output: 64
    pad: 3
    kernel_size: 7
    stride: 2
    weight_filler {
      type: "msra"
    }
    bias_filler {
      type: "constant"
    }
    engine: CUDNN
  }
}
layer {
  name: "ReLU1"
  type: "ReLU"
  bottom: "conv1"
  top: "conv1"
  relu_param {
    negative_slope: 0.1
  }
}
layer {
  name: "conv2"
  type: "Convolution"
  bottom: "conv1"
  top: "conv2"
  param {
    lr_mult: 1
    decay_mult: 1
  }
  param {
    lr_mult: 1
    decay_mult: 0
  }
  convolution_param {
    num_output: 128
    pad: 2
    kernel_size: 5
    stride: 2
    weight_filler {
      type: "msra"
    }
    bias_filler {
      type: "constant"
    }
    engine: CUDNN
  }
}
layer {
  name: "ReLU2"
  type: "ReLU"
  bottom: "conv2"
  top: "conv2"
  relu_param {
    negative_slope: 0.1
  }
}
layer {
  name: "conv3"
  type: "Convolution"
  bottom: "conv2"
  top: "conv3"
  param {
    lr_mult: 1
    decay_mult: 1
  }
  param {
    lr_mult: 1
    decay_mult: 0
  }
  convolution_param {
    num_output: 256
    pad: 2
    kernel_size: 5
    stride: 2
    weight_filler {
      type: "msra"
    }
    bias_filler {
      type: "constant"
    }
    engine: CUDNN
  }
}
layer {
  name: "ReLU3"
  type: "ReLU"
  bottom: "conv3"
  top: "conv3"
  relu_param {
    negative_slope: 0.1
  }
}
layer {
  name: "conv3_1"
  type: "Convolution"
  bottom: "conv3"
  top: "conv3_1"
  param {
    lr_mult: 1
    decay_mult: 1
  }
  param {
    lr_mult: 1
    decay_mult: 0
  }
  convolution_param {
    num_output: 256
    pad: 1
    kernel_size: 3
    stride: 1
    weight_filler {
      type: "msra"
    }
    bias_filler {
      type: "constant"
    }
    engine: CUDNN
  }
}
layer {
  name: "ReLU4"
  type: "ReLU"
  bottom: "conv3_1"
  top: "conv3_1"
  relu_param {
    negative_slope: 0.1
  }
}
layer {
  name: "conv4"
  type: "Convolution"
  bottom: "conv3_1"
  top: "conv4"
  param {
    lr_mult: 1
    decay_mult: 1
  }
  param {
    lr_mult: 1
    decay_mult: 0
  }
  convolution_param {
    num_output: 512
    pad: 1
    kernel_size: 3
    stride: 2
    weight_filler {
      type: "msra"
    }
    bias_filler {
      type: "constant"
    }
    engine: CUDNN
  }
}
layer {
  name: "ReLU5"
  type: "ReLU"
  bottom: "conv4"
  top: "conv4"
  relu_param {
    negative_slope: 0.1
  }
}
layer {
  name: "conv4_1"
  type: "Convolution"
  bottom: "conv4"
  top: "conv4_1"
  param {
    lr_mult: 1
    decay_mult: 1
  }
  param {
    lr_mult: 1
    decay_mult: 0
  }
  convolution_param {
    num_output: 512
    pad: 1
    kernel_size: 3
    stride: 1
    weight_filler {
      type: "msra"
    }
    bias_filler {
      type: "constant"
    }
    engine: CUDNN
  }
}
layer {
  name: "ReLU6"
  type: "ReLU"
  bottom: "conv4_1"
  top: "conv4_1"
  relu_param {
    negative_slope: 0.1
  }
}
layer {
  name: "conv5"
  type: "Convolution"
  bottom: "conv4_1"
  top: "conv5"
  param {
    lr_mult: 1
    decay_mult: 1
  }
  param {
    lr_mult: 1
    decay_mult: 0
  }
  convolution_param {
    num_output: 512
    pad: 1
    kernel_size: 3
    stride: 2
    weight_filler {
      type: "msra"
    }
    bias_filler {
      type: "constant"
    }
    engine: CUDNN
  }
}
layer {
  name: "ReLU7"
  type: "ReLU"
  bottom: "conv5"
  top: "conv5"
  relu_param {
    negative_slope: 0.1
  }
}
layer {
  name: "conv5_1"
  type: "Convolution"
  bottom: "conv5"
  top: "conv5_1"
  param {
    lr_mult: 1
    decay_mult: 1
  }
  param {
    lr_mult: 1
    decay_mult: 0
  }
  convolution_param {
    num_output: 512
    pad: 1
    kernel_size: 3
    stride: 1
    weight_filler {
      type: "msra"
    }
    bias_filler {
      type: "constant"
    }
    engine: CUDNN
  }
}
layer {
  name: "ReLU8"
  type: "ReLU"
  bottom: "conv5_1"
  top: "conv5_1"
  relu_param {
    negative_slope: 0.1
  }
}
layer {
  name: "conv6"
  type: "Convolution"
  bottom: "conv5_1"
  top: "conv6"
  param {
    lr_mult: 1
    decay_mult: 1
  }
  param {
    lr_mult: 1
    decay_mult: 0
  }
  convolution_param {
    num_output: 1024
    pad: 1
    kernel_size: 3
    stride: 2
    weight_filler {
      type: "msra"
    }
    bias_filler {
      type: "constant"
    }
    engine: CUDNN
  }
}
layer {
  name: "ReLU9"
  type: "ReLU"
  bottom: "conv6"
  top: "conv6"
  relu_param {
    negative_slope: 0.1
  }
}
layer {
  name: "conv6_1"
  type: "Convolution"
  bottom: "conv6"
  top: "conv6_1"
  param {
    lr_mult: 1
    decay_mult: 1
  }
  param {
    lr_mult: 1
    decay_mult: 0
  }
  convolution_param {
    num_output: 1024
    pad: 1
    kernel_size: 3
    stride: 1
    weight_filler {
      type: "msra"
    }
    bias_filler {
      type: "constant"
    }
    engine: CUDNN
  }
}
layer {
  name: "ReLU10"
  type: "ReLU"
  bottom: "conv6_1"
  top: "conv6_1"
  relu_param {
    negative_slope: 0.1
  }
}
layer {
  name: "conv6_2"
  type: "Convolution"
  bottom: "conv6_1"
  top: "conv6_2"
  param {
    lr_mult: 1
    decay_mult: 1
  }
  param {
    lr_mult: 1
    decay_mult: 0
  }
  convolution_param {
    num_output: 1024
    pad: 0
    kernel_size: 1
    stride: 1
    weight_filler {
      type: "msra"
    }
    bias_filler {
      type: "constant"
    }
    engine: CUDNN
  }
}
layer {
  name: "ReLU11"
  type: "ReLU"
  bottom: "conv6_2"
  top: "conv6_2"
  relu_param {
    negative_slope: 0.1
  }
}
layer {
  name: "Convolution1"
  type: "Convolution"
  bottom: "conv6_2"
  top: "predict_flow6"
  param {
    lr_mult: 1
    decay_mult: 1
  }
  param {
    lr_mult: 1
    decay_mult: 0
  }
  convolution_param {
    num_output: 2
    pad: 1
    kernel_size: 3
    stride: 1
    weight_filler {
      type: "msra"
    }
    bias_filler {
      type: "constant"
    }
    engine: CUDNN
  }
}
layer {
  name: "Downsample1"
  type: "Downsample"
  bottom: "scaled_flow_gt"
  bottom: "predict_flow6"
  top: "blob24"
}
layer {
  name: "flow_loss6"
  type: "L1Loss"
  bottom: "predict_flow6"
  bottom: "blob24"
  top: "flow_loss6"
  loss_weight: 0.32
  l1_loss_param {
    l2_per_location: true
  }
}
layer {
  name: "deconv5"
  type: "Deconvolution"
  bottom: "conv6_2"
  top: "deconv5"
  param {
    lr_mult: 1
    decay_mult: 0
  }
  param {
    lr_mult: 0
    decay_mult: 0
  }
  convolution_param {
    num_output: 512
    pad: 1
    kernel_size: 4
    stride: 2
    weight_filler {
      type: "msra"
    }
    bias_filler {
      type: "constant"
    }
    engine: CUDNN
  }
}
layer {
  name: "ReLU12"
  type: "ReLU"
  bottom: "deconv5"
  top: "deconv5"
  relu_param {
    negative_slope: 0.1
  }
}
layer {
  name: "conv5_2"
  type: "Convolution"
  bottom: "conv5_1"
  top: "conv5_2"
  param {
    lr_mult: 1
    decay_mult: 1
  }
  param {
    lr_mult: 1
    decay_mult: 0
  }
  convolution_param {
    num_output: 512
    pad: 1
    kernel_size: 3
    stride: 1
    weight_filler {
      type: "msra"
    }
    bias_filler {
      type: "constant"
    }
    engine: CUDNN
  }
}
layer {
  name: "ReLU13"
  type: "ReLU"
  bottom: "conv5_2"
  top: "conv5_2"
  relu_param {
    negative_slope: 0.1
  }
}
layer {
  name: "upsample_flow6to5"
  type: "Deconvolution"
  bottom: "predict_flow6"
  top: "upsampled_flow6_to_5"
  param {
    lr_mult: 1
    decay_mult: 0
  }
  param {
    lr_mult: 0
    decay_mult: 0
  }
  convolution_param {
    num_output: 2
    pad: 1
    kernel_size: 4
    stride: 2
    weight_filler {
      type: "msra"
    }
    bias_filler {
      type: "constant"
    }
    engine: CUDNN
  }
}
layer {
  name: "Concat5"
  type: "Concat"
  bottom: "conv5_2"
  bottom: "deconv5"
  bottom: "upsampled_flow6_to_5"
  top: "concat5"
}
layer {
  name: "Convolution2"
  type: "Convolution"
  bottom: "concat5"
  top: "predict_flow5"
  param {
    lr_mult: 1
    decay_mult: 1
  }
  param {
    lr_mult: 1
    decay_mult: 0
  }
  convolution_param {
    num_output: 2
    pad: 1
    kernel_size: 3
    stride: 1
    weight_filler {
      type: "msra"
    }
    bias_filler {
      type: "constant"
    }
    engine: CUDNN
  }
}
layer {
  name: "Downsample2"
  type: "Downsample"
  bottom: "scaled_flow_gt"
  bottom: "predict_flow5"
  top: "blob29"
}
layer {
  name: "flow_loss5"
  type: "L1Loss"
  bottom: "predict_flow5"
  bottom: "blob29"
  top: "flow_loss5"
  loss_weight: 0.08
  l1_loss_param {
    l2_per_location: true
  }
}
layer {
  name: "Convolution2_1"
  type: "Convolution"
  bottom: "concat5"
  top: "concat5_1"
  param {
    lr_mult: 1
    decay_mult: 1
  }
  param {
    lr_mult: 1
    decay_mult: 0
  }
  convolution_param {
    num_output: 512
    pad: 1
    kernel_size: 3
    stride: 1
    weight_filler {
      type: "msra"
    }
    bias_filler {
      type: "constant"
    }
    engine: CUDNN
  }
}
layer {
  name: "ReLU14"
  type: "ReLU"
  bottom: "concat5_1"
  top: "concat5_1"
  relu_param {
    negative_slope: 0.1
  }
}
layer {
  name: "deconv4"
  type: "Deconvolution"
  bottom: "concat5_1"
  top: "deconv4"
  param {
    lr_mult: 1
    decay_mult: 0
  }
  param {
    lr_mult: 0
    decay_mult: 0
  }
  convolution_param {
    num_output: 256
    pad: 1
    kernel_size: 4
    stride: 2
    weight_filler {
      type: "msra"
    }
    bias_filler {
      type: "constant"
    }
    engine: CUDNN
  }
}
layer {
  name: "ReLU15"
  type: "ReLU"
  bottom: "deconv4"
  top: "deconv4"
  relu_param {
    negative_slope: 0.1
  }
}
layer {
  name: "conv4_2"
  type: "Convolution"
  bottom: "conv4_1"
  top: "conv4_2"
  param {
    lr_mult: 1
    decay_mult: 1
  }
  param {
    lr_mult: 1
    decay_mult: 0
  }
  convolution_param {
    num_output: 256
    pad: 1
    kernel_size: 3
    stride: 1
    weight_filler {
      type: "msra"
    }
    bias_filler {
      type: "constant"
    }
    engine: CUDNN
  }
}
layer {
  name: "ReLU16"
  type: "ReLU"
  bottom: "conv4_2"
  top: "conv4_2"
  relu_param {
    negative_slope: 0.1
  }
}
layer {
  name: "upsample_flow5to4"
  type: "Deconvolution"
  bottom: "predict_flow5"
  top: "upsampled_flow5_to_4"
  param {
    lr_mult: 1
    decay_mult: 0
  }
  param {
    lr_mult: 0
    decay_mult: 0
  }
  convolution_param {
    num_output: 2
    pad: 1
    kernel_size: 4
    stride: 2
    weight_filler {
      type: "msra"
    }
    bias_filler {
      type: "constant"
    }
    engine: CUDNN
  }
}
layer {
  name: "Concat4"
  type: "Concat"
  bottom: "conv4_2"
  bottom: "deconv4"
  bottom: "upsampled_flow5_to_4"
  top: "concat4"
}
layer {
  name: "Convolution3"
  type: "Convolution"
  bottom: "concat4"
  top: "predict_flow4"
  param {
    lr_mult: 1
    decay_mult: 1
  }
  param {
    lr_mult: 1
    decay_mult: 0
  }
  convolution_param {
    num_output: 2
    pad: 1
    kernel_size: 3
    stride: 1
    weight_filler {
      type: "msra"
    }
    bias_filler {
      type: "constant"
    }
    engine: CUDNN
  }
}
layer {
  name: "Downsample3"
  type: "Downsample"
  bottom: "scaled_flow_gt"
  bottom: "predict_flow4"
  top: "blob34"
}
layer {
  name: "flow_loss4"
  type: "L1Loss"
  bottom: "predict_flow4"
  bottom: "blob34"
  top: "flow_loss4"
  loss_weight: 0.02
  l1_loss_param {
    l2_per_location: true
  }
}
layer {
  name: "Convolution3_1"
  type: "Convolution"
  bottom: "concat4"
  top: "concat4_1"
  param {
    lr_mult: 1
    decay_mult: 1
  }
  param {
    lr_mult: 1
    decay_mult: 0
  }
  convolution_param {
    num_output: 256
    pad: 1
    kernel_size: 3
    stride: 1
    weight_filler {
      type: "msra"
    }
    bias_filler {
      type: "constant"
    }
    engine: CUDNN
  }
}
layer {
  name: "ReLU17"
  type: "ReLU"
  bottom: "concat4_1"
  top: "concat4_1"
  relu_param {
    negative_slope: 0.1
  }
}
layer {
  name: "deconv3"
  type: "Deconvolution"
  bottom: "concat4_1"
  top: "deconv3"
  param {
    lr_mult: 1
    decay_mult: 0
  }
  param {
    lr_mult: 0
    decay_mult: 0
  }
  convolution_param {
    num_output: 128
    pad: 1
    kernel_size: 4
    stride: 2
    weight_filler {
      type: "msra"
    }
    bias_filler {
      type: "constant"
    }
    engine: CUDNN
  }
}
layer {
  name: "ReLU18"
  type: "ReLU"
  bottom: "deconv3"
  top: "deconv3"
  relu_param {
    negative_slope: 0.1
  }
}
layer {
  name: "conv3_2"
  type: "Convolution"
  bottom: "conv3_1"
  top: "conv3_2"
  param {
    lr_mult: 1
    decay_mult: 1
  }
  param {
    lr_mult: 1
    decay_mult: 0
  }
  convolution_param {
    num_output: 128
    pad: 1
    kernel_size: 3
    stride: 1
    weight_filler {
      type: "msra"
    }
    bias_filler {
      type: "constant"
    }
    engine: CUDNN
  }
}
layer {
  name: "ReLU19"
  type: "ReLU"
  bottom: "conv3_2"
  top: "conv3_2"
  relu_param {
    negative_slope: 0.1
  }
}
layer {
  name: "upsample_flow4to3"
  type: "Deconvolution"
  bottom: "predict_flow4"
  top: "upsampled_flow4_to_3"
  param {
    lr_mult: 1
    decay_mult: 0
  }
  param {
    lr_mult: 0
    decay_mult: 0
  }
  convolution_param {
    num_output: 2
    pad: 1
    kernel_size: 4
    stride: 2
    weight_filler {
      type: "msra"
    }
    bias_filler {
      type: "constant"
    }
    engine: CUDNN
  }
}
layer {
  name: "Concat3"
  type: "Concat"
  bottom: "conv3_2"
  bottom: "deconv3"
  bottom: "upsampled_flow4_to_3"
  top: "concat3"
}
layer {
  name: "Convolution4"
  type: "Convolution"
  bottom: "concat3"
  top: "predict_flow3"
  param {
    lr_mult: 1
    decay_mult: 1
  }
  param {
    lr_mult: 1
    decay_mult: 0
  }
  convolution_param {
    num_output: 2
    pad: 1
    kernel_size: 3
    stride: 1
    weight_filler {
      type: "msra"
    }
    bias_filler {
      type: "constant"
    }
    engine: CUDNN
  }
}
layer {
  name: "Downsample4"
  type: "Downsample"
  bottom: "scaled_flow_gt"
  bottom: "predict_flow3"
  top: "blob39"
}
layer {
  name: "flow_loss3"
  type: "L1Loss"
  bottom: "predict_flow3"
  bottom: "blob39"
  top: "flow_loss3"
  loss_weight: 0.01
  l1_loss_param {
    l2_per_location: true
  }
}
layer {
  name: "Convolution4_1"
  type: "Convolution"
  bottom: "concat3"
  top: "concat3_1"
  param {
    lr_mult: 1
    decay_mult: 1
  }
  param {
    lr_mult: 1
    decay_mult: 0
  }
  convolution_param {
    num_output: 128
    pad: 1
    kernel_size: 3
    stride: 1
    weight_filler {
      type: "msra"
    }
    bias_filler {
      type: "constant"
    }
    engine: CUDNN
  }
}
layer {
  name: "ReLU20"
  type: "ReLU"
  bottom: "concat3_1"
  top: "concat3_1"
  relu_param {
    negative_slope: 0.1
  }
}
layer {
  name: "deconv2"
  type: "Deconvolution"
  bottom: "concat3_1"
  top: "deconv2"
  param {
    lr_mult: 1
    decay_mult: 0
  }
  param {
    lr_mult: 0
    decay_mult: 0
  }
  convolution_param {
    num_output: 64
    pad: 1
    kernel_size: 4
    stride: 2
    weight_filler {
      type: "msra"
    }
    bias_filler {
      type: "constant"
    }
    engine: CUDNN
  }
}
layer {
  name: "ReLU21"
  type: "ReLU"
  bottom: "deconv2"
  top: "deconv2"
  relu_param {
    negative_slope: 0.1
  }
}
layer {
  name: "conv2_2"
  type: "Convolution"
  bottom: "conv2"
  top: "conv2_2"
  param {
    lr_mult: 1
    decay_mult: 1
  }
  param {
    lr_mult: 1
    decay_mult: 0
  }
  convolution_param {
    num_output: 64
    pad: 1
    kernel_size: 3
    stride: 1
    weight_filler {
      type: "msra"
    }
    bias_filler {
      type: "constant"
    }
    engine: CUDNN
  }
}
layer {
  name: "ReLU22"
  type: "ReLU"
  bottom: "conv2_2"
  top: "conv2_2"
  relu_param {
    negative_slope: 0.1
  }
}
layer {
  name: "upsample_flow3to2"
  type: "Deconvolution"
  bottom: "predict_flow3"
  top: "upsampled_flow3_to_2"
  param {
    lr_mult: 1
    decay_mult: 0
  }
  param {
    lr_mult: 0
    decay_mult: 0
  }
  convolution_param {
    num_output: 2
    pad: 1
    kernel_size: 4
    stride: 2
    weight_filler {
      type: "msra"
    }
    bias_filler {
      type: "constant"
    }
    engine: CUDNN
  }
}
layer {
  name: "Concat2"
  type: "Concat"
  bottom: "conv2_2"
  bottom: "deconv2"
  bottom: "upsampled_flow3_to_2"
  top: "concat2"
}
layer {
  name: "Convolution5"
  type: "Convolution"
  bottom: "concat2"
  top: "predict_flow2"
  param {
    lr_mult: 1
    decay_mult: 1
  }
  param {
    lr_mult: 1
    decay_mult: 0
  }
  convolution_param {
    num_output: 2
    pad: 1
    kernel_size: 3
    stride: 1
    weight_filler {
      type: "msra"
    }
    bias_filler {
      type: "constant"
    }
    engine: CUDNN
  }
}
layer {
  name: "Downsample5"
  type: "Downsample"
  bottom: "scaled_flow_gt"
  bottom: "predict_flow2"
  top: "blob44"
}
layer {
  name: "flow_loss2"
  type: "L1Loss"
  bottom: "predict_flow2"
  bottom: "blob44"
  top: "flow_loss2"
  loss_weight: 0.005
  l1_loss_param {
    l2_per_location: true
  }
}
I1118 15:36:44.616044 19900 layer_factory.hpp:76] Creating layer Image1
I1118 15:36:44.616077 19900 net.cpp:108] Creating Layer Image1
I1118 15:36:44.616086 19900 net.cpp:417] Image1 -> img0
I1118 15:36:44.616108 19900 image_data_layer.cpp:36] Opening file img1_list.txt
I1118 15:36:44.620872 19900 image_data_layer.cpp:50] A total of 22232 images.
I1118 15:36:48.230521 19900 image_data_layer.cpp:77] output data size: 4,3,384,512
I1118 15:36:48.252912 19900 net.cpp:154] Setting up Image1
I1118 15:36:48.252979 19900 net.cpp:161] Top shape: 4 3 384 512 (2359296)
I1118 15:36:48.252990 19900 net.cpp:169] Memory required for data: 9437184
I1118 15:36:48.253005 19900 layer_factory.hpp:76] Creating layer Image2
I1118 15:36:48.253036 19900 net.cpp:108] Creating Layer Image2
I1118 15:36:48.253049 19900 net.cpp:417] Image2 -> img1
I1118 15:36:48.253072 19900 image_data_layer.cpp:36] Opening file img2_list.txt
I1118 15:36:48.262485 19900 image_data_layer.cpp:50] A total of 22232 images.
I1118 15:36:48.263504 19900 image_data_layer.cpp:77] output data size: 4,3,384,512
I1118 15:36:48.294656 19900 net.cpp:154] Setting up Image2
I1118 15:36:48.294720 19900 net.cpp:161] Top shape: 4 3 384 512 (2359296)
I1118 15:36:48.294728 19900 net.cpp:169] Memory required for data: 18874368
I1118 15:36:48.294737 19900 layer_factory.hpp:76] Creating layer Flow
I1118 15:36:48.294770 19900 net.cpp:108] Creating Layer Flow
I1118 15:36:48.294777 19900 net.cpp:417] Flow -> flow_gt_aug
I1118 15:36:48.315026 19900 flo_data_layer.cpp:62] Opening file flo_list.txt
I1118 15:36:48.322546 19900 flo_data_layer.cpp:76] A total of 22232 images.
I1118 15:36:48.322715 19900 flo_data_layer.cpp:111] output data size: 4,2,384,512
I1118 15:36:48.334679 19900 net.cpp:154] Setting up Flow
I1118 15:36:48.334722 19900 net.cpp:161] Top shape: 4 2 384 512 (1572864)
I1118 15:36:48.334728 19900 net.cpp:169] Memory required for data: 25165824
I1118 15:36:48.334735 19900 layer_factory.hpp:76] Creating layer Mean1
I1118 15:36:48.334748 19900 net.cpp:108] Creating Layer Mean1
I1118 15:36:48.334755 19900 net.cpp:460] Mean1 <- img0
I1118 15:36:48.334772 19900 net.cpp:417] Mean1 -> img0_aug
I1118 15:36:48.334859 19900 net.cpp:154] Setting up Mean1
I1118 15:36:48.334872 19900 net.cpp:161] Top shape: 4 3 384 512 (2359296)
I1118 15:36:48.334877 19900 net.cpp:169] Memory required for data: 34603008
I1118 15:36:48.334880 19900 layer_factory.hpp:76] Creating layer Mean2
I1118 15:36:48.334889 19900 net.cpp:108] Creating Layer Mean2
I1118 15:36:48.334894 19900 net.cpp:460] Mean2 <- img1
I1118 15:36:48.334902 19900 net.cpp:417] Mean2 -> img1_aug
I1118 15:36:48.334946 19900 net.cpp:154] Setting up Mean2
I1118 15:36:48.334959 19900 net.cpp:161] Top shape: 4 3 384 512 (2359296)
I1118 15:36:48.334964 19900 net.cpp:169] Memory required for data: 44040192
I1118 15:36:48.334969 19900 layer_factory.hpp:76] Creating layer Eltwise3
I1118 15:36:48.371889 19900 net.cpp:108] Creating Layer Eltwise3
I1118 15:36:48.371923 19900 net.cpp:460] Eltwise3 <- flow_gt_aug
I1118 15:36:48.371934 19900 net.cpp:417] Eltwise3 -> scaled_flow_gt
I1118 15:36:48.372009 19900 net.cpp:154] Setting up Eltwise3
I1118 15:36:48.372022 19900 net.cpp:161] Top shape: 4 2 384 512 (1572864)
I1118 15:36:48.372027 19900 net.cpp:169] Memory required for data: 50331648
I1118 15:36:48.372032 19900 layer_factory.hpp:76] Creating layer scaled_flow_gt_Eltwise3_0_split
I1118 15:36:48.372755 19900 net.cpp:108] Creating Layer scaled_flow_gt_Eltwise3_0_split
I1118 15:36:48.372766 19900 net.cpp:460] scaled_flow_gt_Eltwise3_0_split <- scaled_flow_gt
I1118 15:36:48.372772 19900 net.cpp:417] scaled_flow_gt_Eltwise3_0_split -> scaled_flow_gt_Eltwise3_0_split_0
I1118 15:36:48.372781 19900 net.cpp:417] scaled_flow_gt_Eltwise3_0_split -> scaled_flow_gt_Eltwise3_0_split_1
I1118 15:36:48.372792 19900 net.cpp:417] scaled_flow_gt_Eltwise3_0_split -> scaled_flow_gt_Eltwise3_0_split_2
I1118 15:36:48.372805 19900 net.cpp:417] scaled_flow_gt_Eltwise3_0_split -> scaled_flow_gt_Eltwise3_0_split_3
I1118 15:36:48.372812 19900 net.cpp:417] scaled_flow_gt_Eltwise3_0_split -> scaled_flow_gt_Eltwise3_0_split_4
I1118 15:36:48.372915 19900 net.cpp:154] Setting up scaled_flow_gt_Eltwise3_0_split
I1118 15:36:48.372926 19900 net.cpp:161] Top shape: 4 2 384 512 (1572864)
I1118 15:36:48.372931 19900 net.cpp:161] Top shape: 4 2 384 512 (1572864)
I1118 15:36:48.372937 19900 net.cpp:161] Top shape: 4 2 384 512 (1572864)
I1118 15:36:48.372942 19900 net.cpp:161] Top shape: 4 2 384 512 (1572864)
I1118 15:36:48.372947 19900 net.cpp:161] Top shape: 4 2 384 512 (1572864)
I1118 15:36:48.372951 19900 net.cpp:169] Memory required for data: 81788928
I1118 15:36:48.372956 19900 layer_factory.hpp:76] Creating layer Concat1
I1118 15:36:48.378815 19900 net.cpp:108] Creating Layer Concat1
I1118 15:36:48.378839 19900 net.cpp:460] Concat1 <- img0_aug
I1118 15:36:48.378847 19900 net.cpp:460] Concat1 <- img1_aug
I1118 15:36:48.378854 19900 net.cpp:417] Concat1 -> input
I1118 15:36:48.378897 19900 net.cpp:154] Setting up Concat1
I1118 15:36:48.378907 19900 net.cpp:161] Top shape: 4 6 384 512 (4718592)
I1118 15:36:48.378912 19900 net.cpp:169] Memory required for data: 100663296
I1118 15:36:48.378918 19900 layer_factory.hpp:76] Creating layer conv1
I1118 15:36:48.378947 19900 net.cpp:108] Creating Layer conv1
I1118 15:36:48.378952 19900 net.cpp:460] conv1 <- input
I1118 15:36:48.378960 19900 net.cpp:417] conv1 -> conv1
I1118 15:36:59.662983 19900 net.cpp:154] Setting up conv1
I1118 15:36:59.663034 19900 net.cpp:161] Top shape: 4 64 192 256 (12582912)
I1118 15:36:59.663051 19900 net.cpp:169] Memory required for data: 150994944
I1118 15:36:59.663089 19900 layer_factory.hpp:76] Creating layer ReLU1
I1118 15:36:59.663107 19900 net.cpp:108] Creating Layer ReLU1
I1118 15:36:59.663118 19900 net.cpp:460] ReLU1 <- conv1
I1118 15:36:59.663130 19900 net.cpp:403] ReLU1 -> conv1 (in-place)
I1118 15:36:59.663364 19900 net.cpp:154] Setting up ReLU1
I1118 15:36:59.663381 19900 net.cpp:161] Top shape: 4 64 192 256 (12582912)
I1118 15:36:59.663388 19900 net.cpp:169] Memory required for data: 201326592
I1118 15:36:59.663395 19900 layer_factory.hpp:76] Creating layer conv2
I1118 15:36:59.663411 19900 net.cpp:108] Creating Layer conv2
I1118 15:36:59.663419 19900 net.cpp:460] conv2 <- conv1
I1118 15:36:59.663430 19900 net.cpp:417] conv2 -> conv2
I1118 15:36:59.676746 19900 net.cpp:154] Setting up conv2
I1118 15:36:59.676779 19900 net.cpp:161] Top shape: 4 128 96 128 (6291456)
I1118 15:36:59.676787 19900 net.cpp:169] Memory required for data: 226492416
I1118 15:36:59.676802 19900 layer_factory.hpp:76] Creating layer ReLU2
I1118 15:36:59.676815 19900 net.cpp:108] Creating Layer ReLU2
I1118 15:36:59.676827 19900 net.cpp:460] ReLU2 <- conv2
I1118 15:36:59.676836 19900 net.cpp:403] ReLU2 -> conv2 (in-place)
I1118 15:36:59.677398 19900 net.cpp:154] Setting up ReLU2
I1118 15:36:59.677422 19900 net.cpp:161] Top shape: 4 128 96 128 (6291456)
I1118 15:36:59.677428 19900 net.cpp:169] Memory required for data: 251658240
I1118 15:36:59.677434 19900 layer_factory.hpp:76] Creating layer conv2_ReLU2_0_split
I1118 15:36:59.677443 19900 net.cpp:108] Creating Layer conv2_ReLU2_0_split
I1118 15:36:59.677449 19900 net.cpp:460] conv2_ReLU2_0_split <- conv2
I1118 15:36:59.677458 19900 net.cpp:417] conv2_ReLU2_0_split -> conv2_ReLU2_0_split_0
I1118 15:36:59.677467 19900 net.cpp:417] conv2_ReLU2_0_split -> conv2_ReLU2_0_split_1
I1118 15:36:59.677526 19900 net.cpp:154] Setting up conv2_ReLU2_0_split
I1118 15:36:59.677536 19900 net.cpp:161] Top shape: 4 128 96 128 (6291456)
I1118 15:36:59.677543 19900 net.cpp:161] Top shape: 4 128 96 128 (6291456)
I1118 15:36:59.677548 19900 net.cpp:169] Memory required for data: 301989888
I1118 15:36:59.677554 19900 layer_factory.hpp:76] Creating layer conv3
I1118 15:36:59.677567 19900 net.cpp:108] Creating Layer conv3
I1118 15:36:59.677573 19900 net.cpp:460] conv3 <- conv2_ReLU2_0_split_0
I1118 15:36:59.677582 19900 net.cpp:417] conv3 -> conv3
I1118 15:36:59.712674 19900 net.cpp:154] Setting up conv3
I1118 15:36:59.712718 19900 net.cpp:161] Top shape: 4 256 48 64 (3145728)
I1118 15:36:59.712726 19900 net.cpp:169] Memory required for data: 314572800
I1118 15:36:59.712743 19900 layer_factory.hpp:76] Creating layer ReLU3
I1118 15:36:59.712759 19900 net.cpp:108] Creating Layer ReLU3
I1118 15:36:59.712765 19900 net.cpp:460] ReLU3 <- conv3
I1118 15:36:59.712774 19900 net.cpp:403] ReLU3 -> conv3 (in-place)
I1118 15:36:59.713323 19900 net.cpp:154] Setting up ReLU3
I1118 15:36:59.713348 19900 net.cpp:161] Top shape: 4 256 48 64 (3145728)
I1118 15:36:59.713354 19900 net.cpp:169] Memory required for data: 327155712
I1118 15:36:59.713361 19900 layer_factory.hpp:76] Creating layer conv3_1
I1118 15:36:59.713374 19900 net.cpp:108] Creating Layer conv3_1
I1118 15:36:59.713382 19900 net.cpp:460] conv3_1 <- conv3
I1118 15:36:59.713390 19900 net.cpp:417] conv3_1 -> conv3_1
I1118 15:36:59.737432 19900 net.cpp:154] Setting up conv3_1
I1118 15:36:59.737474 19900 net.cpp:161] Top shape: 4 256 48 64 (3145728)
I1118 15:36:59.737485 19900 net.cpp:169] Memory required for data: 339738624
I1118 15:36:59.737501 19900 layer_factory.hpp:76] Creating layer ReLU4
I1118 15:36:59.737520 19900 net.cpp:108] Creating Layer ReLU4
I1118 15:36:59.737529 19900 net.cpp:460] ReLU4 <- conv3_1
I1118 15:36:59.737542 19900 net.cpp:403] ReLU4 -> conv3_1 (in-place)
I1118 15:36:59.737826 19900 net.cpp:154] Setting up ReLU4
I1118 15:36:59.737848 19900 net.cpp:161] Top shape: 4 256 48 64 (3145728)
I1118 15:36:59.737856 19900 net.cpp:169] Memory required for data: 352321536
I1118 15:36:59.737865 19900 layer_factory.hpp:76] Creating layer conv3_1_ReLU4_0_split
I1118 15:36:59.737887 19900 net.cpp:108] Creating Layer conv3_1_ReLU4_0_split
I1118 15:36:59.737913 19900 net.cpp:460] conv3_1_ReLU4_0_split <- conv3_1
I1118 15:36:59.737929 19900 net.cpp:417] conv3_1_ReLU4_0_split -> conv3_1_ReLU4_0_split_0
I1118 15:36:59.737946 19900 net.cpp:417] conv3_1_ReLU4_0_split -> conv3_1_ReLU4_0_split_1
I1118 15:36:59.738013 19900 net.cpp:154] Setting up conv3_1_ReLU4_0_split
I1118 15:36:59.738030 19900 net.cpp:161] Top shape: 4 256 48 64 (3145728)
I1118 15:36:59.738040 19900 net.cpp:161] Top shape: 4 256 48 64 (3145728)
I1118 15:36:59.738049 19900 net.cpp:169] Memory required for data: 377487360
I1118 15:36:59.738056 19900 layer_factory.hpp:76] Creating layer conv4
I1118 15:36:59.738075 19900 net.cpp:108] Creating Layer conv4
I1118 15:36:59.738085 19900 net.cpp:460] conv4 <- conv3_1_ReLU4_0_split_0
I1118 15:36:59.738101 19900 net.cpp:417] conv4 -> conv4
I1118 15:36:59.776636 19900 net.cpp:154] Setting up conv4
I1118 15:36:59.776686 19900 net.cpp:161] Top shape: 4 512 24 32 (1572864)
I1118 15:36:59.776696 19900 net.cpp:169] Memory required for data: 383778816
I1118 15:36:59.776717 19900 layer_factory.hpp:76] Creating layer ReLU5
I1118 15:36:59.776737 19900 net.cpp:108] Creating Layer ReLU5
I1118 15:36:59.776747 19900 net.cpp:460] ReLU5 <- conv4
I1118 15:36:59.776758 19900 net.cpp:403] ReLU5 -> conv4 (in-place)
I1118 15:36:59.777014 19900 net.cpp:154] Setting up ReLU5
I1118 15:36:59.777037 19900 net.cpp:161] Top shape: 4 512 24 32 (1572864)
I1118 15:36:59.777046 19900 net.cpp:169] Memory required for data: 390070272
I1118 15:36:59.777053 19900 layer_factory.hpp:76] Creating layer conv4_1
I1118 15:36:59.777087 19900 net.cpp:108] Creating Layer conv4_1
I1118 15:36:59.777096 19900 net.cpp:460] conv4_1 <- conv4
I1118 15:36:59.777107 19900 net.cpp:417] conv4_1 -> conv4_1
I1118 15:36:59.836352 19900 net.cpp:154] Setting up conv4_1
I1118 15:36:59.836391 19900 net.cpp:161] Top shape: 4 512 24 32 (1572864)
I1118 15:36:59.836397 19900 net.cpp:169] Memory required for data: 396361728
I1118 15:36:59.836407 19900 layer_factory.hpp:76] Creating layer ReLU6
I1118 15:36:59.836418 19900 net.cpp:108] Creating Layer ReLU6
I1118 15:36:59.836432 19900 net.cpp:460] ReLU6 <- conv4_1
I1118 15:36:59.836439 19900 net.cpp:403] ReLU6 -> conv4_1 (in-place)
I1118 15:36:59.836588 19900 net.cpp:154] Setting up ReLU6
I1118 15:36:59.836601 19900 net.cpp:161] Top shape: 4 512 24 32 (1572864)
I1118 15:36:59.836604 19900 net.cpp:169] Memory required for data: 402653184
I1118 15:36:59.836608 19900 layer_factory.hpp:76] Creating layer conv4_1_ReLU6_0_split
I1118 15:36:59.836614 19900 net.cpp:108] Creating Layer conv4_1_ReLU6_0_split
I1118 15:36:59.836618 19900 net.cpp:460] conv4_1_ReLU6_0_split <- conv4_1
I1118 15:36:59.836625 19900 net.cpp:417] conv4_1_ReLU6_0_split -> conv4_1_ReLU6_0_split_0
I1118 15:36:59.836632 19900 net.cpp:417] conv4_1_ReLU6_0_split -> conv4_1_ReLU6_0_split_1
I1118 15:36:59.836668 19900 net.cpp:154] Setting up conv4_1_ReLU6_0_split
I1118 15:36:59.836675 19900 net.cpp:161] Top shape: 4 512 24 32 (1572864)
I1118 15:36:59.836679 19900 net.cpp:161] Top shape: 4 512 24 32 (1572864)
I1118 15:36:59.836683 19900 net.cpp:169] Memory required for data: 415236096
I1118 15:36:59.836688 19900 layer_factory.hpp:76] Creating layer conv5
I1118 15:36:59.836699 19900 net.cpp:108] Creating Layer conv5
I1118 15:36:59.836704 19900 net.cpp:460] conv5 <- conv4_1_ReLU6_0_split_0
I1118 15:36:59.836709 19900 net.cpp:417] conv5 -> conv5
I1118 15:36:59.895092 19900 net.cpp:154] Setting up conv5
I1118 15:36:59.895131 19900 net.cpp:161] Top shape: 4 512 12 16 (393216)
I1118 15:36:59.895136 19900 net.cpp:169] Memory required for data: 416808960
I1118 15:36:59.895145 19900 layer_factory.hpp:76] Creating layer ReLU7
I1118 15:36:59.895157 19900 net.cpp:108] Creating Layer ReLU7
I1118 15:36:59.895164 19900 net.cpp:460] ReLU7 <- conv5
I1118 15:36:59.895169 19900 net.cpp:403] ReLU7 -> conv5 (in-place)
I1118 15:36:59.895308 19900 net.cpp:154] Setting up ReLU7
I1118 15:36:59.895319 19900 net.cpp:161] Top shape: 4 512 12 16 (393216)
I1118 15:36:59.895329 19900 net.cpp:169] Memory required for data: 418381824
I1118 15:36:59.895340 19900 layer_factory.hpp:76] Creating layer conv5_1
I1118 15:36:59.895352 19900 net.cpp:108] Creating Layer conv5_1
I1118 15:36:59.895357 19900 net.cpp:460] conv5_1 <- conv5
I1118 15:36:59.895364 19900 net.cpp:417] conv5_1 -> conv5_1
I1118 15:36:59.950100 19900 net.cpp:154] Setting up conv5_1
I1118 15:36:59.950131 19900 net.cpp:161] Top shape: 4 512 12 16 (393216)
I1118 15:36:59.950137 19900 net.cpp:169] Memory required for data: 419954688
I1118 15:36:59.950146 19900 layer_factory.hpp:76] Creating layer ReLU8
I1118 15:36:59.950156 19900 net.cpp:108] Creating Layer ReLU8
I1118 15:36:59.950162 19900 net.cpp:460] ReLU8 <- conv5_1
I1118 15:36:59.950170 19900 net.cpp:403] ReLU8 -> conv5_1 (in-place)
I1118 15:36:59.950568 19900 net.cpp:154] Setting up ReLU8
I1118 15:36:59.950582 19900 net.cpp:161] Top shape: 4 512 12 16 (393216)
I1118 15:36:59.950585 19900 net.cpp:169] Memory required for data: 421527552
I1118 15:36:59.950589 19900 layer_factory.hpp:76] Creating layer conv5_1_ReLU8_0_split
I1118 15:36:59.950597 19900 net.cpp:108] Creating Layer conv5_1_ReLU8_0_split
I1118 15:36:59.950600 19900 net.cpp:460] conv5_1_ReLU8_0_split <- conv5_1
I1118 15:36:59.950606 19900 net.cpp:417] conv5_1_ReLU8_0_split -> conv5_1_ReLU8_0_split_0
I1118 15:36:59.950613 19900 net.cpp:417] conv5_1_ReLU8_0_split -> conv5_1_ReLU8_0_split_1
I1118 15:36:59.950652 19900 net.cpp:154] Setting up conv5_1_ReLU8_0_split
I1118 15:36:59.950661 19900 net.cpp:161] Top shape: 4 512 12 16 (393216)
I1118 15:36:59.950665 19900 net.cpp:161] Top shape: 4 512 12 16 (393216)
I1118 15:36:59.950669 19900 net.cpp:169] Memory required for data: 424673280
I1118 15:36:59.950672 19900 layer_factory.hpp:76] Creating layer conv6
I1118 15:36:59.950683 19900 net.cpp:108] Creating Layer conv6
I1118 15:36:59.950687 19900 net.cpp:460] conv6 <- conv5_1_ReLU8_0_split_0
I1118 15:36:59.950693 19900 net.cpp:417] conv6 -> conv6
I1118 15:37:00.063768 19900 net.cpp:154] Setting up conv6
I1118 15:37:00.063813 19900 net.cpp:161] Top shape: 4 1024 6 8 (196608)
I1118 15:37:00.063818 19900 net.cpp:169] Memory required for data: 425459712
I1118 15:37:00.063832 19900 layer_factory.hpp:76] Creating layer ReLU9
I1118 15:37:00.063848 19900 net.cpp:108] Creating Layer ReLU9
I1118 15:37:00.063853 19900 net.cpp:460] ReLU9 <- conv6
I1118 15:37:00.063861 19900 net.cpp:403] ReLU9 -> conv6 (in-place)
I1118 15:37:00.064354 19900 net.cpp:154] Setting up ReLU9
I1118 15:37:00.064370 19900 net.cpp:161] Top shape: 4 1024 6 8 (196608)
I1118 15:37:00.064375 19900 net.cpp:169] Memory required for data: 426246144
I1118 15:37:00.064378 19900 layer_factory.hpp:76] Creating layer conv6_1
I1118 15:37:00.064389 19900 net.cpp:108] Creating Layer conv6_1
I1118 15:37:00.064393 19900 net.cpp:460] conv6_1 <- conv6
I1118 15:37:00.064402 19900 net.cpp:417] conv6_1 -> conv6_1
I1118 15:37:00.283890 19900 net.cpp:154] Setting up conv6_1
I1118 15:37:00.283927 19900 net.cpp:161] Top shape: 4 1024 6 8 (196608)
I1118 15:37:00.283932 19900 net.cpp:169] Memory required for data: 427032576
I1118 15:37:00.283941 19900 layer_factory.hpp:76] Creating layer ReLU10
I1118 15:37:00.283952 19900 net.cpp:108] Creating Layer ReLU10
I1118 15:37:00.283958 19900 net.cpp:460] ReLU10 <- conv6_1
I1118 15:37:00.283967 19900 net.cpp:403] ReLU10 -> conv6_1 (in-place)
I1118 15:37:00.284116 19900 net.cpp:154] Setting up ReLU10
I1118 15:37:00.284126 19900 net.cpp:161] Top shape: 4 1024 6 8 (196608)
I1118 15:37:00.284128 19900 net.cpp:169] Memory required for data: 427819008
I1118 15:37:00.284132 19900 layer_factory.hpp:76] Creating layer conv6_2
I1118 15:37:00.284147 19900 net.cpp:108] Creating Layer conv6_2
I1118 15:37:00.284152 19900 net.cpp:460] conv6_2 <- conv6_1
I1118 15:37:00.284158 19900 net.cpp:417] conv6_2 -> conv6_2
I1118 15:37:00.310645 19900 net.cpp:154] Setting up conv6_2
I1118 15:37:00.310688 19900 net.cpp:161] Top shape: 4 1024 6 8 (196608)
I1118 15:37:00.310693 19900 net.cpp:169] Memory required for data: 428605440
I1118 15:37:00.310703 19900 layer_factory.hpp:76] Creating layer ReLU11
I1118 15:37:00.310722 19900 net.cpp:108] Creating Layer ReLU11
I1118 15:37:00.310739 19900 net.cpp:460] ReLU11 <- conv6_2
I1118 15:37:00.310748 19900 net.cpp:403] ReLU11 -> conv6_2 (in-place)
I1118 15:37:00.310889 19900 net.cpp:154] Setting up ReLU11
I1118 15:37:00.310900 19900 net.cpp:161] Top shape: 4 1024 6 8 (196608)
I1118 15:37:00.310904 19900 net.cpp:169] Memory required for data: 429391872
I1118 15:37:00.310907 19900 layer_factory.hpp:76] Creating layer conv6_2_ReLU11_0_split
I1118 15:37:00.310914 19900 net.cpp:108] Creating Layer conv6_2_ReLU11_0_split
I1118 15:37:00.310917 19900 net.cpp:460] conv6_2_ReLU11_0_split <- conv6_2
I1118 15:37:00.310925 19900 net.cpp:417] conv6_2_ReLU11_0_split -> conv6_2_ReLU11_0_split_0
I1118 15:37:00.310932 19900 net.cpp:417] conv6_2_ReLU11_0_split -> conv6_2_ReLU11_0_split_1
I1118 15:37:00.310974 19900 net.cpp:154] Setting up conv6_2_ReLU11_0_split
I1118 15:37:00.310982 19900 net.cpp:161] Top shape: 4 1024 6 8 (196608)
I1118 15:37:00.310987 19900 net.cpp:161] Top shape: 4 1024 6 8 (196608)
I1118 15:37:00.310992 19900 net.cpp:169] Memory required for data: 430964736
I1118 15:37:00.310994 19900 layer_factory.hpp:76] Creating layer Convolution1
I1118 15:37:00.311004 19900 net.cpp:108] Creating Layer Convolution1
I1118 15:37:00.311009 19900 net.cpp:460] Convolution1 <- conv6_2_ReLU11_0_split_0
I1118 15:37:00.311017 19900 net.cpp:417] Convolution1 -> predict_flow6
I1118 15:37:00.312644 19900 net.cpp:154] Setting up Convolution1
I1118 15:37:00.312664 19900 net.cpp:161] Top shape: 4 2 6 8 (384)
I1118 15:37:00.312669 19900 net.cpp:169] Memory required for data: 430966272
I1118 15:37:00.312676 19900 layer_factory.hpp:76] Creating layer predict_flow6_Convolution1_0_split
I1118 15:37:00.312683 19900 net.cpp:108] Creating Layer predict_flow6_Convolution1_0_split
I1118 15:37:00.312687 19900 net.cpp:460] predict_flow6_Convolution1_0_split <- predict_flow6
I1118 15:37:00.312695 19900 net.cpp:417] predict_flow6_Convolution1_0_split -> predict_flow6_Convolution1_0_split_0
I1118 15:37:00.312701 19900 net.cpp:417] predict_flow6_Convolution1_0_split -> predict_flow6_Convolution1_0_split_1
I1118 15:37:00.312707 19900 net.cpp:417] predict_flow6_Convolution1_0_split -> predict_flow6_Convolution1_0_split_2
I1118 15:37:00.312755 19900 net.cpp:154] Setting up predict_flow6_Convolution1_0_split
I1118 15:37:00.312763 19900 net.cpp:161] Top shape: 4 2 6 8 (384)
I1118 15:37:00.312767 19900 net.cpp:161] Top shape: 4 2 6 8 (384)
I1118 15:37:00.312772 19900 net.cpp:161] Top shape: 4 2 6 8 (384)
I1118 15:37:00.312774 19900 net.cpp:169] Memory required for data: 430970880
I1118 15:37:00.312777 19900 layer_factory.hpp:76] Creating layer Downsample1
I1118 15:37:00.312784 19900 net.cpp:108] Creating Layer Downsample1
I1118 15:37:00.312788 19900 net.cpp:460] Downsample1 <- scaled_flow_gt_Eltwise3_0_split_0
I1118 15:37:00.312793 19900 net.cpp:460] Downsample1 <- predict_flow6_Convolution1_0_split_0
I1118 15:37:00.312798 19900 net.cpp:417] Downsample1 -> blob24
I1118 15:37:00.312819 19900 net.cpp:154] Setting up Downsample1
I1118 15:37:00.312825 19900 net.cpp:161] Top shape: 4 2 6 8 (384)
I1118 15:37:00.312829 19900 net.cpp:169] Memory required for data: 430972416
W1118 15:37:00.312834 19900 vision_layers.hpp:445] DownsampleLayer does not do backward.
I1118 15:37:00.417464 19900 layer_factory.hpp:76] Creating layer flow_loss6
I1118 15:37:00.417496 19900 net.cpp:108] Creating Layer flow_loss6
I1118 15:37:00.417505 19900 net.cpp:460] flow_loss6 <- predict_flow6_Convolution1_0_split_1
I1118 15:37:00.417513 19900 net.cpp:460] flow_loss6 <- blob24
I1118 15:37:00.417520 19900 net.cpp:417] flow_loss6 -> flow_loss6
I1118 15:37:00.417893 19900 net.cpp:154] Setting up flow_loss6
I1118 15:37:00.417906 19900 net.cpp:161] Top shape: (1)
I1118 15:37:00.417910 19900 net.cpp:164]     with loss weight 0.32
I1118 15:37:00.417927 19900 net.cpp:169] Memory required for data: 430972420
I1118 15:37:00.417932 19900 layer_factory.hpp:76] Creating layer deconv5
I1118 15:37:00.496327 19900 net.cpp:108] Creating Layer deconv5
I1118 15:37:00.496381 19900 net.cpp:460] deconv5 <- conv6_2_ReLU11_0_split_1
I1118 15:37:00.496400 19900 net.cpp:417] deconv5 -> deconv5
I1118 15:37:00.689301 19900 net.cpp:154] Setting up deconv5
I1118 15:37:00.689339 19900 net.cpp:161] Top shape: 4 512 12 16 (393216)
I1118 15:37:00.689345 19900 net.cpp:169] Memory required for data: 432545284
I1118 15:37:00.689353 19900 layer_factory.hpp:76] Creating layer ReLU12
I1118 15:37:00.689365 19900 net.cpp:108] Creating Layer ReLU12
I1118 15:37:00.689370 19900 net.cpp:460] ReLU12 <- deconv5
I1118 15:37:00.689378 19900 net.cpp:403] ReLU12 -> deconv5 (in-place)
I1118 15:37:00.689582 19900 net.cpp:154] Setting up ReLU12
I1118 15:37:00.689601 19900 net.cpp:161] Top shape: 4 512 12 16 (393216)
I1118 15:37:00.689604 19900 net.cpp:169] Memory required for data: 434118148
I1118 15:37:00.689609 19900 layer_factory.hpp:76] Creating layer conv5_2
I1118 15:37:00.689618 19900 net.cpp:108] Creating Layer conv5_2
I1118 15:37:00.689625 19900 net.cpp:460] conv5_2 <- conv5_1_ReLU8_0_split_1
I1118 15:37:00.689631 19900 net.cpp:417] conv5_2 -> conv5_2
I1118 15:37:00.750530 19900 net.cpp:154] Setting up conv5_2
I1118 15:37:00.750571 19900 net.cpp:161] Top shape: 4 512 12 16 (393216)
I1118 15:37:00.750576 19900 net.cpp:169] Memory required for data: 435691012
I1118 15:37:00.750586 19900 layer_factory.hpp:76] Creating layer ReLU13
I1118 15:37:00.750599 19900 net.cpp:108] Creating Layer ReLU13
I1118 15:37:00.750607 19900 net.cpp:460] ReLU13 <- conv5_2
I1118 15:37:00.750613 19900 net.cpp:403] ReLU13 -> conv5_2 (in-place)
I1118 15:37:00.750758 19900 net.cpp:154] Setting up ReLU13
I1118 15:37:00.750769 19900 net.cpp:161] Top shape: 4 512 12 16 (393216)
I1118 15:37:00.750773 19900 net.cpp:169] Memory required for data: 437263876
I1118 15:37:00.750777 19900 layer_factory.hpp:76] Creating layer upsample_flow6to5
I1118 15:37:00.750787 19900 net.cpp:108] Creating Layer upsample_flow6to5
I1118 15:37:00.750794 19900 net.cpp:460] upsample_flow6to5 <- predict_flow6_Convolution1_0_split_2
I1118 15:37:00.750802 19900 net.cpp:417] upsample_flow6to5 -> upsampled_flow6_to_5
I1118 15:37:00.750984 19900 net.cpp:154] Setting up upsample_flow6to5
I1118 15:37:00.750994 19900 net.cpp:161] Top shape: 4 2 12 16 (1536)
I1118 15:37:00.750998 19900 net.cpp:169] Memory required for data: 437270020
I1118 15:37:00.751003 19900 layer_factory.hpp:76] Creating layer Concat5
I1118 15:37:00.751013 19900 net.cpp:108] Creating Layer Concat5
I1118 15:37:00.751020 19900 net.cpp:460] Concat5 <- conv5_2
I1118 15:37:00.751029 19900 net.cpp:460] Concat5 <- deconv5
I1118 15:37:00.751037 19900 net.cpp:460] Concat5 <- upsampled_flow6_to_5
I1118 15:37:00.751045 19900 net.cpp:417] Concat5 -> concat5
I1118 15:37:00.751080 19900 net.cpp:154] Setting up Concat5
I1118 15:37:00.751091 19900 net.cpp:161] Top shape: 4 1026 12 16 (787968)
I1118 15:37:00.751096 19900 net.cpp:169] Memory required for data: 440421892
I1118 15:37:00.751102 19900 layer_factory.hpp:76] Creating layer concat5_Concat5_0_split
I1118 15:37:00.751113 19900 net.cpp:108] Creating Layer concat5_Concat5_0_split
I1118 15:37:00.751121 19900 net.cpp:460] concat5_Concat5_0_split <- concat5
I1118 15:37:00.751128 19900 net.cpp:417] concat5_Concat5_0_split -> concat5_Concat5_0_split_0
I1118 15:37:00.751137 19900 net.cpp:417] concat5_Concat5_0_split -> concat5_Concat5_0_split_1
I1118 15:37:00.751180 19900 net.cpp:154] Setting up concat5_Concat5_0_split
I1118 15:37:00.751191 19900 net.cpp:161] Top shape: 4 1026 12 16 (787968)
I1118 15:37:00.751199 19900 net.cpp:161] Top shape: 4 1026 12 16 (787968)
I1118 15:37:00.751205 19900 net.cpp:169] Memory required for data: 446725636
I1118 15:37:00.751211 19900 layer_factory.hpp:76] Creating layer Convolution2
I1118 15:37:00.751224 19900 net.cpp:108] Creating Layer Convolution2
I1118 15:37:00.751230 19900 net.cpp:460] Convolution2 <- concat5_Concat5_0_split_0
I1118 15:37:00.751240 19900 net.cpp:417] Convolution2 -> predict_flow5
I1118 15:37:00.753424 19900 net.cpp:154] Setting up Convolution2
I1118 15:37:00.753448 19900 net.cpp:161] Top shape: 4 2 12 16 (1536)
I1118 15:37:00.753463 19900 net.cpp:169] Memory required for data: 446731780
I1118 15:37:00.753484 19900 layer_factory.hpp:76] Creating layer predict_flow5_Convolution2_0_split
I1118 15:37:00.753497 19900 net.cpp:108] Creating Layer predict_flow5_Convolution2_0_split
I1118 15:37:00.753506 19900 net.cpp:460] predict_flow5_Convolution2_0_split <- predict_flow5
I1118 15:37:00.753515 19900 net.cpp:417] predict_flow5_Convolution2_0_split -> predict_flow5_Convolution2_0_split_0
I1118 15:37:00.753527 19900 net.cpp:417] predict_flow5_Convolution2_0_split -> predict_flow5_Convolution2_0_split_1
I1118 15:37:00.753538 19900 net.cpp:417] predict_flow5_Convolution2_0_split -> predict_flow5_Convolution2_0_split_2
I1118 15:37:00.753604 19900 net.cpp:154] Setting up predict_flow5_Convolution2_0_split
I1118 15:37:00.753615 19900 net.cpp:161] Top shape: 4 2 12 16 (1536)
I1118 15:37:00.753623 19900 net.cpp:161] Top shape: 4 2 12 16 (1536)
I1118 15:37:00.753629 19900 net.cpp:161] Top shape: 4 2 12 16 (1536)
I1118 15:37:00.753635 19900 net.cpp:169] Memory required for data: 446750212
I1118 15:37:00.753641 19900 layer_factory.hpp:76] Creating layer Downsample2
I1118 15:37:00.753649 19900 net.cpp:108] Creating Layer Downsample2
I1118 15:37:00.753655 19900 net.cpp:460] Downsample2 <- scaled_flow_gt_Eltwise3_0_split_1
I1118 15:37:00.753664 19900 net.cpp:460] Downsample2 <- predict_flow5_Convolution2_0_split_0
I1118 15:37:00.753674 19900 net.cpp:417] Downsample2 -> blob29
I1118 15:37:00.753703 19900 net.cpp:154] Setting up Downsample2
I1118 15:37:00.753715 19900 net.cpp:161] Top shape: 4 2 12 16 (1536)
I1118 15:37:00.753720 19900 net.cpp:169] Memory required for data: 446756356
W1118 15:37:00.753726 19900 vision_layers.hpp:445] DownsampleLayer does not do backward.
I1118 15:37:00.753736 19900 layer_factory.hpp:76] Creating layer flow_loss5
I1118 15:37:00.753747 19900 net.cpp:108] Creating Layer flow_loss5
I1118 15:37:00.753754 19900 net.cpp:460] flow_loss5 <- predict_flow5_Convolution2_0_split_1
I1118 15:37:00.753762 19900 net.cpp:460] flow_loss5 <- blob29
I1118 15:37:00.753772 19900 net.cpp:417] flow_loss5 -> flow_loss5
I1118 15:37:00.754139 19900 net.cpp:154] Setting up flow_loss5
I1118 15:37:00.754155 19900 net.cpp:161] Top shape: (1)
I1118 15:37:00.754161 19900 net.cpp:164]     with loss weight 0.08
I1118 15:37:00.754179 19900 net.cpp:169] Memory required for data: 446756360
I1118 15:37:00.754185 19900 layer_factory.hpp:76] Creating layer Convolution2_1
I1118 15:37:00.754197 19900 net.cpp:108] Creating Layer Convolution2_1
I1118 15:37:00.754205 19900 net.cpp:460] Convolution2_1 <- concat5_Concat5_0_split_1
I1118 15:37:00.754215 19900 net.cpp:417] Convolution2_1 -> concat5_1
I1118 15:37:00.874264 19900 net.cpp:154] Setting up Convolution2_1
I1118 15:37:00.874294 19900 net.cpp:161] Top shape: 4 512 12 16 (393216)
I1118 15:37:00.874300 19900 net.cpp:169] Memory required for data: 448329224
I1118 15:37:00.874315 19900 layer_factory.hpp:76] Creating layer ReLU14
I1118 15:37:00.874325 19900 net.cpp:108] Creating Layer ReLU14
I1118 15:37:00.874330 19900 net.cpp:460] ReLU14 <- concat5_1
I1118 15:37:00.874335 19900 net.cpp:403] ReLU14 -> concat5_1 (in-place)
I1118 15:37:00.874474 19900 net.cpp:154] Setting up ReLU14
I1118 15:37:00.874483 19900 net.cpp:161] Top shape: 4 512 12 16 (393216)
I1118 15:37:00.874486 19900 net.cpp:169] Memory required for data: 449902088
I1118 15:37:00.874490 19900 layer_factory.hpp:76] Creating layer deconv4
I1118 15:37:00.874500 19900 net.cpp:108] Creating Layer deconv4
I1118 15:37:00.874503 19900 net.cpp:460] deconv4 <- concat5_1
I1118 15:37:00.874511 19900 net.cpp:417] deconv4 -> deconv4
I1118 15:37:00.926967 19900 net.cpp:154] Setting up deconv4
I1118 15:37:00.927006 19900 net.cpp:161] Top shape: 4 256 24 32 (786432)
I1118 15:37:00.927011 19900 net.cpp:169] Memory required for data: 453047816
I1118 15:37:00.927018 19900 layer_factory.hpp:76] Creating layer ReLU15
I1118 15:37:00.927028 19900 net.cpp:108] Creating Layer ReLU15
I1118 15:37:00.927033 19900 net.cpp:460] ReLU15 <- deconv4
I1118 15:37:00.927039 19900 net.cpp:403] ReLU15 -> deconv4 (in-place)
I1118 15:37:00.927608 19900 net.cpp:154] Setting up ReLU15
I1118 15:37:00.927624 19900 net.cpp:161] Top shape: 4 256 24 32 (786432)
I1118 15:37:00.927628 19900 net.cpp:169] Memory required for data: 456193544
I1118 15:37:00.927633 19900 layer_factory.hpp:76] Creating layer conv4_2
I1118 15:37:00.927644 19900 net.cpp:108] Creating Layer conv4_2
I1118 15:37:00.927649 19900 net.cpp:460] conv4_2 <- conv4_1_ReLU6_0_split_1
I1118 15:37:00.927655 19900 net.cpp:417] conv4_2 -> conv4_2
I1118 15:37:00.958127 19900 net.cpp:154] Setting up conv4_2
I1118 15:37:00.958175 19900 net.cpp:161] Top shape: 4 256 24 32 (786432)
I1118 15:37:00.958180 19900 net.cpp:169] Memory required for data: 459339272
I1118 15:37:00.958189 19900 layer_factory.hpp:76] Creating layer ReLU16
I1118 15:37:00.958197 19900 net.cpp:108] Creating Layer ReLU16
I1118 15:37:00.958204 19900 net.cpp:460] ReLU16 <- conv4_2
I1118 15:37:00.958212 19900 net.cpp:403] ReLU16 -> conv4_2 (in-place)
I1118 15:37:00.958364 19900 net.cpp:154] Setting up ReLU16
I1118 15:37:00.958374 19900 net.cpp:161] Top shape: 4 256 24 32 (786432)
I1118 15:37:00.958377 19900 net.cpp:169] Memory required for data: 462485000
I1118 15:37:00.958381 19900 layer_factory.hpp:76] Creating layer upsample_flow5to4
I1118 15:37:00.958391 19900 net.cpp:108] Creating Layer upsample_flow5to4
I1118 15:37:00.958395 19900 net.cpp:460] upsample_flow5to4 <- predict_flow5_Convolution2_0_split_2
I1118 15:37:00.958402 19900 net.cpp:417] upsample_flow5to4 -> upsampled_flow5_to_4
I1118 15:37:00.958585 19900 net.cpp:154] Setting up upsample_flow5to4
I1118 15:37:00.958592 19900 net.cpp:161] Top shape: 4 2 24 32 (6144)
I1118 15:37:00.958596 19900 net.cpp:169] Memory required for data: 462509576
I1118 15:37:00.958601 19900 layer_factory.hpp:76] Creating layer Concat4
I1118 15:37:00.958607 19900 net.cpp:108] Creating Layer Concat4
I1118 15:37:00.958611 19900 net.cpp:460] Concat4 <- conv4_2
I1118 15:37:00.958616 19900 net.cpp:460] Concat4 <- deconv4
I1118 15:37:00.958619 19900 net.cpp:460] Concat4 <- upsampled_flow5_to_4
I1118 15:37:00.958624 19900 net.cpp:417] Concat4 -> concat4
I1118 15:37:00.958644 19900 net.cpp:154] Setting up Concat4
I1118 15:37:00.958650 19900 net.cpp:161] Top shape: 4 514 24 32 (1579008)
I1118 15:37:00.958654 19900 net.cpp:169] Memory required for data: 468825608
I1118 15:37:00.958657 19900 layer_factory.hpp:76] Creating layer concat4_Concat4_0_split
I1118 15:37:00.958663 19900 net.cpp:108] Creating Layer concat4_Concat4_0_split
I1118 15:37:00.958667 19900 net.cpp:460] concat4_Concat4_0_split <- concat4
I1118 15:37:00.958673 19900 net.cpp:417] concat4_Concat4_0_split -> concat4_Concat4_0_split_0
I1118 15:37:00.958678 19900 net.cpp:417] concat4_Concat4_0_split -> concat4_Concat4_0_split_1
I1118 15:37:00.958705 19900 net.cpp:154] Setting up concat4_Concat4_0_split
I1118 15:37:00.958711 19900 net.cpp:161] Top shape: 4 514 24 32 (1579008)
I1118 15:37:00.958715 19900 net.cpp:161] Top shape: 4 514 24 32 (1579008)
I1118 15:37:00.958719 19900 net.cpp:169] Memory required for data: 481457672
I1118 15:37:00.958721 19900 layer_factory.hpp:76] Creating layer Convolution3
I1118 15:37:00.958729 19900 net.cpp:108] Creating Layer Convolution3
I1118 15:37:00.958734 19900 net.cpp:460] Convolution3 <- concat4_Concat4_0_split_0
I1118 15:37:00.958739 19900 net.cpp:417] Convolution3 -> predict_flow4
I1118 15:37:00.959995 19900 net.cpp:154] Setting up Convolution3
I1118 15:37:00.960011 19900 net.cpp:161] Top shape: 4 2 24 32 (6144)
I1118 15:37:00.960016 19900 net.cpp:169] Memory required for data: 481482248
I1118 15:37:00.960021 19900 layer_factory.hpp:76] Creating layer predict_flow4_Convolution3_0_split
I1118 15:37:00.960031 19900 net.cpp:108] Creating Layer predict_flow4_Convolution3_0_split
I1118 15:37:00.960036 19900 net.cpp:460] predict_flow4_Convolution3_0_split <- predict_flow4
I1118 15:37:00.960041 19900 net.cpp:417] predict_flow4_Convolution3_0_split -> predict_flow4_Convolution3_0_split_0
I1118 15:37:00.960047 19900 net.cpp:417] predict_flow4_Convolution3_0_split -> predict_flow4_Convolution3_0_split_1
I1118 15:37:00.960060 19900 net.cpp:417] predict_flow4_Convolution3_0_split -> predict_flow4_Convolution3_0_split_2
I1118 15:37:00.960113 19900 net.cpp:154] Setting up predict_flow4_Convolution3_0_split
I1118 15:37:00.960119 19900 net.cpp:161] Top shape: 4 2 24 32 (6144)
I1118 15:37:00.960124 19900 net.cpp:161] Top shape: 4 2 24 32 (6144)
I1118 15:37:00.960127 19900 net.cpp:161] Top shape: 4 2 24 32 (6144)
I1118 15:37:00.960130 19900 net.cpp:169] Memory required for data: 481555976
I1118 15:37:00.960134 19900 layer_factory.hpp:76] Creating layer Downsample3
I1118 15:37:00.960139 19900 net.cpp:108] Creating Layer Downsample3
I1118 15:37:00.960142 19900 net.cpp:460] Downsample3 <- scaled_flow_gt_Eltwise3_0_split_2
I1118 15:37:00.960147 19900 net.cpp:460] Downsample3 <- predict_flow4_Convolution3_0_split_0
I1118 15:37:00.960151 19900 net.cpp:417] Downsample3 -> blob34
I1118 15:37:00.960171 19900 net.cpp:154] Setting up Downsample3
I1118 15:37:00.960177 19900 net.cpp:161] Top shape: 4 2 24 32 (6144)
I1118 15:37:00.960180 19900 net.cpp:169] Memory required for data: 481580552
W1118 15:37:00.960183 19900 vision_layers.hpp:445] DownsampleLayer does not do backward.
I1118 15:37:00.960191 19900 layer_factory.hpp:76] Creating layer flow_loss4
I1118 15:37:00.960197 19900 net.cpp:108] Creating Layer flow_loss4
I1118 15:37:00.960201 19900 net.cpp:460] flow_loss4 <- predict_flow4_Convolution3_0_split_1
I1118 15:37:00.960206 19900 net.cpp:460] flow_loss4 <- blob34
I1118 15:37:00.960211 19900 net.cpp:417] flow_loss4 -> flow_loss4
I1118 15:37:00.960474 19900 net.cpp:154] Setting up flow_loss4
I1118 15:37:00.960484 19900 net.cpp:161] Top shape: (1)
I1118 15:37:00.960487 19900 net.cpp:164]     with loss weight 0.02
I1118 15:37:00.960499 19900 net.cpp:169] Memory required for data: 481580556
I1118 15:37:00.960501 19900 layer_factory.hpp:76] Creating layer Convolution3_1
I1118 15:37:00.960510 19900 net.cpp:108] Creating Layer Convolution3_1
I1118 15:37:00.960515 19900 net.cpp:460] Convolution3_1 <- concat4_Concat4_0_split_1
I1118 15:37:00.960520 19900 net.cpp:417] Convolution3_1 -> concat4_1
I1118 15:37:00.988967 19900 net.cpp:154] Setting up Convolution3_1
I1118 15:37:00.989014 19900 net.cpp:161] Top shape: 4 256 24 32 (786432)
I1118 15:37:00.989022 19900 net.cpp:169] Memory required for data: 484726284
I1118 15:37:00.989035 19900 layer_factory.hpp:76] Creating layer ReLU17
I1118 15:37:00.989058 19900 net.cpp:108] Creating Layer ReLU17
I1118 15:37:00.989069 19900 net.cpp:460] ReLU17 <- concat4_1
I1118 15:37:00.989080 19900 net.cpp:403] ReLU17 -> concat4_1 (in-place)
I1118 15:37:00.989277 19900 net.cpp:154] Setting up ReLU17
I1118 15:37:00.989292 19900 net.cpp:161] Top shape: 4 256 24 32 (786432)
I1118 15:37:00.989297 19900 net.cpp:169] Memory required for data: 487872012
I1118 15:37:00.989305 19900 layer_factory.hpp:76] Creating layer deconv3
I1118 15:37:00.989318 19900 net.cpp:108] Creating Layer deconv3
I1118 15:37:00.989326 19900 net.cpp:460] deconv3 <- concat4_1
I1118 15:37:00.989336 19900 net.cpp:417] deconv3 -> deconv3
I1118 15:37:01.001688 19900 net.cpp:154] Setting up deconv3
I1118 15:37:01.001708 19900 net.cpp:161] Top shape: 4 128 48 64 (1572864)
I1118 15:37:01.001713 19900 net.cpp:169] Memory required for data: 494163468
I1118 15:37:01.001718 19900 layer_factory.hpp:76] Creating layer ReLU18
I1118 15:37:01.001727 19900 net.cpp:108] Creating Layer ReLU18
I1118 15:37:01.001732 19900 net.cpp:460] ReLU18 <- deconv3
I1118 15:37:01.001736 19900 net.cpp:403] ReLU18 -> deconv3 (in-place)
I1118 15:37:01.001888 19900 net.cpp:154] Setting up ReLU18
I1118 15:37:01.001896 19900 net.cpp:161] Top shape: 4 128 48 64 (1572864)
I1118 15:37:01.001900 19900 net.cpp:169] Memory required for data: 500454924
I1118 15:37:01.001904 19900 layer_factory.hpp:76] Creating layer conv3_2
I1118 15:37:01.001912 19900 net.cpp:108] Creating Layer conv3_2
I1118 15:37:01.001917 19900 net.cpp:460] conv3_2 <- conv3_1_ReLU4_0_split_1
I1118 15:37:01.001924 19900 net.cpp:417] conv3_2 -> conv3_2
I1118 15:37:01.009591 19900 net.cpp:154] Setting up conv3_2
I1118 15:37:01.009623 19900 net.cpp:161] Top shape: 4 128 48 64 (1572864)
I1118 15:37:01.009639 19900 net.cpp:169] Memory required for data: 506746380
I1118 15:37:01.009652 19900 layer_factory.hpp:76] Creating layer ReLU19
I1118 15:37:01.009663 19900 net.cpp:108] Creating Layer ReLU19
I1118 15:37:01.009670 19900 net.cpp:460] ReLU19 <- conv3_2
I1118 15:37:01.009677 19900 net.cpp:403] ReLU19 -> conv3_2 (in-place)
I1118 15:37:01.009869 19900 net.cpp:154] Setting up ReLU19
I1118 15:37:01.009884 19900 net.cpp:161] Top shape: 4 128 48 64 (1572864)
I1118 15:37:01.009891 19900 net.cpp:169] Memory required for data: 513037836
I1118 15:37:01.009896 19900 layer_factory.hpp:76] Creating layer upsample_flow4to3
I1118 15:37:01.009907 19900 net.cpp:108] Creating Layer upsample_flow4to3
I1118 15:37:01.009917 19900 net.cpp:460] upsample_flow4to3 <- predict_flow4_Convolution3_0_split_2
I1118 15:37:01.009927 19900 net.cpp:417] upsample_flow4to3 -> upsampled_flow4_to_3
I1118 15:37:01.010186 19900 net.cpp:154] Setting up upsample_flow4to3
I1118 15:37:01.010215 19900 net.cpp:161] Top shape: 4 2 48 64 (24576)
I1118 15:37:01.010234 19900 net.cpp:169] Memory required for data: 513136140
I1118 15:37:01.010243 19900 layer_factory.hpp:76] Creating layer Concat3
I1118 15:37:01.010256 19900 net.cpp:108] Creating Layer Concat3
I1118 15:37:01.010262 19900 net.cpp:460] Concat3 <- conv3_2
I1118 15:37:01.010269 19900 net.cpp:460] Concat3 <- deconv3
I1118 15:37:01.010277 19900 net.cpp:460] Concat3 <- upsampled_flow4_to_3
I1118 15:37:01.010284 19900 net.cpp:417] Concat3 -> concat3
I1118 15:37:01.010315 19900 net.cpp:154] Setting up Concat3
I1118 15:37:01.010325 19900 net.cpp:161] Top shape: 4 258 48 64 (3170304)
I1118 15:37:01.010331 19900 net.cpp:169] Memory required for data: 525817356
I1118 15:37:01.010336 19900 layer_factory.hpp:76] Creating layer concat3_Concat3_0_split
I1118 15:37:01.010344 19900 net.cpp:108] Creating Layer concat3_Concat3_0_split
I1118 15:37:01.010350 19900 net.cpp:460] concat3_Concat3_0_split <- concat3
I1118 15:37:01.010357 19900 net.cpp:417] concat3_Concat3_0_split -> concat3_Concat3_0_split_0
I1118 15:37:01.010367 19900 net.cpp:417] concat3_Concat3_0_split -> concat3_Concat3_0_split_1
I1118 15:37:01.010411 19900 net.cpp:154] Setting up concat3_Concat3_0_split
I1118 15:37:01.010421 19900 net.cpp:161] Top shape: 4 258 48 64 (3170304)
I1118 15:37:01.010426 19900 net.cpp:161] Top shape: 4 258 48 64 (3170304)
I1118 15:37:01.010433 19900 net.cpp:169] Memory required for data: 551179788
I1118 15:37:01.010438 19900 layer_factory.hpp:76] Creating layer Convolution4
I1118 15:37:01.010450 19900 net.cpp:108] Creating Layer Convolution4
I1118 15:37:01.010457 19900 net.cpp:460] Convolution4 <- concat3_Concat3_0_split_0
I1118 15:37:01.010465 19900 net.cpp:417] Convolution4 -> predict_flow3
I1118 15:37:01.011806 19900 net.cpp:154] Setting up Convolution4
I1118 15:37:01.011827 19900 net.cpp:161] Top shape: 4 2 48 64 (24576)
I1118 15:37:01.011836 19900 net.cpp:169] Memory required for data: 551278092
I1118 15:37:01.011845 19900 layer_factory.hpp:76] Creating layer predict_flow3_Convolution4_0_split
I1118 15:37:01.011857 19900 net.cpp:108] Creating Layer predict_flow3_Convolution4_0_split
I1118 15:37:01.011864 19900 net.cpp:460] predict_flow3_Convolution4_0_split <- predict_flow3
I1118 15:37:01.011873 19900 net.cpp:417] predict_flow3_Convolution4_0_split -> predict_flow3_Convolution4_0_split_0
I1118 15:37:01.011888 19900 net.cpp:417] predict_flow3_Convolution4_0_split -> predict_flow3_Convolution4_0_split_1
I1118 15:37:01.011898 19900 net.cpp:417] predict_flow3_Convolution4_0_split -> predict_flow3_Convolution4_0_split_2
I1118 15:37:01.011960 19900 net.cpp:154] Setting up predict_flow3_Convolution4_0_split
I1118 15:37:01.011970 19900 net.cpp:161] Top shape: 4 2 48 64 (24576)
I1118 15:37:01.011977 19900 net.cpp:161] Top shape: 4 2 48 64 (24576)
I1118 15:37:01.011983 19900 net.cpp:161] Top shape: 4 2 48 64 (24576)
I1118 15:37:01.011988 19900 net.cpp:169] Memory required for data: 551573004
I1118 15:37:01.011994 19900 layer_factory.hpp:76] Creating layer Downsample4
I1118 15:37:01.012007 19900 net.cpp:108] Creating Layer Downsample4
I1118 15:37:01.012020 19900 net.cpp:460] Downsample4 <- scaled_flow_gt_Eltwise3_0_split_3
I1118 15:37:01.012027 19900 net.cpp:460] Downsample4 <- predict_flow3_Convolution4_0_split_0
I1118 15:37:01.012038 19900 net.cpp:417] Downsample4 -> blob39
I1118 15:37:01.012070 19900 net.cpp:154] Setting up Downsample4
I1118 15:37:01.012080 19900 net.cpp:161] Top shape: 4 2 48 64 (24576)
I1118 15:37:01.012086 19900 net.cpp:169] Memory required for data: 551671308
W1118 15:37:01.012091 19900 vision_layers.hpp:445] DownsampleLayer does not do backward.
I1118 15:37:01.012102 19900 layer_factory.hpp:76] Creating layer flow_loss3
I1118 15:37:01.012111 19900 net.cpp:108] Creating Layer flow_loss3
I1118 15:37:01.012118 19900 net.cpp:460] flow_loss3 <- predict_flow3_Convolution4_0_split_1
I1118 15:37:01.012125 19900 net.cpp:460] flow_loss3 <- blob39
I1118 15:37:01.012133 19900 net.cpp:417] flow_loss3 -> flow_loss3
I1118 15:37:01.012524 19900 net.cpp:154] Setting up flow_loss3
I1118 15:37:01.012538 19900 net.cpp:161] Top shape: (1)
I1118 15:37:01.012543 19900 net.cpp:164]     with loss weight 0.01
I1118 15:37:01.012559 19900 net.cpp:169] Memory required for data: 551671312
I1118 15:37:01.012565 19900 layer_factory.hpp:76] Creating layer Convolution4_1
I1118 15:37:01.012578 19900 net.cpp:108] Creating Layer Convolution4_1
I1118 15:37:01.012585 19900 net.cpp:460] Convolution4_1 <- concat3_Concat3_0_split_1
I1118 15:37:01.012595 19900 net.cpp:417] Convolution4_1 -> concat3_1
I1118 15:37:01.021277 19900 net.cpp:154] Setting up Convolution4_1
I1118 15:37:01.021294 19900 net.cpp:161] Top shape: 4 128 48 64 (1572864)
I1118 15:37:01.021312 19900 net.cpp:169] Memory required for data: 557962768
I1118 15:37:01.021318 19900 layer_factory.hpp:76] Creating layer ReLU20
I1118 15:37:01.021327 19900 net.cpp:108] Creating Layer ReLU20
I1118 15:37:01.021332 19900 net.cpp:460] ReLU20 <- concat3_1
I1118 15:37:01.021337 19900 net.cpp:403] ReLU20 -> concat3_1 (in-place)
I1118 15:37:01.021478 19900 net.cpp:154] Setting up ReLU20
I1118 15:37:01.021488 19900 net.cpp:161] Top shape: 4 128 48 64 (1572864)
I1118 15:37:01.021492 19900 net.cpp:169] Memory required for data: 564254224
I1118 15:37:01.021497 19900 layer_factory.hpp:76] Creating layer deconv2
I1118 15:37:01.021504 19900 net.cpp:108] Creating Layer deconv2
I1118 15:37:01.021508 19900 net.cpp:460] deconv2 <- concat3_1
I1118 15:37:01.021514 19900 net.cpp:417] deconv2 -> deconv2
I1118 15:37:01.024294 19900 net.cpp:154] Setting up deconv2
I1118 15:37:01.024307 19900 net.cpp:161] Top shape: 4 64 96 128 (3145728)
I1118 15:37:01.024310 19900 net.cpp:169] Memory required for data: 576837136
I1118 15:37:01.024315 19900 layer_factory.hpp:76] Creating layer ReLU21
I1118 15:37:01.024322 19900 net.cpp:108] Creating Layer ReLU21
I1118 15:37:01.024324 19900 net.cpp:460] ReLU21 <- deconv2
I1118 15:37:01.024329 19900 net.cpp:403] ReLU21 -> deconv2 (in-place)
I1118 15:37:01.024734 19900 net.cpp:154] Setting up ReLU21
I1118 15:37:01.024749 19900 net.cpp:161] Top shape: 4 64 96 128 (3145728)
I1118 15:37:01.024754 19900 net.cpp:169] Memory required for data: 589420048
I1118 15:37:01.024757 19900 layer_factory.hpp:76] Creating layer conv2_2
I1118 15:37:01.024765 19900 net.cpp:108] Creating Layer conv2_2
I1118 15:37:01.024771 19900 net.cpp:460] conv2_2 <- conv2_ReLU2_0_split_1
I1118 15:37:01.024777 19900 net.cpp:417] conv2_2 -> conv2_2
I1118 15:37:01.156594 19900 net.cpp:154] Setting up conv2_2
I1118 15:37:01.156625 19900 net.cpp:161] Top shape: 4 64 96 128 (3145728)
I1118 15:37:01.156631 19900 net.cpp:169] Memory required for data: 602002960
I1118 15:37:01.156642 19900 layer_factory.hpp:76] Creating layer ReLU22
I1118 15:37:01.156656 19900 net.cpp:108] Creating Layer ReLU22
I1118 15:37:01.156664 19900 net.cpp:460] ReLU22 <- conv2_2
I1118 15:37:01.156672 19900 net.cpp:403] ReLU22 -> conv2_2 (in-place)
I1118 15:37:01.156895 19900 net.cpp:154] Setting up ReLU22
I1118 15:37:01.156908 19900 net.cpp:161] Top shape: 4 64 96 128 (3145728)
I1118 15:37:01.156915 19900 net.cpp:169] Memory required for data: 614585872
I1118 15:37:01.156927 19900 layer_factory.hpp:76] Creating layer upsample_flow3to2
I1118 15:37:01.156937 19900 net.cpp:108] Creating Layer upsample_flow3to2
I1118 15:37:01.156941 19900 net.cpp:460] upsample_flow3to2 <- predict_flow3_Convolution4_0_split_2
I1118 15:37:01.156949 19900 net.cpp:417] upsample_flow3to2 -> upsampled_flow3_to_2
I1118 15:37:01.157186 19900 net.cpp:154] Setting up upsample_flow3to2
I1118 15:37:01.157196 19900 net.cpp:161] Top shape: 4 2 96 128 (98304)
I1118 15:37:01.157201 19900 net.cpp:169] Memory required for data: 614979088
I1118 15:37:01.157205 19900 layer_factory.hpp:76] Creating layer Concat2
I1118 15:37:01.157212 19900 net.cpp:108] Creating Layer Concat2
I1118 15:37:01.157217 19900 net.cpp:460] Concat2 <- conv2_2
I1118 15:37:01.157222 19900 net.cpp:460] Concat2 <- deconv2
I1118 15:37:01.157225 19900 net.cpp:460] Concat2 <- upsampled_flow3_to_2
I1118 15:37:01.157230 19900 net.cpp:417] Concat2 -> concat2
I1118 15:37:01.157254 19900 net.cpp:154] Setting up Concat2
I1118 15:37:01.157261 19900 net.cpp:161] Top shape: 4 130 96 128 (6389760)
I1118 15:37:01.157264 19900 net.cpp:169] Memory required for data: 640538128
I1118 15:37:01.157269 19900 layer_factory.hpp:76] Creating layer Convolution5
I1118 15:37:01.157276 19900 net.cpp:108] Creating Layer Convolution5
I1118 15:37:01.157280 19900 net.cpp:460] Convolution5 <- concat2
I1118 15:37:01.157286 19900 net.cpp:417] Convolution5 -> predict_flow2
I1118 15:37:01.158737 19900 net.cpp:154] Setting up Convolution5
I1118 15:37:01.158754 19900 net.cpp:161] Top shape: 4 2 96 128 (98304)
I1118 15:37:01.158758 19900 net.cpp:169] Memory required for data: 640931344
I1118 15:37:01.158764 19900 layer_factory.hpp:76] Creating layer predict_flow2_Convolution5_0_split
I1118 15:37:01.158772 19900 net.cpp:108] Creating Layer predict_flow2_Convolution5_0_split
I1118 15:37:01.158776 19900 net.cpp:460] predict_flow2_Convolution5_0_split <- predict_flow2
I1118 15:37:01.158782 19900 net.cpp:417] predict_flow2_Convolution5_0_split -> predict_flow2_Convolution5_0_split_0
I1118 15:37:01.158788 19900 net.cpp:417] predict_flow2_Convolution5_0_split -> predict_flow2_Convolution5_0_split_1
I1118 15:37:01.158825 19900 net.cpp:154] Setting up predict_flow2_Convolution5_0_split
I1118 15:37:01.158833 19900 net.cpp:161] Top shape: 4 2 96 128 (98304)
I1118 15:37:01.158836 19900 net.cpp:161] Top shape: 4 2 96 128 (98304)
I1118 15:37:01.158839 19900 net.cpp:169] Memory required for data: 641717776
I1118 15:37:01.158843 19900 layer_factory.hpp:76] Creating layer Downsample5
I1118 15:37:01.158849 19900 net.cpp:108] Creating Layer Downsample5
I1118 15:37:01.158851 19900 net.cpp:460] Downsample5 <- scaled_flow_gt_Eltwise3_0_split_4
I1118 15:37:01.158856 19900 net.cpp:460] Downsample5 <- predict_flow2_Convolution5_0_split_0
I1118 15:37:01.158861 19900 net.cpp:417] Downsample5 -> blob44
I1118 15:37:01.158882 19900 net.cpp:154] Setting up Downsample5
I1118 15:37:01.158888 19900 net.cpp:161] Top shape: 4 2 96 128 (98304)
I1118 15:37:01.158891 19900 net.cpp:169] Memory required for data: 642110992
W1118 15:37:01.158895 19900 vision_layers.hpp:445] DownsampleLayer does not do backward.
I1118 15:37:01.158902 19900 layer_factory.hpp:76] Creating layer flow_loss2
I1118 15:37:01.158910 19900 net.cpp:108] Creating Layer flow_loss2
I1118 15:37:01.158915 19900 net.cpp:460] flow_loss2 <- predict_flow2_Convolution5_0_split_1
…
