…
layer {
  name: "Image1"
  type: "ImageData"
  top: "img0"
  include {
    phase: TRAIN
  }
  image_data_param {
    source: "img1_list.txt"
    batch_size: 4
    root_folder: "./"
  }
}
layer {
  name: "Image2"
  type: "ImageData"
  top: "img1"
  include {
    phase: TRAIN
  }
  image_data_param {
    source: "img2_list.txt"
    batch_size: 4
    root_folder: "./"
  }
}
layer {
  name: "Flow"
  type: "FloData"
  top: "flow_gt_aug"
  include {
    phase: TRAIN
  }
  image_data_param {
    source: "flo_list.txt"
    batch_size: 4
    root_folder: "./"
  }
}
layer {
  name: "Mean1"
  type: "Mean"
  bottom: "img0"
  top: "img0_aug"
  mean_param {
    operation: SUBTRACT
    value: 0.411451
    value: 0.43206
    value: 0.450141
    input_scale: 0.0039216
  }
}
layer {
  name: "Mean2"
  type: "Mean"
  bottom: "img1"
  top: "img1_aug"
  mean_param {
    operation: SUBTRACT
    value: 0.410602
    value: 0.431021
    value: 0.448553
    input_scale: 0.0039216
  }
}
layer {
  name: "Eltwise3"
  type: "Eltwise"
  bottom: "flow_gt_aug"
  top: "scaled_flow_gt"
  eltwise_param {
    operation: SUM
    coeff: 0.05
  }
}
layer {
  name: "Concat1"
  type: "Concat"
  bottom: "img0_aug"
  bottom: "img1_aug"
  top: "input"
  concat_param {
    axis: 1
  }
}
layer {
  name: "conv1"
  type: "Convolution"
  bottom: "input"
  top: "conv1"
  param {
    lr_mult: 1
    decay_mult: 1
  }
  param {
    lr_mult: 1
    decay_mult: 0
  }
  convolution_param {
    num_output: 64
    pad: 3
    kernel_size: 7
    stride: 2
    weight_filler {
      type: "msra"
    }
    bias_filler {
      type: "constant"
    }
    engine: CUDNN
  }
}
layer {
  name: "ReLU1"
  type: "ReLU"
  bottom: "conv1"
  top: "conv1"
  relu_param {
    negative_slope: 0.1
  }
}
layer {
  name: "conv2"
  type: "Convolution"
  bottom: "conv1"
  top: "conv2"
  param {
    lr_mult: 1
    decay_mult: 1
  }
  param {
    lr_mult: 1
    decay_mult: 0
  }
  convolution_param {
    num_output: 128
    pad: 2
    kernel_size: 5
    stride: 2
    weight_filler {
      type: "msra"
    }
    bias_filler {
      type: "constant"
    }
    engine: CUDNN
  }
}
layer {
  name: "ReLU2"
  type: "ReLU"
  bottom: "conv2"
  top: "conv2"
  relu_param {
    negative_slope: 0.1
  }
}
layer {
  name: "conv3"
  type: "Convolution"
  bottom: "conv2"
  top: "conv3"
  param {
    lr_mult: 1
    decay_mult: 1
  }
  param {
    lr_mult: 1
    decay_mult: 0
  }
  convolution_param {
    num_output: 256
    pad: 2
    kernel_size: 5
    stride: 2
    weight_filler {
      type: "msra"
    }
    bias_filler {
      type: "constant"
    }
    engine: CUDNN
  }
}
layer {
  name: "ReLU3"
  type: "ReLU"
  bottom: "conv3"
  top: "conv3"
  relu_param {
    negative_slope: 0.1
  }
}
layer {
  name: "conv3_1"
  type: "Convolution"
  bottom: "conv3"
  top: "conv3_1"
  param {
    lr_mult: 1
    decay_mult: 1
  }
  param {
    lr_mult: 1
    decay_mult: 0
  }
  convolution_param {
    num_output: 256
    pad: 1
    kernel_size: 3
    stride: 1
    weight_filler {
      type: "msra"
    }
    bias_filler {
      type: "constant"
    }
    engine: CUDNN
  }
}
layer {
  name: "ReLU4"
  type: "ReLU"
  bottom: "conv3_1"
  top: "conv3_1"
  relu_param {
    negative_slope: 0.1
  }
}
layer {
  name: "conv4"
  type: "Convolution"
  bottom: "conv3_1"
  top: "conv4"
  param {
    lr_mult: 1
    decay_mult: 1
  }
  param {
    lr_mult: 1
    decay_mult: 0
  }
  convolution_param {
    num_output: 512
    pad: 1
    kernel_size: 3
    stride: 2
    weight_filler {
      type: "msra"
    }
    bias_filler {
      type: "constant"
    }
    engine: CUDNN
  }
}
layer {
  name: "ReLU5"
  type: "ReLU"
  bottom: "conv4"
  top: "conv4"
  relu_param {
    negative_slope: 0.1
  }
}
layer {
  name: "conv4_1"
  type: "Convolution"
  bottom: "conv4"
  top: "conv4_1"
  param {
    lr_mult: 1
    decay_mult: 1
  }
  param {
    lr_mult: 1
    decay_mult: 0
  }
  convolution_param {
    num_output: 512
    pad: 1
    kernel_size: 3
    stride: 1
    weight_filler {
      type: "msra"
    }
    bias_filler {
      type: "constant"
    }
    engine: CUDNN
  }
}
layer {
  name: "ReLU6"
  type: "ReLU"
  bottom: "conv4_1"
  top: "conv4_1"
  relu_param {
    negative_slope: 0.1
  }
}
layer {
  name: "conv5"
  type: "Convolution"
  bottom: "conv4_1"
  top: "conv5"
  param {
    lr_mult: 1
    decay_mult: 1
  }
  param {
    lr_mult: 1
    decay_mult: 0
  }
  convolution_param {
    num_output: 512
    pad: 1
    kernel_size: 3
    stride: 2
    weight_filler {
      type: "msra"
    }
    bias_filler {
      type: "constant"
    }
    engine: CUDNN
  }
}
layer {
  name: "ReLU7"
  type: "ReLU"
  bottom: "conv5"
  top: "conv5"
  relu_param {
    negative_slope: 0.1
  }
}
layer {
  name: "conv5_1"
  type: "Convolution"
  bottom: "conv5"
  top: "conv5_1"
  param {
    lr_mult: 1
    decay_mult: 1
  }
  param {
    lr_mult: 1
    decay_mult: 0
  }
  convolution_param {
    num_output: 512
    pad: 1
    kernel_size: 3
    stride: 1
    weight_filler {
      type: "msra"
    }
    bias_filler {
      type: "constant"
    }
    engine: CUDNN
  }
}
layer {
  name: "ReLU8"
  type: "ReLU"
  bottom: "conv5_1"
  top: "conv5_1"
  relu_param {
    negative_slope: 0.1
  }
}
layer {
  name: "conv6"
  type: "Convolution"
  bottom: "conv5_1"
  top: "conv6"
  param {
    lr_mult: 1
    decay_mult: 1
  }
  param {
    lr_mult: 1
    decay_mult: 0
  }
  convolution_param {
    num_output: 1024
    pad: 1
    kernel_size: 3
    stride: 2
    weight_filler {
      type: "msra"
    }
    bias_filler {
      type: "constant"
    }
    engine: CUDNN
  }
}
layer {
  name: "ReLU9"
  type: "ReLU"
  bottom: "conv6"
  top: "conv6"
  relu_param {
    negative_slope: 0.1
  }
}
layer {
  name: "conv6_1"
  type: "Convolution"
  bottom: "conv6"
  top: "conv6_1"
  param {
    lr_mult: 1
    decay_mult: 1
  }
  param {
    lr_mult: 1
    decay_mult: 0
  }
  convolution_param {
    num_output: 1024
    pad: 1
    kernel_size: 3
    stride: 1
    weight_filler {
      type: "msra"
    }
    bias_filler {
      type: "constant"
    }
    engine: CUDNN
  }
}
layer {
  name: "ReLU10"
  type: "ReLU"
  bottom: "conv6_1"
  top: "conv6_1"
  relu_param {
    negative_slope: 0.1
  }
}
layer {
  name: "conv6_2"
  type: "Convolution"
  bottom: "conv6_1"
  top: "conv6_2"
  param {
    lr_mult: 1
    decay_mult: 1
  }
  param {
    lr_mult: 1
    decay_mult: 0
  }
  convolution_param {
    num_output: 1024
    pad: 0
    kernel_size: 1
    stride: 1
    weight_filler {
      type: "msra"
    }
    bias_filler {
      type: "constant"
    }
    engine: CUDNN
  }
}
layer {
  name: "ReLU11"
  type: "ReLU"
  bottom: "conv6_2"
  top: "conv6_2"
  relu_param {
    negative_slope: 0.1
  }
}
layer {
  name: "Convolution1"
  type: "Convolution"
  bottom: "conv6_2"
  top: "predict_flow6"
  param {
    lr_mult: 1
    decay_mult: 1
  }
  param {
    lr_mult: 1
    decay_mult: 0
  }
  convolution_param {
    num_output: 2
    pad: 1
    kernel_size: 3
    stride: 1
    weight_filler {
      type: "msra"
    }
    bias_filler {
      type: "constant"
    }
    engine: CUDNN
  }
}
layer {
  name: "Downsample1"
  type: "Downsample"
  bottom: "scaled_flow_gt"
  bottom: "predict_flow6"
  top: "blob24"
}
layer {
  name: "flow_loss6"
  type: "L1Loss"
  bottom: "predict_flow6"
  bottom: "blob24"
  top: "flow_loss6"
  loss_weight: 0.32
  l1_loss_param {
    l2_per_location: true
  }
}
layer {
  name: "deconv5"
  type: "Deconvolution"
  bottom: "conv6_2"
  top: "deconv5"
  param {
    lr_mult: 1
    decay_mult: 0
  }
  param {
    lr_mult: 0
    decay_mult: 0
  }
  convolution_param {
    num_output: 512
    pad: 1
    kernel_size: 4
    stride: 2
    weight_filler {
      type: "msra"
    }
    bias_filler {
      type: "constant"
    }
    engine: CUDNN
  }
}
layer {
  name: "ReLU12"
  type: "ReLU"
  bottom: "deconv5"
  top: "deconv5"
  relu_param {
    negative_slope: 0.1
  }
}
layer {
  name: "conv5_2"
  type: "Convolution"
  bottom: "conv5_1"
  top: "conv5_2"
  param {
    lr_mult: 1
    decay_mult: 1
  }
  param {
    lr_mult: 1
    decay_mult: 0
  }
  convolution_param {
    num_output: 512
    pad: 1
    kernel_size: 3
    stride: 1
    weight_filler {
      type: "msra"
    }
    bias_filler {
      type: "constant"
    }
    engine: CUDNN
  }
}
layer {
  name: "ReLU13"
  type: "ReLU"
  bottom: "conv5_2"
  top: "conv5_2"
  relu_param {
    negative_slope: 0.1
  }
}
layer {
  name: "upsample_flow6to5"
  type: "Deconvolution"
  bottom: "predict_flow6"
  top: "upsampled_flow6_to_5"
  param {
    lr_mult: 1
    decay_mult: 0
  }
  param {
    lr_mult: 0
    decay_mult: 0
  }
  convolution_param {
    num_output: 2
    pad: 1
    kernel_size: 4
    stride: 2
    weight_filler {
      type: "msra"
    }
    bias_filler {
      type: "constant"
    }
    engine: CUDNN
  }
}
layer {
  name: "Concat5"
  type: "Concat"
  bottom: "conv5_2"
  bottom: "deconv5"
  bottom: "upsampled_flow6_to_5"
  top: "concat5"
}
layer {
  name: "Convolution2"
  type: "Convolution"
  bottom: "concat5"
  top: "predict_flow5"
  param {
    lr_mult: 1
    decay_mult: 1
  }
  param {
    lr_mult: 1
    decay_mult: 0
  }
  convolution_param {
    num_output: 2
    pad: 1
    kernel_size: 3
    stride: 1
    weight_filler {
      type: "msra"
    }
    bias_filler {
      type: "constant"
    }
    engine: CUDNN
  }
}
layer {
  name: "Downsample2"
  type: "Downsample"
  bottom: "scaled_flow_gt"
  bottom: "predict_flow5"
  top: "blob29"
}
layer {
  name: "flow_loss5"
  type: "L1Loss"
  bottom: "predict_flow5"
  bottom: "blob29"
  top: "flow_loss5"
  loss_weight: 0.08
  l1_loss_param {
    l2_per_location: true
  }
}
layer {
  name: "Convolution2_1"
  type: "Convolution"
  bottom: "concat5"
  top: "concat5_1"
  param {
    lr_mult: 1
    decay_mult: 1
  }
  param {
    lr_mult: 1
    decay_mult: 0
  }
  convolution_param {
    num_output: 512
    pad: 1
    kernel_size: 3
    stride: 1
    weight_filler {
      type: "msra"
    }
    bias_filler {
      type: "constant"
    }
    engine: CUDNN
  }
}
layer {
  name: "ReLU14"
  type: "ReLU"
  bottom: "concat5_1"
  top: "concat5_1"
  relu_param {
    negative_slope: 0.1
  }
}
layer {
  name: "deconv4"
  type: "Deconvolution"
  bottom: "concat5_1"
  top: "deconv4"
  param {
    lr_mult: 1
    decay_mult: 0
  }
  param {
    lr_mult: 0
    decay_mult: 0
  }
  convolution_param {
    num_output: 256
    pad: 1
    kernel_size: 4
    stride: 2
    weight_filler {
      type: "msra"
    }
    bias_filler {
      type: "constant"
    }
    engine: CUDNN
  }
}
layer {
  name: "ReLU15"
  type: "ReLU"
  bottom: "deconv4"
  top: "deconv4"
  relu_param {
    negative_slope: 0.1
  }
}
layer {
  name: "conv4_2"
  type: "Convolution"
  bottom: "conv4_1"
  top: "conv4_2"
  param {
    lr_mult: 1
    decay_mult: 1
  }
  param {
    lr_mult: 1
    decay_mult: 0
  }
  convolution_param {
    num_output: 256
    pad: 1
    kernel_size: 3
    stride: 1
    weight_filler {
      type: "msra"
    }
    bias_filler {
      type: "constant"
    }
    engine: CUDNN
  }
}
layer {
  name: "ReLU16"
  type: "ReLU"
  bottom: "conv4_2"
  top: "conv4_2"
  relu_param {
    negative_slope: 0.1
  }
}
layer {
  name: "upsample_flow5to4"
  type: "Deconvolution"
  bottom: "predict_flow5"
  top: "upsampled_flow5_to_4"
  param {
    lr_mult: 1
    decay_mult: 0
  }
  param {
    lr_mult: 0
    decay_mult: 0
  }
  convolution_param {
    num_output: 2
    pad: 1
    kernel_size: 4
    stride: 2
    weight_filler {
      type: "msra"
    }
    bias_filler {
      type: "constant"
    }
    engine: CUDNN
  }
}
layer {
  name: "Concat4"
  type: "Concat"
  bottom: "conv4_2"
  bottom: "deconv4"
  bottom: "upsampled_flow5_to_4"
  top: "concat4"
}
layer {
  name: "Convolution3"
  type: "Convolution"
  bottom: "concat4"
  top: "predict_flow4"
  param {
    lr_mult: 1
    decay_mult: 1
  }
  param {
    lr_mult: 1
    decay_mult: 0
  }
  convolution_param {
    num_output: 2
    pad: 1
    kernel_size: 3
    stride: 1
    weight_filler {
      type: "msra"
    }
    bias_filler {
      type: "constant"
    }
    engine: CUDNN
  }
}
layer {
  name: "Downsample3"
  type: "Downsample"
  bottom: "scaled_flow_gt"
  bottom: "predict_flow4"
  top: "blob34"
}
layer {
  name: "flow_loss4"
  type: "L1Loss"
  bottom: "predict_flow4"
  bottom: "blob34"
  top: "flow_loss4"
  loss_weight: 0.02
  l1_loss_param {
    l2_per_location: true
  }
}
layer {
  name: "Convolution3_1"
  type: "Convolution"
  bottom: "concat4"
  top: "concat4_1"
  param {
    lr_mult: 1
    decay_mult: 1
  }
  param {
    lr_mult: 1
    decay_mult: 0
  }
  convolution_param {
    num_output: 256
    pad: 1
    kernel_size: 3
    stride: 1
    weight_filler {
      type: "msra"
    }
    bias_filler {
      type: "constant"
    }
    engine: CUDNN
  }
}
layer {
  name: "ReLU17"
  type: "ReLU"
  bottom: "concat4_1"
  top: "concat4_1"
  relu_param {
    negative_slope: 0.1
  }
}
layer {
  name: "deconv3"
  type: "Deconvolution"
  bottom: "concat4_1"
  top: "deconv3"
  param {
    lr_mult: 1
    decay_mult: 0
  }
  param {
    lr_mult: 0
    decay_mult: 0
  }
  convolution_param {
    num_output: 128
    pad: 1
    kernel_size: 4
    stride: 2
    weight_filler {
      type: "msra"
    }
    bias_filler {
      type: "constant"
    }
    engine: CUDNN
  }
}
layer {
  name: "ReLU18"
  type: "ReLU"
  bottom: "deconv3"
  top: "deconv3"
  relu_param {
    negative_slope: 0.1
  }
}
layer {
  name: "conv3_2"
  type: "Convolution"
  bottom: "conv3_1"
  top: "conv3_2"
  param {
    lr_mult: 1
    decay_mult: 1
  }
  param {
    lr_mult: 1
    decay_mult: 0
  }
  convolution_param {
    num_output: 128
    pad: 1
    kernel_size: 3
    stride: 1
    weight_filler {
      type: "msra"
    }
    bias_filler {
      type: "constant"
    }
    engine: CUDNN
  }
}
layer {
  name: "ReLU19"
  type: "ReLU"
  bottom: "conv3_2"
  top: "conv3_2"
  relu_param {
    negative_slope: 0.1
  }
}
layer {
  name: "upsample_flow4to3"
  type: "Deconvolution"
  bottom: "predict_flow4"
  top: "upsampled_flow4_to_3"
  param {
    lr_mult: 1
    decay_mult: 0
  }
  param {
    lr_mult: 0
    decay_mult: 0
  }
  convolution_param {
    num_output: 2
    pad: 1
    kernel_size: 4
    stride: 2
    weight_filler {
      type: "msra"
    }
    bias_filler {
      type: "constant"
    }
    engine: CUDNN
  }
}
layer {
  name: "Concat3"
  type: "Concat"
  bottom: "conv3_2"
  bottom: "deconv3"
  bottom: "upsampled_flow4_to_3"
  top: "concat3"
}
layer {
  name: "Convolution4"
  type: "Convolution"
  bottom: "concat3"
  top: "predict_flow3"
  param {
    lr_mult: 1
    decay_mult: 1
  }
  param {
    lr_mult: 1
    decay_mult: 0
  }
  convolution_param {
    num_output: 2
    pad: 1
    kernel_size: 3
    stride: 1
    weight_filler {
      type: "msra"
    }
    bias_filler {
      type: "constant"
    }
    engine: CUDNN
  }
}
layer {
  name: "Downsample4"
  type: "Downsample"
  bottom: "scaled_flow_gt"
  bottom: "predict_flow3"
  top: "blob39"
}
layer {
  name: "flow_loss3"
  type: "L1Loss"
  bottom: "predict_flow3"
  bottom: "blob39"
  top: "flow_loss3"
  loss_weight: 0.01
  l1_loss_param {
    l2_per_location: true
  }
}
layer {
  name: "Convolution4_1"
  type: "Convolution"
  bottom: "concat3"
  top: "concat3_1"
  param {
    lr_mult: 1
    decay_mult: 1
  }
  param {
    lr_mult: 1
    decay_mult: 0
  }
  convolution_param {
    num_output: 128
    pad: 1
    kernel_size: 3
    stride: 1
    weight_filler {
      type: "msra"
    }
    bias_filler {
      type: "constant"
    }
    engine: CUDNN
  }
}
layer {
  name: "ReLU20"
  type: "ReLU"
  bottom: "concat3_1"
  top: "concat3_1"
  relu_param {
    negative_slope: 0.1
  }
}
layer {
  name: "deconv2"
  type: "Deconvolution"
  bottom: "concat3_1"
  top: "deconv2"
  param {
    lr_mult: 1
    decay_mult: 0
  }
  param {
    lr_mult: 0
    decay_mult: 0
  }
  convolution_param {
    num_output: 64
    pad: 1
    kernel_size: 4
    stride: 2
    weight_filler {
      type: "msra"
    }
    bias_filler {
      type: "constant"
    }
    engine: CUDNN
  }
}
layer {
  name: "ReLU21"
  type: "ReLU"
  bottom: "deconv2"
  top: "deconv2"
  relu_param {
    negative_slope: 0.1
  }
}
layer {
  name: "conv2_2"
  type: "Convolution"
  bottom: "conv2"
  top: "conv2_2"
  param {
    lr_mult: 1
    decay_mult: 1
  }
  param {
    lr_mult: 1
    decay_mult: 0
  }
  convolution_param {
    num_output: 64
    pad: 1
    kernel_size: 3
    stride: 1
    weight_filler {
      type: "msra"
    }
    bias_filler {
      type: "constant"
    }
    engine: CUDNN
  }
}
layer {
  name: "ReLU22"
  type: "ReLU"
  bottom: "conv2_2"
  top: "conv2_2"
  relu_param {
    negative_slope: 0.1
  }
}
layer {
  name: "upsample_flow3to2"
  type: "Deconvolution"
  bottom: "predict_flow3"
  top: "upsampled_flow3_to_2"
  param {
    lr_mult: 1
    decay_mult: 0
  }
  param {
    lr_mult: 0
    decay_mult: 0
  }
  convolution_param {
    num_output: 2
    pad: 1
    kernel_size: 4
    stride: 2
    weight_filler {
      type: "msra"
    }
    bias_filler {
      type: "constant"
    }
    engine: CUDNN
  }
}
layer {
  name: "Concat2"
  type: "Concat"
  bottom: "conv2_2"
  bottom: "deconv2"
  bottom: "upsampled_flow3_to_2"
  top: "concat2"
}
layer {
  name: "Convolution5"
  type: "Convolution"
  bottom: "concat2"
  top: "predict_flow2"
  param {
    lr_mult: 1
    decay_mult: 1
  }
  param {
    lr_mult: 1
    decay_mult: 0
  }
  convolution_param {
    num_output: 2
    pad: 1
    kernel_size: 3
    stride: 1
    weight_filler {
      type: "msra"
    }
    bias_filler {
      type: "constant"
    }
    engine: CUDNN
  }
}
layer {
  name: "Downsample5"
  type: "Downsample"
  bottom: "scaled_flow_gt"
  bottom: "predict_flow2"
  top: "blob44"
}
layer {
  name: "flow_loss2"
  type: "L1Loss"
  bottom: "predict_flow2"
  bottom: "blob44"
  top: "flow_loss2"
  loss_weight: 0.005
  l1_loss_param {
    l2_per_location: true
  }
}
I1118 15:43:53.416667 20085 layer_factory.hpp:76] Creating layer Image1
I1118 15:43:53.416699 20085 net.cpp:108] Creating Layer Image1
I1118 15:43:53.416705 20085 net.cpp:417] Image1 -> img0
I1118 15:43:53.416728 20085 image_data_layer.cpp:36] Opening file img1_list.txt
I1118 15:43:53.421520 20085 image_data_layer.cpp:50] A total of 22232 images.
I1118 15:43:53.484784 20085 image_data_layer.cpp:77] output data size: 4,3,384,512
I1118 15:43:53.505656 20085 net.cpp:154] Setting up Image1
I1118 15:43:53.505684 20085 net.cpp:161] Top shape: 4 3 384 512 (2359296)
I1118 15:43:53.505688 20085 net.cpp:169] Memory required for data: 9437184
I1118 15:43:53.505697 20085 layer_factory.hpp:76] Creating layer Image2
I1118 15:43:53.505713 20085 net.cpp:108] Creating Layer Image2
I1118 15:43:53.505717 20085 net.cpp:417] Image2 -> img1
I1118 15:43:53.505728 20085 image_data_layer.cpp:36] Opening file img2_list.txt
I1118 15:43:53.510412 20085 image_data_layer.cpp:50] A total of 22232 images.
I1118 15:43:53.511015 20085 image_data_layer.cpp:77] output data size: 4,3,384,512
I1118 15:43:53.525995 20085 net.cpp:154] Setting up Image2
I1118 15:43:53.526023 20085 net.cpp:161] Top shape: 4 3 384 512 (2359296)
I1118 15:43:53.526027 20085 net.cpp:169] Memory required for data: 18874368
I1118 15:43:53.526032 20085 layer_factory.hpp:76] Creating layer Flow
I1118 15:43:53.526053 20085 net.cpp:108] Creating Layer Flow
I1118 15:43:53.526060 20085 net.cpp:417] Flow -> flow_gt_aug
I1118 15:43:53.526072 20085 flo_data_layer.cpp:62] Opening file flo_list.txt
I1118 15:43:53.531584 20085 flo_data_layer.cpp:76] A total of 22232 images.
I1118 15:43:53.531699 20085 flo_data_layer.cpp:111] output data size: 4,2,384,512
I1118 15:43:53.543463 20085 net.cpp:154] Setting up Flow
I1118 15:43:53.543488 20085 net.cpp:161] Top shape: 4 2 384 512 (1572864)
I1118 15:43:53.543493 20085 net.cpp:169] Memory required for data: 25165824
I1118 15:43:53.543498 20085 layer_factory.hpp:76] Creating layer Mean1
I1118 15:43:53.543510 20085 net.cpp:108] Creating Layer Mean1
I1118 15:43:53.543519 20085 net.cpp:460] Mean1 <- img0
I1118 15:43:53.543551 20085 net.cpp:417] Mean1 -> img0_aug
I1118 15:43:53.543606 20085 net.cpp:154] Setting up Mean1
I1118 15:43:53.543617 20085 net.cpp:161] Top shape: 4 3 384 512 (2359296)
I1118 15:43:53.543622 20085 net.cpp:169] Memory required for data: 34603008
I1118 15:43:53.543627 20085 layer_factory.hpp:76] Creating layer Mean2
I1118 15:43:53.543637 20085 net.cpp:108] Creating Layer Mean2
I1118 15:43:53.543642 20085 net.cpp:460] Mean2 <- img1
I1118 15:43:53.543650 20085 net.cpp:417] Mean2 -> img1_aug
I1118 15:43:53.543678 20085 net.cpp:154] Setting up Mean2
I1118 15:43:53.543689 20085 net.cpp:161] Top shape: 4 3 384 512 (2359296)
I1118 15:43:53.543694 20085 net.cpp:169] Memory required for data: 44040192
I1118 15:43:53.543696 20085 layer_factory.hpp:76] Creating layer Eltwise3
I1118 15:43:53.543711 20085 net.cpp:108] Creating Layer Eltwise3
I1118 15:43:53.543718 20085 net.cpp:460] Eltwise3 <- flow_gt_aug
I1118 15:43:53.543725 20085 net.cpp:417] Eltwise3 -> scaled_flow_gt
I1118 15:43:53.543766 20085 net.cpp:154] Setting up Eltwise3
I1118 15:43:53.543776 20085 net.cpp:161] Top shape: 4 2 384 512 (1572864)
I1118 15:43:53.543781 20085 net.cpp:169] Memory required for data: 50331648
I1118 15:43:53.543784 20085 layer_factory.hpp:76] Creating layer scaled_flow_gt_Eltwise3_0_split
I1118 15:43:53.543797 20085 net.cpp:108] Creating Layer scaled_flow_gt_Eltwise3_0_split
I1118 15:43:53.543802 20085 net.cpp:460] scaled_flow_gt_Eltwise3_0_split <- scaled_flow_gt
I1118 15:43:53.543807 20085 net.cpp:417] scaled_flow_gt_Eltwise3_0_split -> scaled_flow_gt_Eltwise3_0_split_0
I1118 15:43:53.543815 20085 net.cpp:417] scaled_flow_gt_Eltwise3_0_split -> scaled_flow_gt_Eltwise3_0_split_1
I1118 15:43:53.543826 20085 net.cpp:417] scaled_flow_gt_Eltwise3_0_split -> scaled_flow_gt_Eltwise3_0_split_2
I1118 15:43:53.543841 20085 net.cpp:417] scaled_flow_gt_Eltwise3_0_split -> scaled_flow_gt_Eltwise3_0_split_3
I1118 15:43:53.543849 20085 net.cpp:417] scaled_flow_gt_Eltwise3_0_split -> scaled_flow_gt_Eltwise3_0_split_4
I1118 15:43:53.543917 20085 net.cpp:154] Setting up scaled_flow_gt_Eltwise3_0_split
I1118 15:43:53.543927 20085 net.cpp:161] Top shape: 4 2 384 512 (1572864)
I1118 15:43:53.543933 20085 net.cpp:161] Top shape: 4 2 384 512 (1572864)
I1118 15:43:53.543939 20085 net.cpp:161] Top shape: 4 2 384 512 (1572864)
I1118 15:43:53.543943 20085 net.cpp:161] Top shape: 4 2 384 512 (1572864)
I1118 15:43:53.543948 20085 net.cpp:161] Top shape: 4 2 384 512 (1572864)
I1118 15:43:53.543953 20085 net.cpp:169] Memory required for data: 81788928
I1118 15:43:53.543959 20085 layer_factory.hpp:76] Creating layer Concat1
I1118 15:43:53.543977 20085 net.cpp:108] Creating Layer Concat1
I1118 15:43:53.543983 20085 net.cpp:460] Concat1 <- img0_aug
I1118 15:43:53.543990 20085 net.cpp:460] Concat1 <- img1_aug
I1118 15:43:53.543997 20085 net.cpp:417] Concat1 -> input
I1118 15:43:53.544025 20085 net.cpp:154] Setting up Concat1
I1118 15:43:53.544034 20085 net.cpp:161] Top shape: 4 6 384 512 (4718592)
I1118 15:43:53.544039 20085 net.cpp:169] Memory required for data: 100663296
I1118 15:43:53.544044 20085 layer_factory.hpp:76] Creating layer conv1
I1118 15:43:53.544059 20085 net.cpp:108] Creating Layer conv1
I1118 15:43:53.544065 20085 net.cpp:460] conv1 <- input
I1118 15:43:53.544076 20085 net.cpp:417] conv1 -> conv1
I1118 15:43:54.004412 20085 net.cpp:154] Setting up conv1
I1118 15:43:54.004446 20085 net.cpp:161] Top shape: 4 64 192 256 (12582912)
I1118 15:43:54.004451 20085 net.cpp:169] Memory required for data: 150994944
I1118 15:43:54.004492 20085 layer_factory.hpp:76] Creating layer ReLU1
I1118 15:43:54.004508 20085 net.cpp:108] Creating Layer ReLU1
I1118 15:43:54.004519 20085 net.cpp:460] ReLU1 <- conv1
I1118 15:43:54.004528 20085 net.cpp:403] ReLU1 -> conv1 (in-place)
I1118 15:43:54.006459 20085 net.cpp:154] Setting up ReLU1
I1118 15:43:54.006474 20085 net.cpp:161] Top shape: 4 64 192 256 (12582912)
I1118 15:43:54.006479 20085 net.cpp:169] Memory required for data: 201326592
I1118 15:43:54.006484 20085 layer_factory.hpp:76] Creating layer conv2
I1118 15:43:54.006496 20085 net.cpp:108] Creating Layer conv2
I1118 15:43:54.006502 20085 net.cpp:460] conv2 <- conv1
I1118 15:43:54.006510 20085 net.cpp:417] conv2 -> conv2
I1118 15:43:54.018685 20085 net.cpp:154] Setting up conv2
I1118 15:43:54.018702 20085 net.cpp:161] Top shape: 4 128 96 128 (6291456)
I1118 15:43:54.018705 20085 net.cpp:169] Memory required for data: 226492416
I1118 15:43:54.018715 20085 layer_factory.hpp:76] Creating layer ReLU2
I1118 15:43:54.018723 20085 net.cpp:108] Creating Layer ReLU2
I1118 15:43:54.018728 20085 net.cpp:460] ReLU2 <- conv2
I1118 15:43:54.018731 20085 net.cpp:403] ReLU2 -> conv2 (in-place)
I1118 15:43:54.019624 20085 net.cpp:154] Setting up ReLU2
I1118 15:43:54.019639 20085 net.cpp:161] Top shape: 4 128 96 128 (6291456)
I1118 15:43:54.019644 20085 net.cpp:169] Memory required for data: 251658240
I1118 15:43:54.019649 20085 layer_factory.hpp:76] Creating layer conv2_ReLU2_0_split
I1118 15:43:54.019656 20085 net.cpp:108] Creating Layer conv2_ReLU2_0_split
I1118 15:43:54.019661 20085 net.cpp:460] conv2_ReLU2_0_split <- conv2
I1118 15:43:54.019668 20085 net.cpp:417] conv2_ReLU2_0_split -> conv2_ReLU2_0_split_0
I1118 15:43:54.019677 20085 net.cpp:417] conv2_ReLU2_0_split -> conv2_ReLU2_0_split_1
I1118 15:43:54.019723 20085 net.cpp:154] Setting up conv2_ReLU2_0_split
I1118 15:43:54.019731 20085 net.cpp:161] Top shape: 4 128 96 128 (6291456)
I1118 15:43:54.019738 20085 net.cpp:161] Top shape: 4 128 96 128 (6291456)
I1118 15:43:54.019742 20085 net.cpp:169] Memory required for data: 301989888
I1118 15:43:54.019748 20085 layer_factory.hpp:76] Creating layer conv3
I1118 15:43:54.019759 20085 net.cpp:108] Creating Layer conv3
I1118 15:43:54.019764 20085 net.cpp:460] conv3 <- conv2_ReLU2_0_split_0
I1118 15:43:54.019773 20085 net.cpp:417] conv3 -> conv3
I1118 15:43:54.044013 20085 net.cpp:154] Setting up conv3
I1118 15:43:54.044039 20085 net.cpp:161] Top shape: 4 256 48 64 (3145728)
I1118 15:43:54.044042 20085 net.cpp:169] Memory required for data: 314572800
I1118 15:43:54.044054 20085 layer_factory.hpp:76] Creating layer ReLU3
I1118 15:43:54.044061 20085 net.cpp:108] Creating Layer ReLU3
I1118 15:43:54.044065 20085 net.cpp:460] ReLU3 <- conv3
I1118 15:43:54.044070 20085 net.cpp:403] ReLU3 -> conv3 (in-place)
I1118 15:43:54.045419 20085 net.cpp:154] Setting up ReLU3
I1118 15:43:54.045431 20085 net.cpp:161] Top shape: 4 256 48 64 (3145728)
I1118 15:43:54.045434 20085 net.cpp:169] Memory required for data: 327155712
I1118 15:43:54.045436 20085 layer_factory.hpp:76] Creating layer conv3_1
I1118 15:43:54.045445 20085 net.cpp:108] Creating Layer conv3_1
I1118 15:43:54.045449 20085 net.cpp:460] conv3_1 <- conv3
I1118 15:43:54.045454 20085 net.cpp:417] conv3_1 -> conv3_1
I1118 15:43:54.060863 20085 net.cpp:154] Setting up conv3_1
I1118 15:43:54.060876 20085 net.cpp:161] Top shape: 4 256 48 64 (3145728)
I1118 15:43:54.060879 20085 net.cpp:169] Memory required for data: 339738624
I1118 15:43:54.060886 20085 layer_factory.hpp:76] Creating layer ReLU4
I1118 15:43:54.060894 20085 net.cpp:108] Creating Layer ReLU4
I1118 15:43:54.060896 20085 net.cpp:460] ReLU4 <- conv3_1
I1118 15:43:54.060900 20085 net.cpp:403] ReLU4 -> conv3_1 (in-place)
I1118 15:43:54.062789 20085 net.cpp:154] Setting up ReLU4
I1118 15:43:54.062798 20085 net.cpp:161] Top shape: 4 256 48 64 (3145728)
I1118 15:43:54.062800 20085 net.cpp:169] Memory required for data: 352321536
I1118 15:43:54.062803 20085 layer_factory.hpp:76] Creating layer conv3_1_ReLU4_0_split
I1118 15:43:54.062808 20085 net.cpp:108] Creating Layer conv3_1_ReLU4_0_split
I1118 15:43:54.062822 20085 net.cpp:460] conv3_1_ReLU4_0_split <- conv3_1
I1118 15:43:54.062827 20085 net.cpp:417] conv3_1_ReLU4_0_split -> conv3_1_ReLU4_0_split_0
I1118 15:43:54.062832 20085 net.cpp:417] conv3_1_ReLU4_0_split -> conv3_1_ReLU4_0_split_1
I1118 15:43:54.062878 20085 net.cpp:154] Setting up conv3_1_ReLU4_0_split
I1118 15:43:54.062886 20085 net.cpp:161] Top shape: 4 256 48 64 (3145728)
I1118 15:43:54.062891 20085 net.cpp:161] Top shape: 4 256 48 64 (3145728)
I1118 15:43:54.062896 20085 net.cpp:169] Memory required for data: 377487360
I1118 15:43:54.062899 20085 layer_factory.hpp:76] Creating layer conv4
I1118 15:43:54.062912 20085 net.cpp:108] Creating Layer conv4
I1118 15:43:54.062916 20085 net.cpp:460] conv4 <- conv3_1_ReLU4_0_split_0
I1118 15:43:54.062925 20085 net.cpp:417] conv4 -> conv4
I1118 15:43:54.095134 20085 net.cpp:154] Setting up conv4
I1118 15:43:54.095158 20085 net.cpp:161] Top shape: 4 512 24 32 (1572864)
I1118 15:43:54.095163 20085 net.cpp:169] Memory required for data: 383778816
I1118 15:43:54.095180 20085 layer_factory.hpp:76] Creating layer ReLU5
I1118 15:43:54.095196 20085 net.cpp:108] Creating Layer ReLU5
I1118 15:43:54.095201 20085 net.cpp:460] ReLU5 <- conv4
I1118 15:43:54.095211 20085 net.cpp:403] ReLU5 -> conv4 (in-place)
I1118 15:43:54.097018 20085 net.cpp:154] Setting up ReLU5
I1118 15:43:54.097028 20085 net.cpp:161] Top shape: 4 512 24 32 (1572864)
I1118 15:43:54.097033 20085 net.cpp:169] Memory required for data: 390070272
I1118 15:43:54.097038 20085 layer_factory.hpp:76] Creating layer conv4_1
I1118 15:43:54.097050 20085 net.cpp:108] Creating Layer conv4_1
I1118 15:43:54.097054 20085 net.cpp:460] conv4_1 <- conv4
I1118 15:43:54.097064 20085 net.cpp:417] conv4_1 -> conv4_1
I1118 15:43:54.147477 20085 net.cpp:154] Setting up conv4_1
I1118 15:43:54.147507 20085 net.cpp:161] Top shape: 4 512 24 32 (1572864)
I1118 15:43:54.147512 20085 net.cpp:169] Memory required for data: 396361728
I1118 15:43:54.147523 20085 layer_factory.hpp:76] Creating layer ReLU6
I1118 15:43:54.147539 20085 net.cpp:108] Creating Layer ReLU6
I1118 15:43:54.147560 20085 net.cpp:460] ReLU6 <- conv4_1
I1118 15:43:54.147572 20085 net.cpp:403] ReLU6 -> conv4_1 (in-place)
I1118 15:43:54.147745 20085 net.cpp:154] Setting up ReLU6
I1118 15:43:54.147756 20085 net.cpp:161] Top shape: 4 512 24 32 (1572864)
I1118 15:43:54.147760 20085 net.cpp:169] Memory required for data: 402653184
I1118 15:43:54.147765 20085 layer_factory.hpp:76] Creating layer conv4_1_ReLU6_0_split
I1118 15:43:54.147773 20085 net.cpp:108] Creating Layer conv4_1_ReLU6_0_split
I1118 15:43:54.147778 20085 net.cpp:460] conv4_1_ReLU6_0_split <- conv4_1
I1118 15:43:54.147784 20085 net.cpp:417] conv4_1_ReLU6_0_split -> conv4_1_ReLU6_0_split_0
I1118 15:43:54.147794 20085 net.cpp:417] conv4_1_ReLU6_0_split -> conv4_1_ReLU6_0_split_1
I1118 15:43:54.147830 20085 net.cpp:154] Setting up conv4_1_ReLU6_0_split
I1118 15:43:54.147836 20085 net.cpp:161] Top shape: 4 512 24 32 (1572864)
I1118 15:43:54.147840 20085 net.cpp:161] Top shape: 4 512 24 32 (1572864)
I1118 15:43:54.147842 20085 net.cpp:169] Memory required for data: 415236096
I1118 15:43:54.147846 20085 layer_factory.hpp:76] Creating layer conv5
I1118 15:43:54.147855 20085 net.cpp:108] Creating Layer conv5
I1118 15:43:54.147861 20085 net.cpp:460] conv5 <- conv4_1_ReLU6_0_split_0
I1118 15:43:54.147867 20085 net.cpp:417] conv5 -> conv5
I1118 15:43:54.206270 20085 net.cpp:154] Setting up conv5
I1118 15:43:54.206295 20085 net.cpp:161] Top shape: 4 512 12 16 (393216)
I1118 15:43:54.206298 20085 net.cpp:169] Memory required for data: 416808960
I1118 15:43:54.206305 20085 layer_factory.hpp:76] Creating layer ReLU7
I1118 15:43:54.206315 20085 net.cpp:108] Creating Layer ReLU7
I1118 15:43:54.206320 20085 net.cpp:460] ReLU7 <- conv5
I1118 15:43:54.206328 20085 net.cpp:403] ReLU7 -> conv5 (in-place)
I1118 15:43:54.208339 20085 net.cpp:154] Setting up ReLU7
I1118 15:43:54.208348 20085 net.cpp:161] Top shape: 4 512 12 16 (393216)
I1118 15:43:54.208351 20085 net.cpp:169] Memory required for data: 418381824
I1118 15:43:54.208369 20085 layer_factory.hpp:76] Creating layer conv5_1
I1118 15:43:54.208381 20085 net.cpp:108] Creating Layer conv5_1
I1118 15:43:54.208387 20085 net.cpp:460] conv5_1 <- conv5
I1118 15:43:54.208400 20085 net.cpp:417] conv5_1 -> conv5_1
I1118 15:43:54.280671 20085 net.cpp:154] Setting up conv5_1
I1118 15:43:54.280694 20085 net.cpp:161] Top shape: 4 512 12 16 (393216)
I1118 15:43:54.280696 20085 net.cpp:169] Memory required for data: 419954688
I1118 15:43:54.280704 20085 layer_factory.hpp:76] Creating layer ReLU8
I1118 15:43:54.280715 20085 net.cpp:108] Creating Layer ReLU8
I1118 15:43:54.280719 20085 net.cpp:460] ReLU8 <- conv5_1
I1118 15:43:54.280725 20085 net.cpp:403] ReLU8 -> conv5_1 (in-place)
I1118 15:43:54.282546 20085 net.cpp:154] Setting up ReLU8
I1118 15:43:54.282559 20085 net.cpp:161] Top shape: 4 512 12 16 (393216)
I1118 15:43:54.282562 20085 net.cpp:169] Memory required for data: 421527552
I1118 15:43:54.282565 20085 layer_factory.hpp:76] Creating layer conv5_1_ReLU8_0_split
I1118 15:43:54.282572 20085 net.cpp:108] Creating Layer conv5_1_ReLU8_0_split
I1118 15:43:54.282574 20085 net.cpp:460] conv5_1_ReLU8_0_split <- conv5_1
I1118 15:43:54.282578 20085 net.cpp:417] conv5_1_ReLU8_0_split -> conv5_1_ReLU8_0_split_0
I1118 15:43:54.282584 20085 net.cpp:417] conv5_1_ReLU8_0_split -> conv5_1_ReLU8_0_split_1
I1118 15:43:54.282630 20085 net.cpp:154] Setting up conv5_1_ReLU8_0_split
I1118 15:43:54.282639 20085 net.cpp:161] Top shape: 4 512 12 16 (393216)
I1118 15:43:54.282641 20085 net.cpp:161] Top shape: 4 512 12 16 (393216)
I1118 15:43:54.282645 20085 net.cpp:169] Memory required for data: 424673280
I1118 15:43:54.282649 20085 layer_factory.hpp:76] Creating layer conv6
I1118 15:43:54.282661 20085 net.cpp:108] Creating Layer conv6
I1118 15:43:54.282667 20085 net.cpp:460] conv6 <- conv5_1_ReLU8_0_split_0
I1118 15:43:54.282675 20085 net.cpp:417] conv6 -> conv6
I1118 15:43:54.383708 20085 net.cpp:154] Setting up conv6
I1118 15:43:54.383738 20085 net.cpp:161] Top shape: 4 1024 6 8 (196608)
I1118 15:43:54.383740 20085 net.cpp:169] Memory required for data: 425459712
I1118 15:43:54.383757 20085 layer_factory.hpp:76] Creating layer ReLU9
I1118 15:43:54.383771 20085 net.cpp:108] Creating Layer ReLU9
I1118 15:43:54.383780 20085 net.cpp:460] ReLU9 <- conv6
I1118 15:43:54.383788 20085 net.cpp:403] ReLU9 -> conv6 (in-place)
I1118 15:43:54.385077 20085 net.cpp:154] Setting up ReLU9
I1118 15:43:54.385089 20085 net.cpp:161] Top shape: 4 1024 6 8 (196608)
I1118 15:43:54.385093 20085 net.cpp:169] Memory required for data: 426246144
I1118 15:43:54.385097 20085 layer_factory.hpp:76] Creating layer conv6_1
I1118 15:43:54.385113 20085 net.cpp:108] Creating Layer conv6_1
I1118 15:43:54.385120 20085 net.cpp:460] conv6_1 <- conv6
I1118 15:43:54.385131 20085 net.cpp:417] conv6_1 -> conv6_1
I1118 15:43:54.586139 20085 net.cpp:154] Setting up conv6_1
I1118 15:43:54.586158 20085 net.cpp:161] Top shape: 4 1024 6 8 (196608)
I1118 15:43:54.586163 20085 net.cpp:169] Memory required for data: 427032576
I1118 15:43:54.586169 20085 layer_factory.hpp:76] Creating layer ReLU10
I1118 15:43:54.586179 20085 net.cpp:108] Creating Layer ReLU10
I1118 15:43:54.586184 20085 net.cpp:460] ReLU10 <- conv6_1
I1118 15:43:54.586189 20085 net.cpp:403] ReLU10 -> conv6_1 (in-place)
I1118 15:43:54.588269 20085 net.cpp:154] Setting up ReLU10
I1118 15:43:54.588279 20085 net.cpp:161] Top shape: 4 1024 6 8 (196608)
I1118 15:43:54.588281 20085 net.cpp:169] Memory required for data: 427819008
I1118 15:43:54.588284 20085 layer_factory.hpp:76] Creating layer conv6_2
I1118 15:43:54.588295 20085 net.cpp:108] Creating Layer conv6_2
I1118 15:43:54.588299 20085 net.cpp:460] conv6_2 <- conv6_1
I1118 15:43:54.588305 20085 net.cpp:417] conv6_2 -> conv6_2
I1118 15:43:54.612387 20085 net.cpp:154] Setting up conv6_2
I1118 15:43:54.612421 20085 net.cpp:161] Top shape: 4 1024 6 8 (196608)
I1118 15:43:54.612437 20085 net.cpp:169] Memory required for data: 428605440
I1118 15:43:54.612445 20085 layer_factory.hpp:76] Creating layer ReLU11
I1118 15:43:54.612455 20085 net.cpp:108] Creating Layer ReLU11
I1118 15:43:54.612503 20085 net.cpp:460] ReLU11 <- conv6_2
I1118 15:43:54.612515 20085 net.cpp:403] ReLU11 -> conv6_2 (in-place)
I1118 15:43:54.612664 20085 net.cpp:154] Setting up ReLU11
I1118 15:43:54.612674 20085 net.cpp:161] Top shape: 4 1024 6 8 (196608)
I1118 15:43:54.612679 20085 net.cpp:169] Memory required for data: 429391872
I1118 15:43:54.612684 20085 layer_factory.hpp:76] Creating layer conv6_2_ReLU11_0_split
I1118 15:43:54.612690 20085 net.cpp:108] Creating Layer conv6_2_ReLU11_0_split
I1118 15:43:54.612694 20085 net.cpp:460] conv6_2_ReLU11_0_split <- conv6_2
I1118 15:43:54.612700 20085 net.cpp:417] conv6_2_ReLU11_0_split -> conv6_2_ReLU11_0_split_0
I1118 15:43:54.612707 20085 net.cpp:417] conv6_2_ReLU11_0_split -> conv6_2_ReLU11_0_split_1
I1118 15:43:54.612754 20085 net.cpp:154] Setting up conv6_2_ReLU11_0_split
I1118 15:43:54.612762 20085 net.cpp:161] Top shape: 4 1024 6 8 (196608)
I1118 15:43:54.612769 20085 net.cpp:161] Top shape: 4 1024 6 8 (196608)
I1118 15:43:54.612774 20085 net.cpp:169] Memory required for data: 430964736
I1118 15:43:54.612778 20085 layer_factory.hpp:76] Creating layer Convolution1
I1118 15:43:54.612790 20085 net.cpp:108] Creating Layer Convolution1
I1118 15:43:54.612794 20085 net.cpp:460] Convolution1 <- conv6_2_ReLU11_0_split_0
I1118 15:43:54.612802 20085 net.cpp:417] Convolution1 -> predict_flow6
I1118 15:43:54.614344 20085 net.cpp:154] Setting up Convolution1
I1118 15:43:54.614358 20085 net.cpp:161] Top shape: 4 2 6 8 (384)
I1118 15:43:54.614363 20085 net.cpp:169] Memory required for data: 430966272
I1118 15:43:54.614372 20085 layer_factory.hpp:76] Creating layer predict_flow6_Convolution1_0_split
I1118 15:43:54.614383 20085 net.cpp:108] Creating Layer predict_flow6_Convolution1_0_split
I1118 15:43:54.614388 20085 net.cpp:460] predict_flow6_Convolution1_0_split <- predict_flow6
I1118 15:43:54.614395 20085 net.cpp:417] predict_flow6_Convolution1_0_split -> predict_flow6_Convolution1_0_split_0
I1118 15:43:54.614405 20085 net.cpp:417] predict_flow6_Convolution1_0_split -> predict_flow6_Convolution1_0_split_1
I1118 15:43:54.614414 20085 net.cpp:417] predict_flow6_Convolution1_0_split -> predict_flow6_Convolution1_0_split_2
I1118 15:43:54.614464 20085 net.cpp:154] Setting up predict_flow6_Convolution1_0_split
I1118 15:43:54.614470 20085 net.cpp:161] Top shape: 4 2 6 8 (384)
I1118 15:43:54.614475 20085 net.cpp:161] Top shape: 4 2 6 8 (384)
I1118 15:43:54.614480 20085 net.cpp:161] Top shape: 4 2 6 8 (384)
I1118 15:43:54.614485 20085 net.cpp:169] Memory required for data: 430970880
I1118 15:43:54.614488 20085 layer_factory.hpp:76] Creating layer Downsample1
I1118 15:43:54.614495 20085 net.cpp:108] Creating Layer Downsample1
I1118 15:43:54.614500 20085 net.cpp:460] Downsample1 <- scaled_flow_gt_Eltwise3_0_split_0
I1118 15:43:54.614506 20085 net.cpp:460] Downsample1 <- predict_flow6_Convolution1_0_split_0
I1118 15:43:54.614512 20085 net.cpp:417] Downsample1 -> blob24
I1118 15:43:54.614537 20085 net.cpp:154] Setting up Downsample1
I1118 15:43:54.614544 20085 net.cpp:161] Top shape: 4 2 6 8 (384)
I1118 15:43:54.614547 20085 net.cpp:169] Memory required for data: 430972416
W1118 15:43:54.614553 20085 vision_layers.hpp:445] DownsampleLayer does not do backward.
I1118 15:43:54.748898 20085 layer_factory.hpp:76] Creating layer flow_loss6
I1118 15:43:54.748919 20085 net.cpp:108] Creating Layer flow_loss6
I1118 15:43:54.748929 20085 net.cpp:460] flow_loss6 <- predict_flow6_Convolution1_0_split_1
I1118 15:43:54.748940 20085 net.cpp:460] flow_loss6 <- blob24
I1118 15:43:54.748947 20085 net.cpp:417] flow_loss6 -> flow_loss6
I1118 15:43:54.749299 20085 net.cpp:154] Setting up flow_loss6
I1118 15:43:54.749308 20085 net.cpp:161] Top shape: (1)
I1118 15:43:54.749311 20085 net.cpp:164]     with loss weight 0.32
I1118 15:43:54.749328 20085 net.cpp:169] Memory required for data: 430972420
I1118 15:43:54.749331 20085 layer_factory.hpp:76] Creating layer deconv5
I1118 15:43:54.749341 20085 net.cpp:108] Creating Layer deconv5
I1118 15:43:54.749346 20085 net.cpp:460] deconv5 <- conv6_2_ReLU11_0_split_1
I1118 15:43:54.749369 20085 net.cpp:417] deconv5 -> deconv5
I1118 15:43:54.930338 20085 net.cpp:154] Setting up deconv5
I1118 15:43:54.930363 20085 net.cpp:161] Top shape: 4 512 12 16 (393216)
I1118 15:43:54.930367 20085 net.cpp:169] Memory required for data: 432545284
I1118 15:43:54.930374 20085 layer_factory.hpp:76] Creating layer ReLU12
I1118 15:43:54.930383 20085 net.cpp:108] Creating Layer ReLU12
I1118 15:43:54.930389 20085 net.cpp:460] ReLU12 <- deconv5
I1118 15:43:54.930394 20085 net.cpp:403] ReLU12 -> deconv5 (in-place)
I1118 15:43:54.930588 20085 net.cpp:154] Setting up ReLU12
I1118 15:43:54.930596 20085 net.cpp:161] Top shape: 4 512 12 16 (393216)
I1118 15:43:54.930599 20085 net.cpp:169] Memory required for data: 434118148
I1118 15:43:54.930601 20085 layer_factory.hpp:76] Creating layer conv5_2
I1118 15:43:54.930614 20085 net.cpp:108] Creating Layer conv5_2
I1118 15:43:54.930619 20085 net.cpp:460] conv5_2 <- conv5_1_ReLU8_0_split_1
I1118 15:43:54.930625 20085 net.cpp:417] conv5_2 -> conv5_2
I1118 15:43:54.985852 20085 net.cpp:154] Setting up conv5_2
I1118 15:43:54.985877 20085 net.cpp:161] Top shape: 4 512 12 16 (393216)
I1118 15:43:54.985880 20085 net.cpp:169] Memory required for data: 435691012
I1118 15:43:54.985888 20085 layer_factory.hpp:76] Creating layer ReLU13
I1118 15:43:54.985898 20085 net.cpp:108] Creating Layer ReLU13
I1118 15:43:54.985908 20085 net.cpp:460] ReLU13 <- conv5_2
I1118 15:43:54.985913 20085 net.cpp:403] ReLU13 -> conv5_2 (in-place)
I1118 15:43:54.987964 20085 net.cpp:154] Setting up ReLU13
I1118 15:43:54.987972 20085 net.cpp:161] Top shape: 4 512 12 16 (393216)
I1118 15:43:54.987974 20085 net.cpp:169] Memory required for data: 437263876
I1118 15:43:54.987977 20085 layer_factory.hpp:76] Creating layer upsample_flow6to5
I1118 15:43:54.987987 20085 net.cpp:108] Creating Layer upsample_flow6to5
I1118 15:43:54.987992 20085 net.cpp:460] upsample_flow6to5 <- predict_flow6_Convolution1_0_split_2
I1118 15:43:54.987998 20085 net.cpp:417] upsample_flow6to5 -> upsampled_flow6_to_5
I1118 15:43:54.988174 20085 net.cpp:154] Setting up upsample_flow6to5
I1118 15:43:54.988181 20085 net.cpp:161] Top shape: 4 2 12 16 (1536)
I1118 15:43:54.988183 20085 net.cpp:169] Memory required for data: 437270020
I1118 15:43:54.988188 20085 layer_factory.hpp:76] Creating layer Concat5
I1118 15:43:54.988194 20085 net.cpp:108] Creating Layer Concat5
I1118 15:43:54.988198 20085 net.cpp:460] Concat5 <- conv5_2
I1118 15:43:54.988201 20085 net.cpp:460] Concat5 <- deconv5
I1118 15:43:54.988204 20085 net.cpp:460] Concat5 <- upsampled_flow6_to_5
I1118 15:43:54.988209 20085 net.cpp:417] Concat5 -> concat5
I1118 15:43:54.988227 20085 net.cpp:154] Setting up Concat5
I1118 15:43:54.988232 20085 net.cpp:161] Top shape: 4 1026 12 16 (787968)
I1118 15:43:54.988234 20085 net.cpp:169] Memory required for data: 440421892
I1118 15:43:54.988236 20085 layer_factory.hpp:76] Creating layer concat5_Concat5_0_split
I1118 15:43:54.988241 20085 net.cpp:108] Creating Layer concat5_Concat5_0_split
I1118 15:43:54.988243 20085 net.cpp:460] concat5_Concat5_0_split <- concat5
I1118 15:43:54.988248 20085 net.cpp:417] concat5_Concat5_0_split -> concat5_Concat5_0_split_0
I1118 15:43:54.988252 20085 net.cpp:417] concat5_Concat5_0_split -> concat5_Concat5_0_split_1
I1118 15:43:54.988277 20085 net.cpp:154] Setting up concat5_Concat5_0_split
I1118 15:43:54.988282 20085 net.cpp:161] Top shape: 4 1026 12 16 (787968)
I1118 15:43:54.988286 20085 net.cpp:161] Top shape: 4 1026 12 16 (787968)
I1118 15:43:54.988287 20085 net.cpp:169] Memory required for data: 446725636
I1118 15:43:54.988289 20085 layer_factory.hpp:76] Creating layer Convolution2
I1118 15:43:54.988298 20085 net.cpp:108] Creating Layer Convolution2
I1118 15:43:54.988301 20085 net.cpp:460] Convolution2 <- concat5_Concat5_0_split_0
I1118 15:43:54.988306 20085 net.cpp:417] Convolution2 -> predict_flow5
I1118 15:43:54.995026 20085 net.cpp:154] Setting up Convolution2
I1118 15:43:54.995040 20085 net.cpp:161] Top shape: 4 2 12 16 (1536)
I1118 15:43:54.995043 20085 net.cpp:169] Memory required for data: 446731780
I1118 15:43:54.995060 20085 layer_factory.hpp:76] Creating layer predict_flow5_Convolution2_0_split
I1118 15:43:54.995066 20085 net.cpp:108] Creating Layer predict_flow5_Convolution2_0_split
I1118 15:43:54.995069 20085 net.cpp:460] predict_flow5_Convolution2_0_split <- predict_flow5
I1118 15:43:54.995075 20085 net.cpp:417] predict_flow5_Convolution2_0_split -> predict_flow5_Convolution2_0_split_0
I1118 15:43:54.995082 20085 net.cpp:417] predict_flow5_Convolution2_0_split -> predict_flow5_Convolution2_0_split_1
I1118 15:43:54.995087 20085 net.cpp:417] predict_flow5_Convolution2_0_split -> predict_flow5_Convolution2_0_split_2
I1118 15:43:54.995136 20085 net.cpp:154] Setting up predict_flow5_Convolution2_0_split
I1118 15:43:54.995141 20085 net.cpp:161] Top shape: 4 2 12 16 (1536)
I1118 15:43:54.995144 20085 net.cpp:161] Top shape: 4 2 12 16 (1536)
I1118 15:43:54.995147 20085 net.cpp:161] Top shape: 4 2 12 16 (1536)
I1118 15:43:54.995149 20085 net.cpp:169] Memory required for data: 446750212
I1118 15:43:54.995151 20085 layer_factory.hpp:76] Creating layer Downsample2
I1118 15:43:54.995157 20085 net.cpp:108] Creating Layer Downsample2
I1118 15:43:54.995159 20085 net.cpp:460] Downsample2 <- scaled_flow_gt_Eltwise3_0_split_1
I1118 15:43:54.995163 20085 net.cpp:460] Downsample2 <- predict_flow5_Convolution2_0_split_0
I1118 15:43:54.995167 20085 net.cpp:417] Downsample2 -> blob29
I1118 15:43:54.995185 20085 net.cpp:154] Setting up Downsample2
I1118 15:43:54.995189 20085 net.cpp:161] Top shape: 4 2 12 16 (1536)
I1118 15:43:54.995193 20085 net.cpp:169] Memory required for data: 446756356
W1118 15:43:54.995195 20085 vision_layers.hpp:445] DownsampleLayer does not do backward.
I1118 15:43:54.995203 20085 layer_factory.hpp:76] Creating layer flow_loss5
I1118 15:43:54.995209 20085 net.cpp:108] Creating Layer flow_loss5
I1118 15:43:54.995213 20085 net.cpp:460] flow_loss5 <- predict_flow5_Convolution2_0_split_1
…
layer {
  name: "Image1"
  type: "ImageData"
  top: "img0"
  include {
    phase: TRAIN
  }
  image_data_param {
    source: "img1_list.txt"
    batch_size: 4
    root_folder: "./"
  }
}
layer {
  name: "Image2"
  type: "ImageData"
  top: "img1"
  include {
    phase: TRAIN
  }
  image_data_param {
    source: "img2_list.txt"
    batch_size: 4
    root_folder: "./"
  }
}
layer {
  name: "Flow"
  type: "FloData"
  top: "flow_gt_aug"
  include {
    phase: TRAIN
  }
  image_data_param {
    source: "flo_list.txt"
    batch_size: 4
    root_folder: "./"
  }
}
layer {
  name: "Mean1"
  type: "Mean"
  bottom: "img0"
  top: "img0_aug"
  mean_param {
    operation: SUBTRACT
    value: 0.411451
    value: 0.43206
    value: 0.450141
    input_scale: 0.0039216
  }
}
layer {
  name: "Mean2"
  type: "Mean"
  bottom: "img1"
  top: "img1_aug"
  mean_param {
    operation: SUBTRACT
    value: 0.410602
    value: 0.431021
    value: 0.448553
    input_scale: 0.0039216
  }
}
layer {
  name: "Eltwise3"
  type: "Eltwise"
  bottom: "flow_gt_aug"
  top: "scaled_flow_gt"
  eltwise_param {
    operation: SUM
    coeff: 0.05
  }
}
layer {
  name: "Concat1"
  type: "Concat"
  bottom: "img0_aug"
  bottom: "img1_aug"
  top: "input"
  concat_param {
    axis: 1
  }
}
layer {
  name: "conv1"
  type: "Convolution"
  bottom: "input"
  top: "conv1"
  param {
    lr_mult: 1
    decay_mult: 1
  }
  param {
    lr_mult: 1
    decay_mult: 0
  }
  convolution_param {
    num_output: 64
    pad: 3
    kernel_size: 7
    stride: 2
    weight_filler {
      type: "msra"
    }
    bias_filler {
      type: "constant"
    }
    engine: CUDNN
  }
}
layer {
  name: "ReLU1"
  type: "ReLU"
  bottom: "conv1"
  top: "conv1"
  relu_param {
    negative_slope: 0.1
  }
}
layer {
  name: "conv2"
  type: "Convolution"
  bottom: "conv1"
  top: "conv2"
  param {
    lr_mult: 1
    decay_mult: 1
  }
  param {
    lr_mult: 1
    decay_mult: 0
  }
  convolution_param {
    num_output: 128
    pad: 2
    kernel_size: 5
    stride: 2
    weight_filler {
      type: "msra"
    }
    bias_filler {
      type: "constant"
    }
    engine: CUDNN
  }
}
layer {
  name: "ReLU2"
  type: "ReLU"
  bottom: "conv2"
  top: "conv2"
  relu_param {
    negative_slope: 0.1
  }
}
layer {
  name: "conv3"
  type: "Convolution"
  bottom: "conv2"
  top: "conv3"
  param {
    lr_mult: 1
    decay_mult: 1
  }
  param {
    lr_mult: 1
    decay_mult: 0
  }
  convolution_param {
    num_output: 256
    pad: 2
    kernel_size: 5
    stride: 2
    weight_filler {
      type: "msra"
    }
    bias_filler {
      type: "constant"
    }
    engine: CUDNN
  }
}
layer {
  name: "ReLU3"
  type: "ReLU"
  bottom: "conv3"
  top: "conv3"
  relu_param {
    negative_slope: 0.1
  }
}
layer {
  name: "conv3_1"
  type: "Convolution"
  bottom: "conv3"
  top: "conv3_1"
  param {
    lr_mult: 1
    decay_mult: 1
  }
  param {
    lr_mult: 1
    decay_mult: 0
  }
  convolution_param {
    num_output: 256
    pad: 1
    kernel_size: 3
    stride: 1
    weight_filler {
      type: "msra"
    }
    bias_filler {
      type: "constant"
    }
    engine: CUDNN
  }
}
layer {
  name: "ReLU4"
  type: "ReLU"
  bottom: "conv3_1"
  top: "conv3_1"
  relu_param {
    negative_slope: 0.1
  }
}
layer {
  name: "conv4"
  type: "Convolution"
  bottom: "conv3_1"
  top: "conv4"
  param {
    lr_mult: 1
    decay_mult: 1
  }
  param {
    lr_mult: 1
    decay_mult: 0
  }
  convolution_param {
    num_output: 512
    pad: 1
    kernel_size: 3
    stride: 2
    weight_filler {
      type: "msra"
    }
    bias_filler {
      type: "constant"
    }
    engine: CUDNN
  }
}
layer {
  name: "ReLU5"
  type: "ReLU"
  bottom: "conv4"
  top: "conv4"
  relu_param {
    negative_slope: 0.1
  }
}
layer {
  name: "conv4_1"
  type: "Convolution"
  bottom: "conv4"
  top: "conv4_1"
  param {
    lr_mult: 1
    decay_mult: 1
  }
  param {
    lr_mult: 1
    decay_mult: 0
  }
  convolution_param {
    num_output: 512
    pad: 1
    kernel_size: 3
    stride: 1
    weight_filler {
      type: "msra"
    }
    bias_filler {
      type: "constant"
    }
    engine: CUDNN
  }
}
layer {
  name: "ReLU6"
  type: "ReLU"
  bottom: "conv4_1"
  top: "conv4_1"
  relu_param {
    negative_slope: 0.1
  }
}
layer {
  name: "conv5"
  type: "Convolution"
  bottom: "conv4_1"
  top: "conv5"
  param {
    lr_mult: 1
    decay_mult: 1
  }
  param {
    lr_mult: 1
    decay_mult: 0
  }
  convolution_param {
    num_output: 512
    pad: 1
    kernel_size: 3
    stride: 2
    weight_filler {
      type: "msra"
    }
    bias_filler {
      type: "constant"
    }
    engine: CUDNN
  }
}
layer {
  name: "ReLU7"
  type: "ReLU"
  bottom: "conv5"
  top: "conv5"
  relu_param {
    negative_slope: 0.1
  }
}
layer {
  name: "conv5_1"
  type: "Convolution"
  bottom: "conv5"
  top: "conv5_1"
  param {
    lr_mult: 1
    decay_mult: 1
  }
  param {
    lr_mult: 1
    decay_mult: 0
  }
  convolution_param {
    num_output: 512
    pad: 1
    kernel_size: 3
    stride: 1
    weight_filler {
      type: "msra"
    }
    bias_filler {
      type: "constant"
    }
    engine: CUDNN
  }
}
layer {
  name: "ReLU8"
  type: "ReLU"
  bottom: "conv5_1"
  top: "conv5_1"
  relu_param {
    negative_slope: 0.1
  }
}
layer {
  name: "conv6"
  type: "Convolution"
  bottom: "conv5_1"
  top: "conv6"
  param {
    lr_mult: 1
    decay_mult: 1
  }
  param {
    lr_mult: 1
    decay_mult: 0
  }
  convolution_param {
    num_output: 1024
    pad: 1
    kernel_size: 3
    stride: 2
    weight_filler {
      type: "msra"
    }
    bias_filler {
      type: "constant"
    }
    engine: CUDNN
  }
}
layer {
  name: "ReLU9"
  type: "ReLU"
  bottom: "conv6"
  top: "conv6"
  relu_param {
    negative_slope: 0.1
  }
}
layer {
  name: "conv6_1"
  type: "Convolution"
  bottom: "conv6"
  top: "conv6_1"
  param {
    lr_mult: 1
    decay_mult: 1
  }
  param {
    lr_mult: 1
    decay_mult: 0
  }
  convolution_param {
    num_output: 1024
    pad: 1
    kernel_size: 3
    stride: 1
    weight_filler {
      type: "msra"
    }
    bias_filler {
      type: "constant"
    }
    engine: CUDNN
  }
}
layer {
  name: "ReLU10"
  type: "ReLU"
  bottom: "conv6_1"
  top: "conv6_1"
  relu_param {
    negative_slope: 0.1
  }
}
layer {
  name: "conv6_2"
  type: "Convolution"
  bottom: "conv6_1"
  top: "conv6_2"
  param {
    lr_mult: 1
    decay_mult: 1
  }
  param {
    lr_mult: 1
    decay_mult: 0
  }
  convolution_param {
    num_output: 1024
    pad: 0
    kernel_size: 1
    stride: 1
    weight_filler {
      type: "msra"
    }
    bias_filler {
      type: "constant"
    }
    engine: CUDNN
  }
}
layer {
  name: "ReLU11"
  type: "ReLU"
  bottom: "conv6_2"
  top: "conv6_2"
  relu_param {
    negative_slope: 0.1
  }
}
layer {
  name: "Convolution1"
  type: "Convolution"
  bottom: "conv6_2"
  top: "predict_flow6"
  param {
    lr_mult: 1
    decay_mult: 1
  }
  param {
    lr_mult: 1
    decay_mult: 0
  }
  convolution_param {
    num_output: 2
    pad: 1
    kernel_size: 3
    stride: 1
    weight_filler {
      type: "msra"
    }
    bias_filler {
      type: "constant"
    }
    engine: CUDNN
  }
}
layer {
  name: "Downsample1"
  type: "Downsample"
  bottom: "scaled_flow_gt"
  bottom: "predict_flow6"
  top: "blob24"
}
layer {
  name: "flow_loss6"
  type: "L1Loss"
  bottom: "predict_flow6"
  bottom: "blob24"
  top: "flow_loss6"
  loss_weight: 0.32
  l1_loss_param {
    l2_per_location: true
  }
}
layer {
  name: "deconv5"
  type: "Deconvolution"
  bottom: "conv6_2"
  top: "deconv5"
  param {
    lr_mult: 1
    decay_mult: 0
  }
  param {
    lr_mult: 0
    decay_mult: 0
  }
  convolution_param {
    num_output: 512
    pad: 1
    kernel_size: 4
    stride: 2
    weight_filler {
      type: "msra"
    }
    bias_filler {
      type: "constant"
    }
    engine: CUDNN
  }
}
layer {
  name: "ReLU12"
  type: "ReLU"
  bottom: "deconv5"
  top: "deconv5"
  relu_param {
    negative_slope: 0.1
  }
}
layer {
  name: "conv5_2"
  type: "Convolution"
  bottom: "conv5_1"
  top: "conv5_2"
  param {
    lr_mult: 1
    decay_mult: 1
  }
  param {
    lr_mult: 1
    decay_mult: 0
  }
  convolution_param {
    num_output: 512
    pad: 1
    kernel_size: 3
    stride: 1
    weight_filler {
      type: "msra"
    }
    bias_filler {
      type: "constant"
    }
    engine: CUDNN
  }
}
layer {
  name: "ReLU13"
  type: "ReLU"
  bottom: "conv5_2"
  top: "conv5_2"
  relu_param {
    negative_slope: 0.1
  }
}
layer {
  name: "upsample_flow6to5"
  type: "Deconvolution"
  bottom: "predict_flow6"
  top: "upsampled_flow6_to_5"
  param {
    lr_mult: 1
    decay_mult: 0
  }
  param {
    lr_mult: 0
    decay_mult: 0
  }
  convolution_param {
    num_output: 2
    pad: 1
    kernel_size: 4
    stride: 2
    weight_filler {
      type: "msra"
    }
    bias_filler {
      type: "constant"
    }
    engine: CUDNN
  }
}
layer {
  name: "Concat5"
  type: "Concat"
  bottom: "conv5_2"
  bottom: "deconv5"
  bottom: "upsampled_flow6_to_5"
  top: "concat5"
}
layer {
  name: "Convolution2"
  type: "Convolution"
  bottom: "concat5"
  top: "predict_flow5"
  param {
    lr_mult: 1
    decay_mult: 1
  }
  param {
    lr_mult: 1
    decay_mult: 0
  }
  convolution_param {
    num_output: 2
    pad: 1
    kernel_size: 3
    stride: 1
    weight_filler {
      type: "msra"
    }
    bias_filler {
      type: "constant"
    }
    engine: CUDNN
  }
}
layer {
  name: "Downsample2"
  type: "Downsample"
  bottom: "scaled_flow_gt"
  bottom: "predict_flow5"
  top: "blob29"
}
layer {
  name: "flow_loss5"
  type: "L1Loss"
  bottom: "predict_flow5"
  bottom: "blob29"
  top: "flow_loss5"
  loss_weight: 0.08
  l1_loss_param {
    l2_per_location: true
  }
}
layer {
  name: "Convolution2_1"
  type: "Convolution"
  bottom: "concat5"
  top: "concat5_1"
  param {
    lr_mult: 1
    decay_mult: 1
  }
  param {
    lr_mult: 1
    decay_mult: 0
  }
  convolution_param {
    num_output: 512
    pad: 1
    kernel_size: 3
    stride: 1
    weight_filler {
      type: "msra"
    }
    bias_filler {
      type: "constant"
    }
    engine: CUDNN
  }
}
layer {
  name: "ReLU14"
  type: "ReLU"
  bottom: "concat5_1"
  top: "concat5_1"
  relu_param {
    negative_slope: 0.1
  }
}
layer {
  name: "deconv4"
  type: "Deconvolution"
  bottom: "concat5_1"
  top: "deconv4"
  param {
    lr_mult: 1
    decay_mult: 0
  }
  param {
    lr_mult: 0
    decay_mult: 0
  }
  convolution_param {
    num_output: 256
    pad: 1
    kernel_size: 4
    stride: 2
    weight_filler {
      type: "msra"
    }
    bias_filler {
      type: "constant"
    }
    engine: CUDNN
  }
}
layer {
  name: "ReLU15"
  type: "ReLU"
  bottom: "deconv4"
  top: "deconv4"
  relu_param {
    negative_slope: 0.1
  }
}
layer {
  name: "conv4_2"
  type: "Convolution"
  bottom: "conv4_1"
  top: "conv4_2"
  param {
    lr_mult: 1
    decay_mult: 1
  }
  param {
    lr_mult: 1
    decay_mult: 0
  }
  convolution_param {
    num_output: 256
    pad: 1
    kernel_size: 3
    stride: 1
    weight_filler {
      type: "msra"
    }
    bias_filler {
      type: "constant"
    }
    engine: CUDNN
  }
}
layer {
  name: "ReLU16"
  type: "ReLU"
  bottom: "conv4_2"
  top: "conv4_2"
  relu_param {
    negative_slope: 0.1
  }
}
layer {
  name: "upsample_flow5to4"
  type: "Deconvolution"
  bottom: "predict_flow5"
  top: "upsampled_flow5_to_4"
  param {
    lr_mult: 1
    decay_mult: 0
  }
  param {
    lr_mult: 0
    decay_mult: 0
  }
  convolution_param {
    num_output: 2
    pad: 1
    kernel_size: 4
    stride: 2
    weight_filler {
      type: "msra"
    }
    bias_filler {
      type: "constant"
    }
    engine: CUDNN
  }
}
layer {
  name: "Concat4"
  type: "Concat"
  bottom: "conv4_2"
  bottom: "deconv4"
  bottom: "upsampled_flow5_to_4"
  top: "concat4"
}
layer {
  name: "Convolution3"
  type: "Convolution"
  bottom: "concat4"
  top: "predict_flow4"
  param {
    lr_mult: 1
    decay_mult: 1
  }
  param {
    lr_mult: 1
    decay_mult: 0
  }
  convolution_param {
    num_output: 2
    pad: 1
    kernel_size: 3
    stride: 1
    weight_filler {
      type: "msra"
    }
    bias_filler {
      type: "constant"
    }
    engine: CUDNN
  }
}
layer {
  name: "Downsample3"
  type: "Downsample"
  bottom: "scaled_flow_gt"
  bottom: "predict_flow4"
  top: "blob34"
}
layer {
  name: "flow_loss4"
  type: "L1Loss"
  bottom: "predict_flow4"
  bottom: "blob34"
  top: "flow_loss4"
  loss_weight: 0.02
  l1_loss_param {
    l2_per_location: true
  }
}
layer {
  name: "Convolution3_1"
  type: "Convolution"
  bottom: "concat4"
  top: "concat4_1"
  param {
    lr_mult: 1
    decay_mult: 1
  }
  param {
    lr_mult: 1
    decay_mult: 0
  }
  convolution_param {
    num_output: 256
    pad: 1
    kernel_size: 3
    stride: 1
    weight_filler {
      type: "msra"
    }
    bias_filler {
      type: "constant"
    }
    engine: CUDNN
  }
}
layer {
  name: "ReLU17"
  type: "ReLU"
  bottom: "concat4_1"
  top: "concat4_1"
  relu_param {
    negative_slope: 0.1
  }
}
layer {
  name: "deconv3"
  type: "Deconvolution"
  bottom: "concat4_1"
  top: "deconv3"
  param {
    lr_mult: 1
    decay_mult: 0
  }
  param {
    lr_mult: 0
    decay_mult: 0
  }
  convolution_param {
    num_output: 128
    pad: 1
    kernel_size: 4
    stride: 2
    weight_filler {
      type: "msra"
    }
    bias_filler {
      type: "constant"
    }
    engine: CUDNN
  }
}
layer {
  name: "ReLU18"
  type: "ReLU"
  bottom: "deconv3"
  top: "deconv3"
  relu_param {
    negative_slope: 0.1
  }
}
layer {
  name: "conv3_2"
  type: "Convolution"
  bottom: "conv3_1"
  top: "conv3_2"
  param {
    lr_mult: 1
    decay_mult: 1
  }
  param {
    lr_mult: 1
    decay_mult: 0
  }
  convolution_param {
    num_output: 128
    pad: 1
    kernel_size: 3
    stride: 1
    weight_filler {
      type: "msra"
    }
    bias_filler {
      type: "constant"
    }
    engine: CUDNN
  }
}
layer {
  name: "ReLU19"
  type: "ReLU"
  bottom: "conv3_2"
  top: "conv3_2"
  relu_param {
    negative_slope: 0.1
  }
}
layer {
  name: "upsample_flow4to3"
  type: "Deconvolution"
  bottom: "predict_flow4"
  top: "upsampled_flow4_to_3"
  param {
    lr_mult: 1
    decay_mult: 0
  }
  param {
    lr_mult: 0
    decay_mult: 0
  }
  convolution_param {
    num_output: 2
    pad: 1
    kernel_size: 4
    stride: 2
    weight_filler {
      type: "msra"
    }
    bias_filler {
      type: "constant"
    }
    engine: CUDNN
  }
}
layer {
  name: "Concat3"
  type: "Concat"
  bottom: "conv3_2"
  bottom: "deconv3"
  bottom: "upsampled_flow4_to_3"
  top: "concat3"
}
layer {
  name: "Convolution4"
  type: "Convolution"
  bottom: "concat3"
  top: "predict_flow3"
  param {
    lr_mult: 1
    decay_mult: 1
  }
  param {
    lr_mult: 1
    decay_mult: 0
  }
  convolution_param {
    num_output: 2
    pad: 1
    kernel_size: 3
    stride: 1
    weight_filler {
      type: "msra"
    }
    bias_filler {
      type: "constant"
    }
    engine: CUDNN
  }
}
layer {
  name: "Downsample4"
  type: "Downsample"
  bottom: "scaled_flow_gt"
  bottom: "predict_flow3"
  top: "blob39"
}
layer {
  name: "flow_loss3"
  type: "L1Loss"
  bottom: "predict_flow3"
  bottom: "blob39"
  top: "flow_loss3"
  loss_weight: 0.01
  l1_loss_param {
    l2_per_location: true
  }
}
layer {
  name: "Convolution4_1"
  type: "Convolution"
  bottom: "concat3"
  top: "concat3_1"
  param {
    lr_mult: 1
    decay_mult: 1
  }
  param {
    lr_mult: 1
    decay_mult: 0
  }
  convolution_param {
    num_output: 128
    pad: 1
    kernel_size: 3
    stride: 1
    weight_filler {
      type: "msra"
    }
    bias_filler {
      type: "constant"
    }
    engine: CUDNN
  }
}
layer {
  name: "ReLU20"
  type: "ReLU"
  bottom: "concat3_1"
  top: "concat3_1"
  relu_param {
    negative_slope: 0.1
  }
}
layer {
  name: "deconv2"
  type: "Deconvolution"
  bottom: "concat3_1"
  top: "deconv2"
  param {
    lr_mult: 1
    decay_mult: 0
  }
  param {
    lr_mult: 0
    decay_mult: 0
  }
  convolution_param {
    num_output: 64
    pad: 1
    kernel_size: 4
    stride: 2
    weight_filler {
      type: "msra"
    }
    bias_filler {
      type: "constant"
    }
    engine: CUDNN
  }
}
layer {
  name: "ReLU21"
  type: "ReLU"
  bottom: "deconv2"
  top: "deconv2"
  relu_param {
    negative_slope: 0.1
  }
}
layer {
  name: "conv2_2"
  type: "Convolution"
  bottom: "conv2"
  top: "conv2_2"
  param {
    lr_mult: 1
    decay_mult: 1
  }
  param {
    lr_mult: 1
    decay_mult: 0
  }
  convolution_param {
    num_output: 64
    pad: 1
    kernel_size: 3
    stride: 1
    weight_filler {
      type: "msra"
    }
    bias_filler {
      type: "constant"
    }
    engine: CUDNN
  }
}
layer {
  name: "ReLU22"
  type: "ReLU"
  bottom: "conv2_2"
  top: "conv2_2"
  relu_param {
    negative_slope: 0.1
  }
}
layer {
  name: "upsample_flow3to2"
  type: "Deconvolution"
  bottom: "predict_flow3"
  top: "upsampled_flow3_to_2"
  param {
    lr_mult: 1
    decay_mult: 0
  }
  param {
    lr_mult: 0
    decay_mult: 0
  }
  convolution_param {
    num_output: 2
    pad: 1
    kernel_size: 4
    stride: 2
    weight_filler {
      type: "msra"
    }
    bias_filler {
      type: "constant"
    }
    engine: CUDNN
  }
}
layer {
  name: "Concat2"
  type: "Concat"
  bottom: "conv2_2"
  bottom: "deconv2"
  bottom: "upsampled_flow3_to_2"
  top: "concat2"
}
layer {
  name: "Convolution5"
  type: "Convolution"
  bottom: "concat2"
  top: "predict_flow2"
  param {
    lr_mult: 1
    decay_mult: 1
  }
  param {
    lr_mult: 1
    decay_mult: 0
  }
  convolution_param {
    num_output: 2
    pad: 1
    kernel_size: 3
    stride: 1
    weight_filler {
      type: "msra"
    }
    bias_filler {
      type: "constant"
    }
    engine: CUDNN
  }
}
layer {
  name: "Downsample5"
  type: "Downsample"
  bottom: "scaled_flow_gt"
  bottom: "predict_flow2"
  top: "blob44"
}
layer {
  name: "flow_loss2"
  type: "L1Loss"
  bottom: "predict_flow2"
  bottom: "blob44"
  top: "flow_loss2"
  loss_weight: 0.005
  l1_loss_param {
    l2_per_location: true
  }
}
I1118 15:44:05.162058 20100 layer_factory.hpp:76] Creating layer Image1
I1118 15:44:05.162094 20100 net.cpp:108] Creating Layer Image1
I1118 15:44:05.162104 20100 net.cpp:417] Image1 -> img0
I1118 15:44:05.162130 20100 image_data_layer.cpp:36] Opening file img1_list.txt
I1118 15:44:05.170491 20100 image_data_layer.cpp:50] A total of 22232 images.
I1118 15:44:05.185612 20100 image_data_layer.cpp:77] output data size: 4,3,384,512
I1118 15:44:05.200157 20100 net.cpp:154] Setting up Image1
I1118 15:44:05.200191 20100 net.cpp:161] Top shape: 4 3 384 512 (2359296)
I1118 15:44:05.200196 20100 net.cpp:169] Memory required for data: 9437184
I1118 15:44:05.200203 20100 layer_factory.hpp:76] Creating layer Image2
I1118 15:44:05.200227 20100 net.cpp:108] Creating Layer Image2
I1118 15:44:05.200235 20100 net.cpp:417] Image2 -> img1
I1118 15:44:05.200251 20100 image_data_layer.cpp:36] Opening file img2_list.txt
I1118 15:44:05.205063 20100 image_data_layer.cpp:50] A total of 22232 images.
I1118 15:44:05.205673 20100 image_data_layer.cpp:77] output data size: 4,3,384,512
I1118 15:44:05.223493 20100 net.cpp:154] Setting up Image2
I1118 15:44:05.223522 20100 net.cpp:161] Top shape: 4 3 384 512 (2359296)
I1118 15:44:05.223526 20100 net.cpp:169] Memory required for data: 18874368
I1118 15:44:05.223531 20100 layer_factory.hpp:76] Creating layer Flow
I1118 15:44:05.223557 20100 net.cpp:108] Creating Layer Flow
I1118 15:44:05.223567 20100 net.cpp:417] Flow -> flow_gt_aug
I1118 15:44:05.223585 20100 flo_data_layer.cpp:62] Opening file flo_list.txt
I1118 15:44:05.229161 20100 flo_data_layer.cpp:76] A total of 22232 images.
I1118 15:44:05.229288 20100 flo_data_layer.cpp:111] output data size: 4,2,384,512
I1118 15:44:05.239410 20100 net.cpp:154] Setting up Flow
I1118 15:44:05.239435 20100 net.cpp:161] Top shape: 4 2 384 512 (1572864)
I1118 15:44:05.239439 20100 net.cpp:169] Memory required for data: 25165824
I1118 15:44:05.239444 20100 layer_factory.hpp:76] Creating layer Mean1
I1118 15:44:05.239454 20100 net.cpp:108] Creating Layer Mean1
I1118 15:44:05.239459 20100 net.cpp:460] Mean1 <- img0
I1118 15:44:05.239473 20100 net.cpp:417] Mean1 -> img0_aug
I1118 15:44:05.239552 20100 net.cpp:154] Setting up Mean1
I1118 15:44:05.239560 20100 net.cpp:161] Top shape: 4 3 384 512 (2359296)
I1118 15:44:05.239562 20100 net.cpp:169] Memory required for data: 34603008
I1118 15:44:05.239565 20100 layer_factory.hpp:76] Creating layer Mean2
I1118 15:44:05.239574 20100 net.cpp:108] Creating Layer Mean2
I1118 15:44:05.239580 20100 net.cpp:460] Mean2 <- img1
I1118 15:44:05.239588 20100 net.cpp:417] Mean2 -> img1_aug
I1118 15:44:05.239616 20100 net.cpp:154] Setting up Mean2
I1118 15:44:05.239624 20100 net.cpp:161] Top shape: 4 3 384 512 (2359296)
I1118 15:44:05.239626 20100 net.cpp:169] Memory required for data: 44040192
I1118 15:44:05.239630 20100 layer_factory.hpp:76] Creating layer Eltwise3
I1118 15:44:05.239646 20100 net.cpp:108] Creating Layer Eltwise3
I1118 15:44:05.239652 20100 net.cpp:460] Eltwise3 <- flow_gt_aug
I1118 15:44:05.239656 20100 net.cpp:417] Eltwise3 -> scaled_flow_gt
I1118 15:44:05.239686 20100 net.cpp:154] Setting up Eltwise3
I1118 15:44:05.239692 20100 net.cpp:161] Top shape: 4 2 384 512 (1572864)
I1118 15:44:05.239694 20100 net.cpp:169] Memory required for data: 50331648
I1118 15:44:05.239697 20100 layer_factory.hpp:76] Creating layer scaled_flow_gt_Eltwise3_0_split
I1118 15:44:05.239709 20100 net.cpp:108] Creating Layer scaled_flow_gt_Eltwise3_0_split
I1118 15:44:05.239715 20100 net.cpp:460] scaled_flow_gt_Eltwise3_0_split <- scaled_flow_gt
I1118 15:44:05.239722 20100 net.cpp:417] scaled_flow_gt_Eltwise3_0_split -> scaled_flow_gt_Eltwise3_0_split_0
I1118 15:44:05.239730 20100 net.cpp:417] scaled_flow_gt_Eltwise3_0_split -> scaled_flow_gt_Eltwise3_0_split_1
I1118 15:44:05.239742 20100 net.cpp:417] scaled_flow_gt_Eltwise3_0_split -> scaled_flow_gt_Eltwise3_0_split_2
I1118 15:44:05.239756 20100 net.cpp:417] scaled_flow_gt_Eltwise3_0_split -> scaled_flow_gt_Eltwise3_0_split_3
I1118 15:44:05.239764 20100 net.cpp:417] scaled_flow_gt_Eltwise3_0_split -> scaled_flow_gt_Eltwise3_0_split_4
I1118 15:44:05.239827 20100 net.cpp:154] Setting up scaled_flow_gt_Eltwise3_0_split
I1118 15:44:05.239835 20100 net.cpp:161] Top shape: 4 2 384 512 (1572864)
I1118 15:44:05.239838 20100 net.cpp:161] Top shape: 4 2 384 512 (1572864)
I1118 15:44:05.239845 20100 net.cpp:161] Top shape: 4 2 384 512 (1572864)
I1118 15:44:05.239850 20100 net.cpp:161] Top shape: 4 2 384 512 (1572864)
I1118 15:44:05.239855 20100 net.cpp:161] Top shape: 4 2 384 512 (1572864)
I1118 15:44:05.239859 20100 net.cpp:169] Memory required for data: 81788928
I1118 15:44:05.239863 20100 layer_factory.hpp:76] Creating layer Concat1
I1118 15:44:05.239878 20100 net.cpp:108] Creating Layer Concat1
I1118 15:44:05.239886 20100 net.cpp:460] Concat1 <- img0_aug
I1118 15:44:05.239891 20100 net.cpp:460] Concat1 <- img1_aug
I1118 15:44:05.239897 20100 net.cpp:417] Concat1 -> input
I1118 15:44:05.239925 20100 net.cpp:154] Setting up Concat1
I1118 15:44:05.239931 20100 net.cpp:161] Top shape: 4 6 384 512 (4718592)
I1118 15:44:05.239934 20100 net.cpp:169] Memory required for data: 100663296
I1118 15:44:05.239938 20100 layer_factory.hpp:76] Creating layer conv1
I1118 15:44:05.239951 20100 net.cpp:108] Creating Layer conv1
I1118 15:44:05.239958 20100 net.cpp:460] conv1 <- input
I1118 15:44:05.239967 20100 net.cpp:417] conv1 -> conv1
I1118 15:44:05.494451 20100 net.cpp:154] Setting up conv1
I1118 15:44:05.494477 20100 net.cpp:161] Top shape: 4 64 192 256 (12582912)
I1118 15:44:05.494482 20100 net.cpp:169] Memory required for data: 150994944
I1118 15:44:05.494513 20100 layer_factory.hpp:76] Creating layer ReLU1
I1118 15:44:05.494531 20100 net.cpp:108] Creating Layer ReLU1
I1118 15:44:05.494539 20100 net.cpp:460] ReLU1 <- conv1
I1118 15:44:05.494545 20100 net.cpp:403] ReLU1 -> conv1 (in-place)
I1118 15:44:05.494681 20100 net.cpp:154] Setting up ReLU1
I1118 15:44:05.494689 20100 net.cpp:161] Top shape: 4 64 192 256 (12582912)
I1118 15:44:05.494693 20100 net.cpp:169] Memory required for data: 201326592
I1118 15:44:05.494698 20100 layer_factory.hpp:76] Creating layer conv2
I1118 15:44:05.494714 20100 net.cpp:108] Creating Layer conv2
I1118 15:44:05.494721 20100 net.cpp:460] conv2 <- conv1
I1118 15:44:05.494727 20100 net.cpp:417] conv2 -> conv2
I1118 15:44:05.501353 20100 net.cpp:154] Setting up conv2
I1118 15:44:05.501366 20100 net.cpp:161] Top shape: 4 128 96 128 (6291456)
I1118 15:44:05.501370 20100 net.cpp:169] Memory required for data: 226492416
I1118 15:44:05.501381 20100 layer_factory.hpp:76] Creating layer ReLU2
I1118 15:44:05.501396 20100 net.cpp:108] Creating Layer ReLU2
I1118 15:44:05.501405 20100 net.cpp:460] ReLU2 <- conv2
I1118 15:44:05.501413 20100 net.cpp:403] ReLU2 -> conv2 (in-place)
I1118 15:44:05.501797 20100 net.cpp:154] Setting up ReLU2
I1118 15:44:05.501809 20100 net.cpp:161] Top shape: 4 128 96 128 (6291456)
I1118 15:44:05.501812 20100 net.cpp:169] Memory required for data: 251658240
I1118 15:44:05.501816 20100 layer_factory.hpp:76] Creating layer conv2_ReLU2_0_split
I1118 15:44:05.501821 20100 net.cpp:108] Creating Layer conv2_ReLU2_0_split
I1118 15:44:05.501822 20100 net.cpp:460] conv2_ReLU2_0_split <- conv2
I1118 15:44:05.501828 20100 net.cpp:417] conv2_ReLU2_0_split -> conv2_ReLU2_0_split_0
I1118 15:44:05.501833 20100 net.cpp:417] conv2_ReLU2_0_split -> conv2_ReLU2_0_split_1
I1118 15:44:05.501871 20100 net.cpp:154] Setting up conv2_ReLU2_0_split
I1118 15:44:05.501878 20100 net.cpp:161] Top shape: 4 128 96 128 (6291456)
I1118 15:44:05.501883 20100 net.cpp:161] Top shape: 4 128 96 128 (6291456)
I1118 15:44:05.501886 20100 net.cpp:169] Memory required for data: 301989888
I1118 15:44:05.501890 20100 layer_factory.hpp:76] Creating layer conv3
I1118 15:44:05.501899 20100 net.cpp:108] Creating Layer conv3
I1118 15:44:05.501904 20100 net.cpp:460] conv3 <- conv2_ReLU2_0_split_0
I1118 15:44:05.501909 20100 net.cpp:417] conv3 -> conv3
I1118 15:44:05.520638 20100 net.cpp:154] Setting up conv3
I1118 15:44:05.520658 20100 net.cpp:161] Top shape: 4 256 48 64 (3145728)
I1118 15:44:05.520661 20100 net.cpp:169] Memory required for data: 314572800
I1118 15:44:05.520671 20100 layer_factory.hpp:76] Creating layer ReLU3
I1118 15:44:05.520680 20100 net.cpp:108] Creating Layer ReLU3
I1118 15:44:05.520686 20100 net.cpp:460] ReLU3 <- conv3
I1118 15:44:05.520690 20100 net.cpp:403] ReLU3 -> conv3 (in-place)
I1118 15:44:05.521076 20100 net.cpp:154] Setting up ReLU3
I1118 15:44:05.521088 20100 net.cpp:161] Top shape: 4 256 48 64 (3145728)
I1118 15:44:05.521091 20100 net.cpp:169] Memory required for data: 327155712
I1118 15:44:05.521095 20100 layer_factory.hpp:76] Creating layer conv3_1
I1118 15:44:05.521108 20100 net.cpp:108] Creating Layer conv3_1
I1118 15:44:05.521113 20100 net.cpp:460] conv3_1 <- conv3
I1118 15:44:05.521119 20100 net.cpp:417] conv3_1 -> conv3_1
I1118 15:44:05.535259 20100 net.cpp:154] Setting up conv3_1
I1118 15:44:05.535282 20100 net.cpp:161] Top shape: 4 256 48 64 (3145728)
I1118 15:44:05.535285 20100 net.cpp:169] Memory required for data: 339738624
I1118 15:44:05.535293 20100 layer_factory.hpp:76] Creating layer ReLU4
I1118 15:44:05.535307 20100 net.cpp:108] Creating Layer ReLU4
I1118 15:44:05.535312 20100 net.cpp:460] ReLU4 <- conv3_1
I1118 15:44:05.535317 20100 net.cpp:403] ReLU4 -> conv3_1 (in-place)
I1118 15:44:05.535460 20100 net.cpp:154] Setting up ReLU4
I1118 15:44:05.535468 20100 net.cpp:161] Top shape: 4 256 48 64 (3145728)
I1118 15:44:05.535471 20100 net.cpp:169] Memory required for data: 352321536
I1118 15:44:05.535475 20100 layer_factory.hpp:76] Creating layer conv3_1_ReLU4_0_split
I1118 15:44:05.535480 20100 net.cpp:108] Creating Layer conv3_1_ReLU4_0_split
I1118 15:44:05.535496 20100 net.cpp:460] conv3_1_ReLU4_0_split <- conv3_1
I1118 15:44:05.535501 20100 net.cpp:417] conv3_1_ReLU4_0_split -> conv3_1_ReLU4_0_split_0
I1118 15:44:05.535506 20100 net.cpp:417] conv3_1_ReLU4_0_split -> conv3_1_ReLU4_0_split_1
I1118 15:44:05.535538 20100 net.cpp:154] Setting up conv3_1_ReLU4_0_split
I1118 15:44:05.535544 20100 net.cpp:161] Top shape: 4 256 48 64 (3145728)
I1118 15:44:05.535547 20100 net.cpp:161] Top shape: 4 256 48 64 (3145728)
I1118 15:44:05.535549 20100 net.cpp:169] Memory required for data: 377487360
I1118 15:44:05.535552 20100 layer_factory.hpp:76] Creating layer conv4
I1118 15:44:05.535562 20100 net.cpp:108] Creating Layer conv4
I1118 15:44:05.535565 20100 net.cpp:460] conv4 <- conv3_1_ReLU4_0_split_0
I1118 15:44:05.535574 20100 net.cpp:417] conv4 -> conv4
I1118 15:44:05.562408 20100 net.cpp:154] Setting up conv4
I1118 15:44:05.562425 20100 net.cpp:161] Top shape: 4 512 24 32 (1572864)
I1118 15:44:05.562428 20100 net.cpp:169] Memory required for data: 383778816
I1118 15:44:05.562440 20100 layer_factory.hpp:76] Creating layer ReLU5
I1118 15:44:05.562448 20100 net.cpp:108] Creating Layer ReLU5
I1118 15:44:05.562451 20100 net.cpp:460] ReLU5 <- conv4
I1118 15:44:05.562456 20100 net.cpp:403] ReLU5 -> conv4 (in-place)
I1118 15:44:05.562600 20100 net.cpp:154] Setting up ReLU5
I1118 15:44:05.562608 20100 net.cpp:161] Top shape: 4 512 24 32 (1572864)
I1118 15:44:05.562611 20100 net.cpp:169] Memory required for data: 390070272
I1118 15:44:05.562616 20100 layer_factory.hpp:76] Creating layer conv4_1
I1118 15:44:05.562626 20100 net.cpp:108] Creating Layer conv4_1
I1118 15:44:05.562630 20100 net.cpp:460] conv4_1 <- conv4
I1118 15:44:05.562638 20100 net.cpp:417] conv4_1 -> conv4_1
I1118 15:44:05.614116 20100 net.cpp:154] Setting up conv4_1
I1118 15:44:05.614143 20100 net.cpp:161] Top shape: 4 512 24 32 (1572864)
I1118 15:44:05.614147 20100 net.cpp:169] Memory required for data: 396361728
I1118 15:44:05.614158 20100 layer_factory.hpp:76] Creating layer ReLU6
I1118 15:44:05.614171 20100 net.cpp:108] Creating Layer ReLU6
I1118 15:44:05.614178 20100 net.cpp:460] ReLU6 <- conv4_1
I1118 15:44:05.614189 20100 net.cpp:403] ReLU6 -> conv4_1 (in-place)
I1118 15:44:05.614331 20100 net.cpp:154] Setting up ReLU6
I1118 15:44:05.614341 20100 net.cpp:161] Top shape: 4 512 24 32 (1572864)
I1118 15:44:05.614346 20100 net.cpp:169] Memory required for data: 402653184
I1118 15:44:05.614351 20100 layer_factory.hpp:76] Creating layer conv4_1_ReLU6_0_split
I1118 15:44:05.614357 20100 net.cpp:108] Creating Layer conv4_1_ReLU6_0_split
I1118 15:44:05.614364 20100 net.cpp:460] conv4_1_ReLU6_0_split <- conv4_1
I1118 15:44:05.614372 20100 net.cpp:417] conv4_1_ReLU6_0_split -> conv4_1_ReLU6_0_split_0
I1118 15:44:05.614382 20100 net.cpp:417] conv4_1_ReLU6_0_split -> conv4_1_ReLU6_0_split_1
I1118 15:44:05.614423 20100 net.cpp:154] Setting up conv4_1_ReLU6_0_split
I1118 15:44:05.614429 20100 net.cpp:161] Top shape: 4 512 24 32 (1572864)
I1118 15:44:05.614434 20100 net.cpp:161] Top shape: 4 512 24 32 (1572864)
I1118 15:44:05.614439 20100 net.cpp:169] Memory required for data: 415236096
I1118 15:44:05.614444 20100 layer_factory.hpp:76] Creating layer conv5
I1118 15:44:05.614455 20100 net.cpp:108] Creating Layer conv5
I1118 15:44:05.614460 20100 net.cpp:460] conv5 <- conv4_1_ReLU6_0_split_0
I1118 15:44:05.614469 20100 net.cpp:417] conv5 -> conv5
I1118 15:44:05.664134 20100 net.cpp:154] Setting up conv5
I1118 15:44:05.664160 20100 net.cpp:161] Top shape: 4 512 12 16 (393216)
I1118 15:44:05.664166 20100 net.cpp:169] Memory required for data: 416808960
I1118 15:44:05.664176 20100 layer_factory.hpp:76] Creating layer ReLU7
I1118 15:44:05.664188 20100 net.cpp:108] Creating Layer ReLU7
I1118 15:44:05.664194 20100 net.cpp:460] ReLU7 <- conv5
I1118 15:44:05.664204 20100 net.cpp:403] ReLU7 -> conv5 (in-place)
I1118 15:44:05.664337 20100 net.cpp:154] Setting up ReLU7
I1118 15:44:05.664347 20100 net.cpp:161] Top shape: 4 512 12 16 (393216)
I1118 15:44:05.664352 20100 net.cpp:169] Memory required for data: 418381824
I1118 15:44:05.664371 20100 layer_factory.hpp:76] Creating layer conv5_1
I1118 15:44:05.664384 20100 net.cpp:108] Creating Layer conv5_1
I1118 15:44:05.664391 20100 net.cpp:460] conv5_1 <- conv5
I1118 15:44:05.664397 20100 net.cpp:417] conv5_1 -> conv5_1
I1118 15:44:05.718204 20100 net.cpp:154] Setting up conv5_1
I1118 15:44:05.718230 20100 net.cpp:161] Top shape: 4 512 12 16 (393216)
I1118 15:44:05.718235 20100 net.cpp:169] Memory required for data: 419954688
I1118 15:44:05.718245 20100 layer_factory.hpp:76] Creating layer ReLU8
I1118 15:44:05.718257 20100 net.cpp:108] Creating Layer ReLU8
I1118 15:44:05.718263 20100 net.cpp:460] ReLU8 <- conv5_1
I1118 15:44:05.718273 20100 net.cpp:403] ReLU8 -> conv5_1 (in-place)
I1118 15:44:05.718653 20100 net.cpp:154] Setting up ReLU8
I1118 15:44:05.718665 20100 net.cpp:161] Top shape: 4 512 12 16 (393216)
I1118 15:44:05.718668 20100 net.cpp:169] Memory required for data: 421527552
I1118 15:44:05.718670 20100 layer_factory.hpp:76] Creating layer conv5_1_ReLU8_0_split
I1118 15:44:05.718677 20100 net.cpp:108] Creating Layer conv5_1_ReLU8_0_split
I1118 15:44:05.718680 20100 net.cpp:460] conv5_1_ReLU8_0_split <- conv5_1
I1118 15:44:05.718684 20100 net.cpp:417] conv5_1_ReLU8_0_split -> conv5_1_ReLU8_0_split_0
I1118 15:44:05.718689 20100 net.cpp:417] conv5_1_ReLU8_0_split -> conv5_1_ReLU8_0_split_1
I1118 15:44:05.718729 20100 net.cpp:154] Setting up conv5_1_ReLU8_0_split
I1118 15:44:05.718736 20100 net.cpp:161] Top shape: 4 512 12 16 (393216)
I1118 15:44:05.718740 20100 net.cpp:161] Top shape: 4 512 12 16 (393216)
I1118 15:44:05.718745 20100 net.cpp:169] Memory required for data: 424673280
I1118 15:44:05.718749 20100 layer_factory.hpp:76] Creating layer conv6
I1118 15:44:05.718758 20100 net.cpp:108] Creating Layer conv6
I1118 15:44:05.718763 20100 net.cpp:460] conv6 <- conv5_1_ReLU8_0_split_0
I1118 15:44:05.718770 20100 net.cpp:417] conv6 -> conv6
I1118 15:44:05.816752 20100 net.cpp:154] Setting up conv6
I1118 15:44:05.816778 20100 net.cpp:161] Top shape: 4 1024 6 8 (196608)
I1118 15:44:05.816781 20100 net.cpp:169] Memory required for data: 425459712
I1118 15:44:05.816794 20100 layer_factory.hpp:76] Creating layer ReLU9
I1118 15:44:05.816805 20100 net.cpp:108] Creating Layer ReLU9
I1118 15:44:05.816810 20100 net.cpp:460] ReLU9 <- conv6
I1118 15:44:05.816817 20100 net.cpp:403] ReLU9 -> conv6 (in-place)
I1118 15:44:05.817281 20100 net.cpp:154] Setting up ReLU9
I1118 15:44:05.817293 20100 net.cpp:161] Top shape: 4 1024 6 8 (196608)
I1118 15:44:05.817296 20100 net.cpp:169] Memory required for data: 426246144
I1118 15:44:05.817298 20100 layer_factory.hpp:76] Creating layer conv6_1
I1118 15:44:05.817308 20100 net.cpp:108] Creating Layer conv6_1
I1118 15:44:05.817312 20100 net.cpp:460] conv6_1 <- conv6
I1118 15:44:05.817317 20100 net.cpp:417] conv6_1 -> conv6_1
I1118 15:44:06.017346 20100 net.cpp:154] Setting up conv6_1
I1118 15:44:06.017370 20100 net.cpp:161] Top shape: 4 1024 6 8 (196608)
I1118 15:44:06.017374 20100 net.cpp:169] Memory required for data: 427032576
I1118 15:44:06.017381 20100 layer_factory.hpp:76] Creating layer ReLU10
I1118 15:44:06.017391 20100 net.cpp:108] Creating Layer ReLU10
I1118 15:44:06.017397 20100 net.cpp:460] ReLU10 <- conv6_1
I1118 15:44:06.017402 20100 net.cpp:403] ReLU10 -> conv6_1 (in-place)
I1118 15:44:06.017536 20100 net.cpp:154] Setting up ReLU10
I1118 15:44:06.017545 20100 net.cpp:161] Top shape: 4 1024 6 8 (196608)
I1118 15:44:06.017549 20100 net.cpp:169] Memory required for data: 427819008
I1118 15:44:06.017552 20100 layer_factory.hpp:76] Creating layer conv6_2
I1118 15:44:06.017565 20100 net.cpp:108] Creating Layer conv6_2
I1118 15:44:06.017570 20100 net.cpp:460] conv6_2 <- conv6_1
I1118 15:44:06.017577 20100 net.cpp:417] conv6_2 -> conv6_2
I1118 15:44:06.040069 20100 net.cpp:154] Setting up conv6_2
I1118 15:44:06.040091 20100 net.cpp:161] Top shape: 4 1024 6 8 (196608)
I1118 15:44:06.040093 20100 net.cpp:169] Memory required for data: 428605440
I1118 15:44:06.040101 20100 layer_factory.hpp:76] Creating layer ReLU11
I1118 15:44:06.040109 20100 net.cpp:108] Creating Layer ReLU11
I1118 15:44:06.040127 20100 net.cpp:460] ReLU11 <- conv6_2
I1118 15:44:06.040133 20100 net.cpp:403] ReLU11 -> conv6_2 (in-place)
I1118 15:44:06.040263 20100 net.cpp:154] Setting up ReLU11
I1118 15:44:06.040271 20100 net.cpp:161] Top shape: 4 1024 6 8 (196608)
I1118 15:44:06.040273 20100 net.cpp:169] Memory required for data: 429391872
I1118 15:44:06.040277 20100 layer_factory.hpp:76] Creating layer conv6_2_ReLU11_0_split
I1118 15:44:06.040282 20100 net.cpp:108] Creating Layer conv6_2_ReLU11_0_split
I1118 15:44:06.040285 20100 net.cpp:460] conv6_2_ReLU11_0_split <- conv6_2
I1118 15:44:06.040290 20100 net.cpp:417] conv6_2_ReLU11_0_split -> conv6_2_ReLU11_0_split_0
I1118 15:44:06.040295 20100 net.cpp:417] conv6_2_ReLU11_0_split -> conv6_2_ReLU11_0_split_1
I1118 15:44:06.040333 20100 net.cpp:154] Setting up conv6_2_ReLU11_0_split
I1118 15:44:06.040339 20100 net.cpp:161] Top shape: 4 1024 6 8 (196608)
I1118 15:44:06.040343 20100 net.cpp:161] Top shape: 4 1024 6 8 (196608)
I1118 15:44:06.040345 20100 net.cpp:169] Memory required for data: 430964736
I1118 15:44:06.040347 20100 layer_factory.hpp:76] Creating layer Convolution1
I1118 15:44:06.040356 20100 net.cpp:108] Creating Layer Convolution1
I1118 15:44:06.040362 20100 net.cpp:460] Convolution1 <- conv6_2_ReLU11_0_split_0
I1118 15:44:06.040366 20100 net.cpp:417] Convolution1 -> predict_flow6
I1118 15:44:06.041944 20100 net.cpp:154] Setting up Convolution1
I1118 15:44:06.041968 20100 net.cpp:161] Top shape: 4 2 6 8 (384)
I1118 15:44:06.041972 20100 net.cpp:169] Memory required for data: 430966272
I1118 15:44:06.041980 20100 layer_factory.hpp:76] Creating layer predict_flow6_Convolution1_0_split
I1118 15:44:06.041987 20100 net.cpp:108] Creating Layer predict_flow6_Convolution1_0_split
I1118 15:44:06.041991 20100 net.cpp:460] predict_flow6_Convolution1_0_split <- predict_flow6
I1118 15:44:06.041998 20100 net.cpp:417] predict_flow6_Convolution1_0_split -> predict_flow6_Convolution1_0_split_0
I1118 15:44:06.042006 20100 net.cpp:417] predict_flow6_Convolution1_0_split -> predict_flow6_Convolution1_0_split_1
I1118 15:44:06.042009 20100 net.cpp:417] predict_flow6_Convolution1_0_split -> predict_flow6_Convolution1_0_split_2
I1118 15:44:06.042062 20100 net.cpp:154] Setting up predict_flow6_Convolution1_0_split
I1118 15:44:06.042068 20100 net.cpp:161] Top shape: 4 2 6 8 (384)
I1118 15:44:06.042073 20100 net.cpp:161] Top shape: 4 2 6 8 (384)
I1118 15:44:06.042076 20100 net.cpp:161] Top shape: 4 2 6 8 (384)
I1118 15:44:06.042078 20100 net.cpp:169] Memory required for data: 430970880
I1118 15:44:06.042081 20100 layer_factory.hpp:76] Creating layer Downsample1
I1118 15:44:06.042086 20100 net.cpp:108] Creating Layer Downsample1
I1118 15:44:06.042090 20100 net.cpp:460] Downsample1 <- scaled_flow_gt_Eltwise3_0_split_0
I1118 15:44:06.042093 20100 net.cpp:460] Downsample1 <- predict_flow6_Convolution1_0_split_0
I1118 15:44:06.042098 20100 net.cpp:417] Downsample1 -> blob24
I1118 15:44:06.042116 20100 net.cpp:154] Setting up Downsample1
I1118 15:44:06.042121 20100 net.cpp:161] Top shape: 4 2 6 8 (384)
I1118 15:44:06.042124 20100 net.cpp:169] Memory required for data: 430972416
W1118 15:44:06.042129 20100 vision_layers.hpp:445] DownsampleLayer does not do backward.
I1118 15:44:06.054569 20100 layer_factory.hpp:76] Creating layer flow_loss6
I1118 15:44:06.054599 20100 net.cpp:108] Creating Layer flow_loss6
I1118 15:44:06.054607 20100 net.cpp:460] flow_loss6 <- predict_flow6_Convolution1_0_split_1
I1118 15:44:06.054621 20100 net.cpp:460] flow_loss6 <- blob24
I1118 15:44:06.054631 20100 net.cpp:417] flow_loss6 -> flow_loss6
I1118 15:44:06.054991 20100 net.cpp:154] Setting up flow_loss6
I1118 15:44:06.055001 20100 net.cpp:161] Top shape: (1)
I1118 15:44:06.055002 20100 net.cpp:164]     with loss weight 0.32
I1118 15:44:06.055018 20100 net.cpp:169] Memory required for data: 430972420
I1118 15:44:06.055022 20100 layer_factory.hpp:76] Creating layer deconv5
I1118 15:44:06.055030 20100 net.cpp:108] Creating Layer deconv5
I1118 15:44:06.055033 20100 net.cpp:460] deconv5 <- conv6_2_ReLU11_0_split_1
I1118 15:44:06.055048 20100 net.cpp:417] deconv5 -> deconv5
I1118 15:44:06.233480 20100 net.cpp:154] Setting up deconv5
I1118 15:44:06.233530 20100 net.cpp:161] Top shape: 4 512 12 16 (393216)
I1118 15:44:06.233536 20100 net.cpp:169] Memory required for data: 432545284
I1118 15:44:06.233546 20100 layer_factory.hpp:76] Creating layer ReLU12
I1118 15:44:06.233559 20100 net.cpp:108] Creating Layer ReLU12
I1118 15:44:06.233566 20100 net.cpp:460] ReLU12 <- deconv5
I1118 15:44:06.233574 20100 net.cpp:403] ReLU12 -> deconv5 (in-place)
I1118 15:44:06.233842 20100 net.cpp:154] Setting up ReLU12
I1118 15:44:06.233855 20100 net.cpp:161] Top shape: 4 512 12 16 (393216)
I1118 15:44:06.233858 20100 net.cpp:169] Memory required for data: 434118148
I1118 15:44:06.233863 20100 layer_factory.hpp:76] Creating layer conv5_2
I1118 15:44:06.233877 20100 net.cpp:108] Creating Layer conv5_2
I1118 15:44:06.233886 20100 net.cpp:460] conv5_2 <- conv5_1_ReLU8_0_split_1
I1118 15:44:06.233896 20100 net.cpp:417] conv5_2 -> conv5_2
I1118 15:44:06.293246 20100 net.cpp:154] Setting up conv5_2
I1118 15:44:06.293272 20100 net.cpp:161] Top shape: 4 512 12 16 (393216)
I1118 15:44:06.293275 20100 net.cpp:169] Memory required for data: 435691012
I1118 15:44:06.293282 20100 layer_factory.hpp:76] Creating layer ReLU13
I1118 15:44:06.293292 20100 net.cpp:108] Creating Layer ReLU13
I1118 15:44:06.293296 20100 net.cpp:460] ReLU13 <- conv5_2
I1118 15:44:06.293303 20100 net.cpp:403] ReLU13 -> conv5_2 (in-place)
I1118 15:44:06.293445 20100 net.cpp:154] Setting up ReLU13
I1118 15:44:06.293455 20100 net.cpp:161] Top shape: 4 512 12 16 (393216)
I1118 15:44:06.293460 20100 net.cpp:169] Memory required for data: 437263876
I1118 15:44:06.293464 20100 layer_factory.hpp:76] Creating layer upsample_flow6to5
I1118 15:44:06.293478 20100 net.cpp:108] Creating Layer upsample_flow6to5
I1118 15:44:06.293483 20100 net.cpp:460] upsample_flow6to5 <- predict_flow6_Convolution1_0_split_2
I1118 15:44:06.293493 20100 net.cpp:417] upsample_flow6to5 -> upsampled_flow6_to_5
I1118 15:44:06.293673 20100 net.cpp:154] Setting up upsample_flow6to5
I1118 15:44:06.293681 20100 net.cpp:161] Top shape: 4 2 12 16 (1536)
I1118 15:44:06.293685 20100 net.cpp:169] Memory required for data: 437270020
I1118 15:44:06.293694 20100 layer_factory.hpp:76] Creating layer Concat5
I1118 15:44:06.293702 20100 net.cpp:108] Creating Layer Concat5
I1118 15:44:06.293707 20100 net.cpp:460] Concat5 <- conv5_2
I1118 15:44:06.293714 20100 net.cpp:460] Concat5 <- deconv5
I1118 15:44:06.293720 20100 net.cpp:460] Concat5 <- upsampled_flow6_to_5
I1118 15:44:06.293728 20100 net.cpp:417] Concat5 -> concat5
I1118 15:44:06.293753 20100 net.cpp:154] Setting up Concat5
I1118 15:44:06.293761 20100 net.cpp:161] Top shape: 4 1026 12 16 (787968)
I1118 15:44:06.293764 20100 net.cpp:169] Memory required for data: 440421892
I1118 15:44:06.293768 20100 layer_factory.hpp:76] Creating layer concat5_Concat5_0_split
I1118 15:44:06.293776 20100 net.cpp:108] Creating Layer concat5_Concat5_0_split
I1118 15:44:06.293779 20100 net.cpp:460] concat5_Concat5_0_split <- concat5
I1118 15:44:06.293786 20100 net.cpp:417] concat5_Concat5_0_split -> concat5_Concat5_0_split_0
I1118 15:44:06.293793 20100 net.cpp:417] concat5_Concat5_0_split -> concat5_Concat5_0_split_1
I1118 15:44:06.293826 20100 net.cpp:154] Setting up concat5_Concat5_0_split
I1118 15:44:06.293833 20100 net.cpp:161] Top shape: 4 1026 12 16 (787968)
I1118 15:44:06.293838 20100 net.cpp:161] Top shape: 4 1026 12 16 (787968)
I1118 15:44:06.293843 20100 net.cpp:169] Memory required for data: 446725636
I1118 15:44:06.293846 20100 layer_factory.hpp:76] Creating layer Convolution2
I1118 15:44:06.293856 20100 net.cpp:108] Creating Layer Convolution2
I1118 15:44:06.293861 20100 net.cpp:460] Convolution2 <- concat5_Concat5_0_split_0
I1118 15:44:06.293869 20100 net.cpp:417] Convolution2 -> predict_flow5
I1118 15:44:06.295310 20100 net.cpp:154] Setting up Convolution2
I1118 15:44:06.295322 20100 net.cpp:161] Top shape: 4 2 12 16 (1536)
I1118 15:44:06.295327 20100 net.cpp:169] Memory required for data: 446731780
I1118 15:44:06.295351 20100 layer_factory.hpp:76] Creating layer predict_flow5_Convolution2_0_split
I1118 15:44:06.295359 20100 net.cpp:108] Creating Layer predict_flow5_Convolution2_0_split
I1118 15:44:06.295366 20100 net.cpp:460] predict_flow5_Convolution2_0_split <- predict_flow5
I1118 15:44:06.295372 20100 net.cpp:417] predict_flow5_Convolution2_0_split -> predict_flow5_Convolution2_0_split_0
I1118 15:44:06.295385 20100 net.cpp:417] predict_flow5_Convolution2_0_split -> predict_flow5_Convolution2_0_split_1
I1118 15:44:06.295393 20100 net.cpp:417] predict_flow5_Convolution2_0_split -> predict_flow5_Convolution2_0_split_2
I1118 15:44:06.295442 20100 net.cpp:154] Setting up predict_flow5_Convolution2_0_split
I1118 15:44:06.295450 20100 net.cpp:161] Top shape: 4 2 12 16 (1536)
I1118 15:44:06.295455 20100 net.cpp:161] Top shape: 4 2 12 16 (1536)
I1118 15:44:06.295460 20100 net.cpp:161] Top shape: 4 2 12 16 (1536)
I1118 15:44:06.295464 20100 net.cpp:169] Memory required for data: 446750212
I1118 15:44:06.295469 20100 layer_factory.hpp:76] Creating layer Downsample2
I1118 15:44:06.295478 20100 net.cpp:108] Creating Layer Downsample2
I1118 15:44:06.295483 20100 net.cpp:460] Downsample2 <- scaled_flow_gt_Eltwise3_0_split_1
I1118 15:44:06.295490 20100 net.cpp:460] Downsample2 <- predict_flow5_Convolution2_0_split_0
I1118 15:44:06.295496 20100 net.cpp:417] Downsample2 -> blob29
I1118 15:44:06.295521 20100 net.cpp:154] Setting up Downsample2
I1118 15:44:06.295528 20100 net.cpp:161] Top shape: 4 2 12 16 (1536)
I1118 15:44:06.295532 20100 net.cpp:169] Memory required for data: 446756356
W1118 15:44:06.295536 20100 vision_layers.hpp:445] DownsampleLayer does not do backward.
I1118 15:44:06.295547 20100 layer_factory.hpp:76] Creating layer flow_loss5
I1118 15:44:06.295557 20100 net.cpp:108] Creating Layer flow_loss5
I1118 15:44:06.295562 20100 net.cpp:460] flow_loss5 <- predict_flow5_Convolution2_0_split_1
I1118 15:44:06.295567 20100 net.cpp:460] flow_loss5 <- blob29
I1118 15:44:06.295572 20100 net.cpp:417] flow_loss5 -> flow_loss5
I1118 15:44:06.295817 20100 net.cpp:154] Setting up flow_loss5
I1118 15:44:06.295826 20100 net.cpp:161] Top shape: (1)
I1118 15:44:06.295830 20100 net.cpp:164]     with loss weight 0.08
I1118 15:44:06.295843 20100 net.cpp:169] Memory required for data: 446756360
I1118 15:44:06.295848 20100 layer_factory.hpp:76] Creating layer Convolution2_1
I1118 15:44:06.295860 20100 net.cpp:108] Creating Layer Convolution2_1
I1118 15:44:06.295864 20100 net.cpp:460] Convolution2_1 <- concat5_Concat5_0_split_1
I1118 15:44:06.295872 20100 net.cpp:417] Convolution2_1 -> concat5_1
I1118 15:44:06.397517 20100 net.cpp:154] Setting up Convolution2_1
I1118 15:44:06.397542 20100 net.cpp:161] Top shape: 4 512 12 16 (393216)
I1118 15:44:06.397547 20100 net.cpp:169] Memory required for data: 448329224
I1118 15:44:06.397568 20100 layer_factory.hpp:76] Creating layer ReLU14
I1118 15:44:06.397603 20100 net.cpp:108] Creating Layer ReLU14
I1118 15:44:06.397614 20100 net.cpp:460] ReLU14 <- concat5_1
I1118 15:44:06.397624 20100 net.cpp:403] ReLU14 -> concat5_1 (in-place)
I1118 15:44:06.397769 20100 net.cpp:154] Setting up ReLU14
I1118 15:44:06.397778 20100 net.cpp:161] Top shape: 4 512 12 16 (393216)
I1118 15:44:06.397783 20100 net.cpp:169] Memory required for data: 449902088
I1118 15:44:06.397789 20100 layer_factory.hpp:76] Creating layer deconv4
I1118 15:44:06.397802 20100 net.cpp:108] Creating Layer deconv4
I1118 15:44:06.397809 20100 net.cpp:460] deconv4 <- concat5_1
I1118 15:44:06.397819 20100 net.cpp:417] deconv4 -> deconv4
I1118 15:44:06.442980 20100 net.cpp:154] Setting up deconv4
I1118 15:44:06.443004 20100 net.cpp:161] Top shape: 4 256 24 32 (786432)
I1118 15:44:06.443007 20100 net.cpp:169] Memory required for data: 453047816
I1118 15:44:06.443014 20100 layer_factory.hpp:76] Creating layer ReLU15
I1118 15:44:06.443024 20100 net.cpp:108] Creating Layer ReLU15
I1118 15:44:06.443030 20100 net.cpp:460] ReLU15 <- deconv4
I1118 15:44:06.443037 20100 net.cpp:403] ReLU15 -> deconv4 (in-place)
I1118 15:44:06.443579 20100 net.cpp:154] Setting up ReLU15
I1118 15:44:06.443591 20100 net.cpp:161] Top shape: 4 256 24 32 (786432)
I1118 15:44:06.443593 20100 net.cpp:169] Memory required for data: 456193544
I1118 15:44:06.443596 20100 layer_factory.hpp:76] Creating layer conv4_2
I1118 15:44:06.443606 20100 net.cpp:108] Creating Layer conv4_2
I1118 15:44:06.443611 20100 net.cpp:460] conv4_2 <- conv4_1_ReLU6_0_split_1
I1118 15:44:06.443619 20100 net.cpp:417] conv4_2 -> conv4_2
I1118 15:44:06.469343 20100 net.cpp:154] Setting up conv4_2
I1118 15:44:06.469364 20100 net.cpp:161] Top shape: 4 256 24 32 (786432)
I1118 15:44:06.469367 20100 net.cpp:169] Memory required for data: 459339272
I1118 15:44:06.469378 20100 layer_factory.hpp:76] Creating layer ReLU16
I1118 15:44:06.469386 20100 net.cpp:108] Creating Layer ReLU16
I1118 15:44:06.469391 20100 net.cpp:460] ReLU16 <- conv4_2
I1118 15:44:06.469398 20100 net.cpp:403] ReLU16 -> conv4_2 (in-place)
I1118 15:44:06.469538 20100 net.cpp:154] Setting up ReLU16
I1118 15:44:06.469547 20100 net.cpp:161] Top shape: 4 256 24 32 (786432)
I1118 15:44:06.469552 20100 net.cpp:169] Memory required for data: 462485000
I1118 15:44:06.469553 20100 layer_factory.hpp:76] Creating layer upsample_flow5to4
I1118 15:44:06.469561 20100 net.cpp:108] Creating Layer upsample_flow5to4
I1118 15:44:06.469566 20100 net.cpp:460] upsample_flow5to4 <- predict_flow5_Convolution2_0_split_2
I1118 15:44:06.469573 20100 net.cpp:417] upsample_flow5to4 -> upsampled_flow5_to_4
I1118 15:44:06.469756 20100 net.cpp:154] Setting up upsample_flow5to4
I1118 15:44:06.469764 20100 net.cpp:161] Top shape: 4 2 24 32 (6144)
I1118 15:44:06.469766 20100 net.cpp:169] Memory required for data: 462509576
I1118 15:44:06.469770 20100 layer_factory.hpp:76] Creating layer Concat4
I1118 15:44:06.469776 20100 net.cpp:108] Creating Layer Concat4
I1118 15:44:06.469779 20100 net.cpp:460] Concat4 <- conv4_2
I1118 15:44:06.469784 20100 net.cpp:460] Concat4 <- deconv4
I1118 15:44:06.469787 20100 net.cpp:460] Concat4 <- upsampled_flow5_to_4
I1118 15:44:06.469792 20100 net.cpp:417] Concat4 -> concat4
I1118 15:44:06.469813 20100 net.cpp:154] Setting up Concat4
I1118 15:44:06.469817 20100 net.cpp:161] Top shape: 4 514 24 32 (1579008)
I1118 15:44:06.469820 20100 net.cpp:169] Memory required for data: 468825608
I1118 15:44:06.469822 20100 layer_factory.hpp:76] Creating layer concat4_Concat4_0_split
I1118 15:44:06.469827 20100 net.cpp:108] Creating Layer concat4_Concat4_0_split
I1118 15:44:06.469830 20100 net.cpp:460] concat4_Concat4_0_split <- concat4
I1118 15:44:06.469833 20100 net.cpp:417] concat4_Concat4_0_split -> concat4_Concat4_0_split_0
I1118 15:44:06.469838 20100 net.cpp:417] concat4_Concat4_0_split -> concat4_Concat4_0_split_1
I1118 15:44:06.469866 20100 net.cpp:154] Setting up concat4_Concat4_0_split
I1118 15:44:06.469871 20100 net.cpp:161] Top shape: 4 514 24 32 (1579008)
I1118 15:44:06.469874 20100 net.cpp:161] Top shape: 4 514 24 32 (1579008)
I1118 15:44:06.469877 20100 net.cpp:169] Memory required for data: 481457672
I1118 15:44:06.469878 20100 layer_factory.hpp:76] Creating layer Convolution3
I1118 15:44:06.469887 20100 net.cpp:108] Creating Layer Convolution3
I1118 15:44:06.469890 20100 net.cpp:460] Convolution3 <- concat4_Concat4_0_split_0
I1118 15:44:06.469894 20100 net.cpp:417] Convolution3 -> predict_flow4
I1118 15:44:06.471804 20100 net.cpp:154] Setting up Convolution3
I1118 15:44:06.471819 20100 net.cpp:161] Top shape: 4 2 24 32 (6144)
I1118 15:44:06.471823 20100 net.cpp:169] Memory required for data: 481482248
I1118 15:44:06.471829 20100 layer_factory.hpp:76] Creating layer predict_flow4_Convolution3_0_split
I1118 15:44:06.471837 20100 net.cpp:108] Creating Layer predict_flow4_Convolution3_0_split
I1118 15:44:06.471840 20100 net.cpp:460] predict_flow4_Convolution3_0_split <- predict_flow4
I1118 15:44:06.471844 20100 net.cpp:417] predict_flow4_Convolution3_0_split -> predict_flow4_Convolution3_0_split_0
I1118 15:44:06.471853 20100 net.cpp:417] predict_flow4_Convolution3_0_split -> predict_flow4_Convolution3_0_split_1
I1118 15:44:06.471858 20100 net.cpp:417] predict_flow4_Convolution3_0_split -> predict_flow4_Convolution3_0_split_2
I1118 15:44:06.471916 20100 net.cpp:154] Setting up predict_flow4_Convolution3_0_split
I1118 15:44:06.471922 20100 net.cpp:161] Top shape: 4 2 24 32 (6144)
I1118 15:44:06.471925 20100 net.cpp:161] Top shape: 4 2 24 32 (6144)
I1118 15:44:06.471928 20100 net.cpp:161] Top shape: 4 2 24 32 (6144)
I1118 15:44:06.471930 20100 net.cpp:169] Memory required for data: 481555976
I1118 15:44:06.471933 20100 layer_factory.hpp:76] Creating layer Downsample3
I1118 15:44:06.471938 20100 net.cpp:108] Creating Layer Downsample3
I1118 15:44:06.471942 20100 net.cpp:460] Downsample3 <- scaled_flow_gt_Eltwise3_0_split_2
I1118 15:44:06.471946 20100 net.cpp:460] Downsample3 <- predict_flow4_Convolution3_0_split_0
I1118 15:44:06.471949 20100 net.cpp:417] Downsample3 -> blob34
I1118 15:44:06.471968 20100 net.cpp:154] Setting up Downsample3
I1118 15:44:06.471973 20100 net.cpp:161] Top shape: 4 2 24 32 (6144)
I1118 15:44:06.471976 20100 net.cpp:169] Memory required for data: 481580552
W1118 15:44:06.471978 20100 vision_layers.hpp:445] DownsampleLayer does not do backward.
I1118 15:44:06.471985 20100 layer_factory.hpp:76] Creating layer flow_loss4
I1118 15:44:06.471997 20100 net.cpp:108] Creating Layer flow_loss4
I1118 15:44:06.472000 20100 net.cpp:460] flow_loss4 <- predict_flow4_Convolution3_0_split_1
I1118 15:44:06.472003 20100 net.cpp:460] flow_loss4 <- blob34
I1118 15:44:06.472007 20100 net.cpp:417] flow_loss4 -> flow_loss4
I1118 15:44:06.472264 20100 net.cpp:154] Setting up flow_loss4
I1118 15:44:06.472271 20100 net.cpp:161] Top shape: (1)
I1118 15:44:06.472275 20100 net.cpp:164]     with loss weight 0.02
I1118 15:44:06.472285 20100 net.cpp:169] Memory required for data: 481580556
I1118 15:44:06.472287 20100 layer_factory.hpp:76] Creating layer Convolution3_1
I1118 15:44:06.472295 20100 net.cpp:108] Creating Layer Convolution3_1
I1118 15:44:06.472298 20100 net.cpp:460] Convolution3_1 <- concat4_Concat4_0_split_1
I1118 15:44:06.472304 20100 net.cpp:417] Convolution3_1 -> concat4_1
I1118 15:44:06.498425 20100 net.cpp:154] Setting up Convolution3_1
I1118 15:44:06.498450 20100 net.cpp:161] Top shape: 4 256 24 32 (786432)
I1118 15:44:06.498453 20100 net.cpp:169] Memory required for data: 484726284
I1118 15:44:06.498461 20100 layer_factory.hpp:76] Creating layer ReLU17
I1118 15:44:06.498477 20100 net.cpp:108] Creating Layer ReLU17
I1118 15:44:06.498483 20100 net.cpp:460] ReLU17 <- concat4_1
I1118 15:44:06.498489 20100 net.cpp:403] ReLU17 -> concat4_1 (in-place)
I1118 15:44:06.498630 20100 net.cpp:154] Setting up ReLU17
I1118 15:44:06.498637 20100 net.cpp:161] Top shape: 4 256 24 32 (786432)
I1118 15:44:06.498639 20100 net.cpp:169] Memory required for data: 487872012
I1118 15:44:06.498642 20100 layer_factory.hpp:76] Creating layer deconv3
I1118 15:44:06.498651 20100 net.cpp:108] Creating Layer deconv3
I1118 15:44:06.498654 20100 net.cpp:460] deconv3 <- concat4_1
I1118 15:44:06.498661 20100 net.cpp:417] deconv3 -> deconv3
I1118 15:44:06.510167 20100 net.cpp:154] Setting up deconv3
I1118 15:44:06.510195 20100 net.cpp:161] Top shape: 4 128 48 64 (1572864)
I1118 15:44:06.510198 20100 net.cpp:169] Memory required for data: 494163468
I1118 15:44:06.510206 20100 layer_factory.hpp:76] Creating layer ReLU18
I1118 15:44:06.510216 20100 net.cpp:108] Creating Layer ReLU18
I1118 15:44:06.510221 20100 net.cpp:460] ReLU18 <- deconv3
I1118 15:44:06.510226 20100 net.cpp:403] ReLU18 -> deconv3 (in-place)
I1118 15:44:06.510437 20100 net.cpp:154] Setting up ReLU18
I1118 15:44:06.510447 20100 net.cpp:161] Top shape: 4 128 48 64 (1572864)
I1118 15:44:06.510450 20100 net.cpp:169] Memory required for data: 500454924
I1118 15:44:06.510452 20100 layer_factory.hpp:76] Creating layer conv3_2
I1118 15:44:06.510462 20100 net.cpp:108] Creating Layer conv3_2
I1118 15:44:06.510469 20100 net.cpp:460] conv3_2 <- conv3_1_ReLU4_0_split_1
I1118 15:44:06.510478 20100 net.cpp:417] conv3_2 -> conv3_2
I1118 15:44:06.517966 20100 net.cpp:154] Setting up conv3_2
I1118 15:44:06.517994 20100 net.cpp:161] Top shape: 4 128 48 64 (1572864)
I1118 15:44:06.518021 20100 net.cpp:169] Memory required for data: 506746380
I1118 15:44:06.518034 20100 layer_factory.hpp:76] Creating layer ReLU19
I1118 15:44:06.518054 20100 net.cpp:108] Creating Layer ReLU19
I1118 15:44:06.518062 20100 net.cpp:460] ReLU19 <- conv3_2
I1118 15:44:06.518071 20100 net.cpp:403] ReLU19 -> conv3_2 (in-place)
I1118 15:44:06.518227 20100 net.cpp:154] Setting up ReLU19
I1118 15:44:06.518236 20100 net.cpp:161] Top shape: 4 128 48 64 (1572864)
I1118 15:44:06.518239 20100 net.cpp:169] Memory required for data: 513037836
I1118 15:44:06.518244 20100 layer_factory.hpp:76] Creating layer upsample_flow4to3
I1118 15:44:06.518256 20100 net.cpp:108] Creating Layer upsample_flow4to3
I1118 15:44:06.518265 20100 net.cpp:460] upsample_flow4to3 <- predict_flow4_Convolution3_0_split_2
I1118 15:44:06.518275 20100 net.cpp:417] upsample_flow4to3 -> upsampled_flow4_to_3
I1118 15:44:06.518494 20100 net.cpp:154] Setting up upsample_flow4to3
I1118 15:44:06.518503 20100 net.cpp:161] Top shape: 4 2 48 64 (24576)
I1118 15:44:06.518507 20100 net.cpp:169] Memory required for data: 513136140
I1118 15:44:06.518512 20100 layer_factory.hpp:76] Creating layer Concat3
I1118 15:44:06.518518 20100 net.cpp:108] Creating Layer Concat3
I1118 15:44:06.518524 20100 net.cpp:460] Concat3 <- conv3_2
I1118 15:44:06.518530 20100 net.cpp:460] Concat3 <- deconv3
I1118 15:44:06.518535 20100 net.cpp:460] Concat3 <- upsampled_flow4_to_3
I1118 15:44:06.518543 20100 net.cpp:417] Concat3 -> concat3
I1118 15:44:06.518575 20100 net.cpp:154] Setting up Concat3
I1118 15:44:06.518581 20100 net.cpp:161] Top shape: 4 258 48 64 (3170304)
I1118 15:44:06.518584 20100 net.cpp:169] Memory required for data: 525817356
I1118 15:44:06.518586 20100 layer_factory.hpp:76] Creating layer concat3_Concat3_0_split
I1118 15:44:06.518592 20100 net.cpp:108] Creating Layer concat3_Concat3_0_split
I1118 15:44:06.518596 20100 net.cpp:460] concat3_Concat3_0_split <- concat3
I1118 15:44:06.518604 20100 net.cpp:417] concat3_Concat3_0_split -> concat3_Concat3_0_split_0
I1118 15:44:06.518612 20100 net.cpp:417] concat3_Concat3_0_split -> concat3_Concat3_0_split_1
I1118 15:44:06.518649 20100 net.cpp:154] Setting up concat3_Concat3_0_split
I1118 15:44:06.518656 20100 net.cpp:161] Top shape: 4 258 48 64 (3170304)
I1118 15:44:06.518661 20100 net.cpp:161] Top shape: 4 258 48 64 (3170304)
I1118 15:44:06.518667 20100 net.cpp:169] Memory required for data: 551179788
I1118 15:44:06.518671 20100 layer_factory.hpp:76] Creating layer Convolution4
I1118 15:44:06.518681 20100 net.cpp:108] Creating Layer Convolution4
I1118 15:44:06.518685 20100 net.cpp:460] Convolution4 <- concat3_Concat3_0_split_0
I1118 15:44:06.518694 20100 net.cpp:417] Convolution4 -> predict_flow3
I1118 15:44:06.519706 20100 net.cpp:154] Setting up Convolution4
I1118 15:44:06.519719 20100 net.cpp:161] Top shape: 4 2 48 64 (24576)
I1118 15:44:06.519723 20100 net.cpp:169] Memory required for data: 551278092
I1118 15:44:06.519728 20100 layer_factory.hpp:76] Creating layer predict_flow3_Convolution4_0_split
I1118 15:44:06.519737 20100 net.cpp:108] Creating Layer predict_flow3_Convolution4_0_split
I1118 15:44:06.519743 20100 net.cpp:460] predict_flow3_Convolution4_0_split <- predict_flow3
I1118 15:44:06.519750 20100 net.cpp:417] predict_flow3_Convolution4_0_split -> predict_flow3_Convolution4_0_split_0
I1118 15:44:06.519760 20100 net.cpp:417] predict_flow3_Convolution4_0_split -> predict_flow3_Convolution4_0_split_1
I1118 15:44:06.519770 20100 net.cpp:417] predict_flow3_Convolution4_0_split -> predict_flow3_Convolution4_0_split_2
I1118 15:44:06.519824 20100 net.cpp:154] Setting up predict_flow3_Convolution4_0_split
I1118 15:44:06.519830 20100 net.cpp:161] Top shape: 4 2 48 64 (24576)
I1118 15:44:06.519834 20100 net.cpp:161] Top shape: 4 2 48 64 (24576)
I1118 15:44:06.519839 20100 net.cpp:161] Top shape: 4 2 48 64 (24576)
I1118 15:44:06.519842 20100 net.cpp:169] Memory required for data: 551573004
I1118 15:44:06.519846 20100 layer_factory.hpp:76] Creating layer Downsample4
I1118 15:44:06.519855 20100 net.cpp:108] Creating Layer Downsample4
I1118 15:44:06.519873 20100 net.cpp:460] Downsample4 <- scaled_flow_gt_Eltwise3_0_split_3
I1118 15:44:06.519878 20100 net.cpp:460] Downsample4 <- predict_flow3_Convolution4_0_split_0
I1118 15:44:06.519883 20100 net.cpp:417] Downsample4 -> blob39
I1118 15:44:06.519922 20100 net.cpp:154] Setting up Downsample4
I1118 15:44:06.519930 20100 net.cpp:161] Top shape: 4 2 48 64 (24576)
I1118 15:44:06.519932 20100 net.cpp:169] Memory required for data: 551671308
W1118 15:44:06.519934 20100 vision_layers.hpp:445] DownsampleLayer does not do backward.
I1118 15:44:06.519942 20100 layer_factory.hpp:76] Creating layer flow_loss3
I1118 15:44:06.519953 20100 net.cpp:108] Creating Layer flow_loss3
I1118 15:44:06.519958 20100 net.cpp:460] flow_loss3 <- predict_flow3_Convolution4_0_split_1
I1118 15:44:06.519965 20100 net.cpp:460] flow_loss3 <- blob39
I1118 15:44:06.519973 20100 net.cpp:417] flow_loss3 -> flow_loss3
I1118 15:44:06.520273 20100 net.cpp:154] Setting up flow_loss3
I1118 15:44:06.520282 20100 net.cpp:161] Top shape: (1)
I1118 15:44:06.520285 20100 net.cpp:164]     with loss weight 0.01
I1118 15:44:06.520301 20100 net.cpp:169] Memory required for data: 551671312
I1118 15:44:06.520308 20100 layer_factory.hpp:76] Creating layer Convolution4_1
I1118 15:44:06.520320 20100 net.cpp:108] Creating Layer Convolution4_1
I1118 15:44:06.520328 20100 net.cpp:460] Convolution4_1 <- concat3_Concat3_0_split_1
I1118 15:44:06.520339 20100 net.cpp:417] Convolution4_1 -> concat3_1
I1118 15:44:06.529165 20100 net.cpp:154] Setting up Convolution4_1
I1118 15:44:06.529191 20100 net.cpp:161] Top shape: 4 128 48 64 (1572864)
I1118 15:44:06.529194 20100 net.cpp:169] Memory required for data: 557962768
I1118 15:44:06.529203 20100 layer_factory.hpp:76] Creating layer ReLU20
I1118 15:44:06.529214 20100 net.cpp:108] Creating Layer ReLU20
I1118 15:44:06.529222 20100 net.cpp:460] ReLU20 <- concat3_1
I1118 15:44:06.529232 20100 net.cpp:403] ReLU20 -> concat3_1 (in-place)
I1118 15:44:06.529388 20100 net.cpp:154] Setting up ReLU20
I1118 15:44:06.529400 20100 net.cpp:161] Top shape: 4 128 48 64 (1572864)
I1118 15:44:06.529405 20100 net.cpp:169] Memory required for data: 564254224
I1118 15:44:06.529409 20100 layer_factory.hpp:76] Creating layer deconv2
I1118 15:44:06.529422 20100 net.cpp:108] Creating Layer deconv2
I1118 15:44:06.529428 20100 net.cpp:460] deconv2 <- concat3_1
I1118 15:44:06.529439 20100 net.cpp:417] deconv2 -> deconv2
I1118 15:44:06.532302 20100 net.cpp:154] Setting up deconv2
I1118 15:44:06.532313 20100 net.cpp:161] Top shape: 4 64 96 128 (3145728)
I1118 15:44:06.532318 20100 net.cpp:169] Memory required for data: 576837136
I1118 15:44:06.532326 20100 layer_factory.hpp:76] Creating layer ReLU21
I1118 15:44:06.532351 20100 net.cpp:108] Creating Layer ReLU21
I1118 15:44:06.532369 20100 net.cpp:460] ReLU21 <- deconv2
I1118 15:44:06.532387 20100 net.cpp:403] ReLU21 -> deconv2 (in-place)
I1118 15:44:06.532889 20100 net.cpp:154] Setting up ReLU21
I1118 15:44:06.532902 20100 net.cpp:161] Top shape: 4 64 96 128 (3145728)
I1118 15:44:06.532907 20100 net.cpp:169] Memory required for data: 589420048
I1118 15:44:06.532912 20100 layer_factory.hpp:76] Creating layer conv2_2
I1118 15:44:06.532923 20100 net.cpp:108] Creating Layer conv2_2
I1118 15:44:06.532930 20100 net.cpp:460] conv2_2 <- conv2_ReLU2_0_split_1
I1118 15:44:06.532941 20100 net.cpp:417] conv2_2 -> conv2_2
I1118 15:44:06.535555 20100 net.cpp:154] Setting up conv2_2
I1118 15:44:06.535567 20100 net.cpp:161] Top shape: 4 64 96 128 (3145728)
I1118 15:44:06.535570 20100 net.cpp:169] Memory required for data: 602002960
I1118 15:44:06.535575 20100 layer_factory.hpp:76] Creating layer ReLU22
I1118 15:44:06.535581 20100 net.cpp:108] Creating Layer ReLU22
I1118 15:44:06.535585 20100 net.cpp:460] ReLU22 <- conv2_2
I1118 15:44:06.535591 20100 net.cpp:403] ReLU22 -> conv2_2 (in-place)
I1118 15:44:06.535743 20100 net.cpp:154] Setting up ReLU22
I1118 15:44:06.535751 20100 net.cpp:161] Top shape: 4 64 96 128 (3145728)
I1118 15:44:06.535756 20100 net.cpp:169] Memory required for data: 614585872
I1118 15:44:06.535773 20100 layer_factory.hpp:76] Creating layer upsample_flow3to2
I1118 15:44:06.535784 20100 net.cpp:108] Creating Layer upsample_flow3to2
I1118 15:44:06.535789 20100 net.cpp:460] upsample_flow3to2 <- predict_flow3_Convolution4_0_split_2
I1118 15:44:06.535797 20100 net.cpp:417] upsample_flow3to2 -> upsampled_flow3_to_2
I1118 15:44:06.535989 20100 net.cpp:154] Setting up upsample_flow3to2
I1118 15:44:06.535995 20100 net.cpp:161] Top shape: 4 2 96 128 (98304)
I1118 15:44:06.536000 20100 net.cpp:169] Memory required for data: 614979088
I1118 15:44:06.536006 20100 layer_factory.hpp:76] Creating layer Concat2
I1118 15:44:06.536013 20100 net.cpp:108] Creating Layer Concat2
I1118 15:44:06.536017 20100 net.cpp:460] Concat2 <- conv2_2
I1118 15:44:06.536022 20100 net.cpp:460] Concat2 <- deconv2
I1118 15:44:06.536027 20100 net.cpp:460] Concat2 <- upsampled_flow3_to_2
I1118 15:44:06.536032 20100 net.cpp:417] Concat2 -> concat2
I1118 15:44:06.536057 20100 net.cpp:154] Setting up Concat2
I1118 15:44:06.536063 20100 net.cpp:161] Top shape: 4 130 96 128 (6389760)
I1118 15:44:06.536068 20100 net.cpp:169] Memory required for data: 640538128
I1118 15:44:06.536072 20100 layer_factory.hpp:76] Creating layer Convolution5
I1118 15:44:06.536082 20100 net.cpp:108] Creating Layer Convolution5
I1118 15:44:06.536085 20100 net.cpp:460] Convolution5 <- concat2
I1118 15:44:06.536092 20100 net.cpp:417] Convolution5 -> predict_flow2
I1118 15:44:06.537016 20100 net.cpp:154] Setting up Convolution5
I1118 15:44:06.537029 20100 net.cpp:161] Top shape: 4 2 96 128 (98304)
I1118 15:44:06.537036 20100 net.cpp:169] Memory required for data: 640931344
I1118 15:44:06.537044 20100 layer_factory.hpp:76] Creating layer predict_flow2_Convolution5_0_split
I1118 15:44:06.537050 20100 net.cpp:108] Creating Layer predict_flow2_Convolution5_0_split
I1118 15:44:06.537055 20100 net.cpp:460] predict_flow2_Convolution5_0_split <- predict_flow2
I1118 15:44:06.537062 20100 net.cpp:417] predict_flow2_Convolution5_0_split -> predict_flow2_Convolution5_0_split_0
I1118 15:44:06.537070 20100 net.cpp:417] predict_flow2_Convolution5_0_split -> predict_flow2_Convolution5_0_split_1
I1118 15:44:06.537107 20100 net.cpp:154] Setting up predict_flow2_Convolution5_0_split
I1118 15:44:06.537113 20100 net.cpp:161] Top shape: 4 2 96 128 (98304)
I1118 15:44:06.537118 20100 net.cpp:161] Top shape: 4 2 96 128 (98304)
I1118 15:44:06.537122 20100 net.cpp:169] Memory required for data: 641717776
I1118 15:44:06.537125 20100 layer_factory.hpp:76] Creating layer Downsample5
I1118 15:44:06.537132 20100 net.cpp:108] Creating Layer Downsample5
I1118 15:44:06.537137 20100 net.cpp:460] Downsample5 <- scaled_flow_gt_Eltwise3_0_split_4
I1118 15:44:06.537142 20100 net.cpp:460] Downsample5 <- predict_flow2_Convolution5_0_split_0
I1118 15:44:06.537148 20100 net.cpp:417] Downsample5 -> blob44
I1118 15:44:06.537171 20100 net.cpp:154] Setting up Downsample5
I1118 15:44:06.537189 20100 net.cpp:161] Top shape: 4 2 96 128 (98304)
I1118 15:44:06.537194 20100 net.cpp:169] Memory required for data: 642110992
W1118 15:44:06.537196 20100 vision_layers.hpp:445] DownsampleLayer does not do backward.
I1118 15:44:06.537206 20100 layer_factory.hpp:76] Creating layer flow_loss2
I1118 15:44:06.537215 20100 net.cpp:108] Creating Layer flow_loss2
I1118 15:44:06.537220 20100 net.cpp:460] flow_loss2 <- predict_flow2_Convolution5_0_split_1
…
