…
layer {
  name: "Image1"
  type: "ImageData"
  top: "img0"
  include {
    phase: TRAIN
  }
  image_data_param {
    source: "img1_list.txt"
    batch_size: 4
    root_folder: "./"
  }
}
layer {
  name: "Image2"
  type: "ImageData"
  top: "img1"
  include {
    phase: TRAIN
  }
  image_data_param {
    source: "img2_list.txt"
    batch_size: 4
    root_folder: "./"
  }
}
layer {
  name: "Flow"
  type: "FloData"
  top: "flow_gt_aug"
  include {
    phase: TRAIN
  }
  image_data_param {
    source: "flo_list.txt"
    batch_size: 4
    root_folder: "./"
  }
}
layer {
  name: "Mean1"
  type: "Mean"
  bottom: "img0"
  top: "img0_aug"
  mean_param {
    operation: SUBTRACT
    value: 0.411451
    value: 0.43206
    value: 0.450141
    input_scale: 0.0039216
  }
}
layer {
  name: "Mean2"
  type: "Mean"
  bottom: "img1"
  top: "img1_aug"
  mean_param {
    operation: SUBTRACT
    value: 0.410602
    value: 0.431021
    value: 0.448553
    input_scale: 0.0039216
  }
}
layer {
  name: "Eltwise3"
  type: "Eltwise"
  bottom: "flow_gt_aug"
  top: "scaled_flow_gt"
  eltwise_param {
    operation: SUM
    coeff: 0.05
  }
}
layer {
  name: "Concat1"
  type: "Concat"
  bottom: "img0_aug"
  bottom: "img1_aug"
  top: "input"
  concat_param {
    axis: 1
  }
}
layer {
  name: "conv1"
  type: "Convolution"
  bottom: "input"
  top: "conv1"
  param {
    lr_mult: 1
    decay_mult: 1
  }
  param {
    lr_mult: 1
    decay_mult: 0
  }
  convolution_param {
    num_output: 64
    pad: 3
    kernel_size: 7
    stride: 2
    weight_filler {
      type: "msra"
    }
    bias_filler {
      type: "constant"
    }
    engine: CUDNN
  }
}
layer {
  name: "ReLU1"
  type: "ReLU"
  bottom: "conv1"
  top: "conv1"
  relu_param {
    negative_slope: 0.1
  }
}
layer {
  name: "conv2"
  type: "Convolution"
  bottom: "conv1"
  top: "conv2"
  param {
    lr_mult: 1
    decay_mult: 1
  }
  param {
    lr_mult: 1
    decay_mult: 0
  }
  convolution_param {
    num_output: 128
    pad: 2
    kernel_size: 5
    stride: 2
    weight_filler {
      type: "msra"
    }
    bias_filler {
      type: "constant"
    }
    engine: CUDNN
  }
}
layer {
  name: "ReLU2"
  type: "ReLU"
  bottom: "conv2"
  top: "conv2"
  relu_param {
    negative_slope: 0.1
  }
}
layer {
  name: "conv3"
  type: "Convolution"
  bottom: "conv2"
  top: "conv3"
  param {
    lr_mult: 1
    decay_mult: 1
  }
  param {
    lr_mult: 1
    decay_mult: 0
  }
  convolution_param {
    num_output: 256
    pad: 2
    kernel_size: 5
    stride: 2
    weight_filler {
      type: "msra"
    }
    bias_filler {
      type: "constant"
    }
    engine: CUDNN
  }
}
layer {
  name: "ReLU3"
  type: "ReLU"
  bottom: "conv3"
  top: "conv3"
  relu_param {
    negative_slope: 0.1
  }
}
layer {
  name: "conv3_1"
  type: "Convolution"
  bottom: "conv3"
  top: "conv3_1"
  param {
    lr_mult: 1
    decay_mult: 1
  }
  param {
    lr_mult: 1
    decay_mult: 0
  }
  convolution_param {
    num_output: 256
    pad: 1
    kernel_size: 3
    stride: 1
    weight_filler {
      type: "msra"
    }
    bias_filler {
      type: "constant"
    }
    engine: CUDNN
  }
}
layer {
  name: "ReLU4"
  type: "ReLU"
  bottom: "conv3_1"
  top: "conv3_1"
  relu_param {
    negative_slope: 0.1
  }
}
layer {
  name: "conv4"
  type: "Convolution"
  bottom: "conv3_1"
  top: "conv4"
  param {
    lr_mult: 1
    decay_mult: 1
  }
  param {
    lr_mult: 1
    decay_mult: 0
  }
  convolution_param {
    num_output: 512
    pad: 1
    kernel_size: 3
    stride: 2
    weight_filler {
      type: "msra"
    }
    bias_filler {
      type: "constant"
    }
    engine: CUDNN
  }
}
layer {
  name: "ReLU5"
  type: "ReLU"
  bottom: "conv4"
  top: "conv4"
  relu_param {
    negative_slope: 0.1
  }
}
layer {
  name: "conv4_1"
  type: "Convolution"
  bottom: "conv4"
  top: "conv4_1"
  param {
    lr_mult: 1
    decay_mult: 1
  }
  param {
    lr_mult: 1
    decay_mult: 0
  }
  convolution_param {
    num_output: 512
    pad: 1
    kernel_size: 3
    stride: 1
    weight_filler {
      type: "msra"
    }
    bias_filler {
      type: "constant"
    }
    engine: CUDNN
  }
}
layer {
  name: "ReLU6"
  type: "ReLU"
  bottom: "conv4_1"
  top: "conv4_1"
  relu_param {
    negative_slope: 0.1
  }
}
layer {
  name: "conv5"
  type: "Convolution"
  bottom: "conv4_1"
  top: "conv5"
  param {
    lr_mult: 1
    decay_mult: 1
  }
  param {
    lr_mult: 1
    decay_mult: 0
  }
  convolution_param {
    num_output: 512
    pad: 1
    kernel_size: 3
    stride: 2
    weight_filler {
      type: "msra"
    }
    bias_filler {
      type: "constant"
    }
    engine: CUDNN
  }
}
layer {
  name: "ReLU7"
  type: "ReLU"
  bottom: "conv5"
  top: "conv5"
  relu_param {
    negative_slope: 0.1
  }
}
layer {
  name: "conv5_1"
  type: "Convolution"
  bottom: "conv5"
  top: "conv5_1"
  param {
    lr_mult: 1
    decay_mult: 1
  }
  param {
    lr_mult: 1
    decay_mult: 0
  }
  convolution_param {
    num_output: 512
    pad: 1
    kernel_size: 3
    stride: 1
    weight_filler {
      type: "msra"
    }
    bias_filler {
      type: "constant"
    }
    engine: CUDNN
  }
}
layer {
  name: "ReLU8"
  type: "ReLU"
  bottom: "conv5_1"
  top: "conv5_1"
  relu_param {
    negative_slope: 0.1
  }
}
layer {
  name: "conv6"
  type: "Convolution"
  bottom: "conv5_1"
  top: "conv6"
  param {
    lr_mult: 1
    decay_mult: 1
  }
  param {
    lr_mult: 1
    decay_mult: 0
  }
  convolution_param {
    num_output: 1024
    pad: 1
    kernel_size: 3
    stride: 2
    weight_filler {
      type: "msra"
    }
    bias_filler {
      type: "constant"
    }
    engine: CUDNN
  }
}
layer {
  name: "ReLU9"
  type: "ReLU"
  bottom: "conv6"
  top: "conv6"
  relu_param {
    negative_slope: 0.1
  }
}
layer {
  name: "conv6_1"
  type: "Convolution"
  bottom: "conv6"
  top: "conv6_1"
  param {
    lr_mult: 1
    decay_mult: 1
  }
  param {
    lr_mult: 1
    decay_mult: 0
  }
  convolution_param {
    num_output: 1024
    pad: 1
    kernel_size: 3
    stride: 1
    weight_filler {
      type: "msra"
    }
    bias_filler {
      type: "constant"
    }
    engine: CUDNN
  }
}
layer {
  name: "ReLU10"
  type: "ReLU"
  bottom: "conv6_1"
  top: "conv6_1"
  relu_param {
    negative_slope: 0.1
  }
}
layer {
  name: "Convolution1"
  type: "Convolution"
  bottom: "conv6_1"
  top: "predict_flow6"
  param {
    lr_mult: 1
    decay_mult: 1
  }
  param {
    lr_mult: 1
    decay_mult: 0
  }
  convolution_param {
    num_output: 2
    pad: 1
    kernel_size: 3
    stride: 1
    weight_filler {
      type: "msra"
    }
    bias_filler {
      type: "constant"
    }
    engine: CUDNN
  }
}
layer {
  name: "Downsample1"
  type: "Downsample"
  bottom: "scaled_flow_gt"
  bottom: "predict_flow6"
  top: "blob24"
}
layer {
  name: "flow_loss6"
  type: "L1Loss"
  bottom: "predict_flow6"
  bottom: "blob24"
  top: "flow_loss6"
  loss_weight: 0.32
  l1_loss_param {
    l2_per_location: true
  }
}
layer {
  name: "deconv5"
  type: "Deconvolution"
  bottom: "conv6_1"
  top: "deconv5"
  param {
    lr_mult: 1
    decay_mult: 0
  }
  param {
    lr_mult: 0
    decay_mult: 0
  }
  convolution_param {
    num_output: 512
    pad: 1
    kernel_size: 4
    stride: 2
    weight_filler {
      type: "msra"
    }
    bias_filler {
      type: "constant"
    }
    engine: CUDNN
  }
}
layer {
  name: "ReLU11"
  type: "ReLU"
  bottom: "deconv5"
  top: "deconv5"
  relu_param {
    negative_slope: 0.1
  }
}
layer {
  name: "upsample_flow6to5"
  type: "Deconvolution"
  bottom: "predict_flow6"
  top: "upsampled_flow6_to_5"
  param {
    lr_mult: 1
    decay_mult: 0
  }
  param {
    lr_mult: 0
    decay_mult: 0
  }
  convolution_param {
    num_output: 2
    pad: 1
    kernel_size: 4
    stride: 2
    weight_filler {
      type: "msra"
    }
    bias_filler {
      type: "constant"
    }
    engine: CUDNN
  }
}
layer {
  name: "Concat2"
  type: "Concat"
  bottom: "conv5_1"
  bottom: "deconv5"
  bottom: "upsampled_flow6_to_5"
  top: "concat5"
}
layer {
  name: "Convolution2"
  type: "Convolution"
  bottom: "concat5"
  top: "predict_flow5"
  param {
    lr_mult: 1
    decay_mult: 1
  }
  param {
    lr_mult: 1
    decay_mult: 0
  }
  convolution_param {
    num_output: 2
    pad: 1
    kernel_size: 3
    stride: 1
    weight_filler {
      type: "msra"
    }
    bias_filler {
      type: "constant"
    }
    engine: CUDNN
  }
}
layer {
  name: "Downsample2"
  type: "Downsample"
  bottom: "scaled_flow_gt"
  bottom: "predict_flow5"
  top: "blob29"
}
layer {
  name: "flow_loss5"
  type: "L1Loss"
  bottom: "predict_flow5"
  bottom: "blob29"
  top: "flow_loss5"
  loss_weight: 0.08
  l1_loss_param {
    l2_per_location: true
  }
}
layer {
  name: "deconv4"
  type: "Deconvolution"
  bottom: "concat5"
  top: "deconv4"
  param {
    lr_mult: 1
    decay_mult: 0
  }
  param {
    lr_mult: 0
    decay_mult: 0
  }
  convolution_param {
    num_output: 256
    pad: 1
    kernel_size: 4
    stride: 2
    weight_filler {
      type: "msra"
    }
    bias_filler {
      type: "constant"
    }
    engine: CUDNN
  }
}
layer {
  name: "ReLU12"
  type: "ReLU"
  bottom: "deconv4"
  top: "deconv4"
  relu_param {
    negative_slope: 0.1
  }
}
layer {
  name: "upsample_flow5to4"
  type: "Deconvolution"
  bottom: "predict_flow5"
  top: "upsampled_flow5_to_4"
  param {
    lr_mult: 1
    decay_mult: 0
  }
  param {
    lr_mult: 0
    decay_mult: 0
  }
  convolution_param {
    num_output: 2
    pad: 1
    kernel_size: 4
    stride: 2
    weight_filler {
      type: "msra"
    }
    bias_filler {
      type: "constant"
    }
    engine: CUDNN
  }
}
layer {
  name: "Concat3"
  type: "Concat"
  bottom: "conv4_1"
  bottom: "deconv4"
  bottom: "upsampled_flow5_to_4"
  top: "concat4"
}
layer {
  name: "Convolution3"
  type: "Convolution"
  bottom: "concat4"
  top: "predict_flow4"
  param {
    lr_mult: 1
    decay_mult: 1
  }
  param {
    lr_mult: 1
    decay_mult: 0
  }
  convolution_param {
    num_output: 2
    pad: 1
    kernel_size: 3
    stride: 1
    weight_filler {
      type: "msra"
    }
    bias_filler {
      type: "constant"
    }
    engine: CUDNN
  }
}
layer {
  name: "Downsample3"
  type: "Downsample"
  bottom: "scaled_flow_gt"
  bottom: "predict_flow4"
  top: "blob34"
}
layer {
  name: "flow_loss4"
  type: "L1Loss"
  bottom: "predict_flow4"
  bottom: "blob34"
  top: "flow_loss4"
  loss_weight: 0.02
  l1_loss_param {
    l2_per_location: true
  }
}
layer {
  name: "deconv3"
  type: "Deconvolution"
  bottom: "concat4"
  top: "deconv3"
  param {
    lr_mult: 1
    decay_mult: 0
  }
  param {
    lr_mult: 0
    decay_mult: 0
  }
  convolution_param {
    num_output: 128
    pad: 1
    kernel_size: 4
    stride: 2
    weight_filler {
      type: "msra"
    }
    bias_filler {
      type: "constant"
    }
    engine: CUDNN
  }
}
layer {
  name: "ReLU13"
  type: "ReLU"
  bottom: "deconv3"
  top: "deconv3"
  relu_param {
    negative_slope: 0.1
  }
}
layer {
  name: "upsample_flow4to3"
  type: "Deconvolution"
  bottom: "predict_flow4"
  top: "upsampled_flow4_to_3"
  param {
    lr_mult: 1
    decay_mult: 0
  }
  param {
    lr_mult: 0
    decay_mult: 0
  }
  convolution_param {
    num_output: 2
    pad: 1
    kernel_size: 4
    stride: 2
    weight_filler {
      type: "msra"
    }
    bias_filler {
      type: "constant"
    }
    engine: CUDNN
  }
}
layer {
  name: "Concat4"
  type: "Concat"
  bottom: "conv3_1"
  bottom: "deconv3"
  bottom: "upsampled_flow4_to_3"
  top: "concat3"
}
layer {
  name: "Convolution4"
  type: "Convolution"
  bottom: "concat3"
  top: "predict_flow3"
  param {
    lr_mult: 1
    decay_mult: 1
  }
  param {
    lr_mult: 1
    decay_mult: 0
  }
  convolution_param {
    num_output: 2
    pad: 1
    kernel_size: 3
    stride: 1
    weight_filler {
      type: "msra"
    }
    bias_filler {
      type: "constant"
    }
    engine: CUDNN
  }
}
layer {
  name: "Downsample4"
  type: "Downsample"
  bottom: "scaled_flow_gt"
  bottom: "predict_flow3"
  top: "blob39"
}
layer {
  name: "flow_loss3"
  type: "L1Loss"
  bottom: "predict_flow3"
  bottom: "blob39"
  top: "flow_loss3"
  loss_weight: 0.01
  l1_loss_param {
    l2_per_location: true
  }
}
layer {
  name: "deconv2"
  type: "Deconvolution"
  bottom: "concat3"
  top: "deconv2"
  param {
    lr_mult: 1
    decay_mult: 0
  }
  param {
    lr_mult: 0
    decay_mult: 0
  }
  convolution_param {
    num_output: 64
    pad: 1
    kernel_size: 4
    stride: 2
    weight_filler {
      type: "msra"
    }
    bias_filler {
      type: "constant"
    }
    engine: CUDNN
  }
}
layer {
  name: "ReLU14"
  type: "ReLU"
  bottom: "deconv2"
  top: "deconv2"
  relu_param {
    negative_slope: 0.1
  }
}
layer {
  name: "upsample_flow3to2"
  type: "Deconvolution"
  bottom: "predict_flow3"
  top: "upsampled_flow3_to_2"
  param {
    lr_mult: 1
    decay_mult: 0
  }
  param {
    lr_mult: 0
    decay_mult: 0
  }
  convolution_param {
    num_output: 2
    pad: 1
    kernel_size: 4
    stride: 2
    weight_filler {
      type: "msra"
    }
    bias_filler {
      type: "constant"
    }
    engine: CUDNN
  }
}
layer {
  name: "Concat5"
  type: "Concat"
  bottom: "conv2"
  bottom: "deconv2"
  bottom: "upsampled_flow3_to_2"
  top: "concat2"
}
layer {
  name: "Convolution5"
  type: "Convolution"
  bottom: "concat2"
  top: "predict_flow2"
  param {
    lr_mult: 1
    decay_mult: 1
  }
  param {
    lr_mult: 1
    decay_mult: 0
  }
  convolution_param {
    num_output: 2
    pad: 1
    kernel_size: 3
    stride: 1
    weight_filler {
      type: "msra"
    }
    bias_filler {
      type: "constant"
    }
    engine: CUDNN
  }
}
layer {
  name: "Downsample5"
  type: "Downsample"
  bottom: "scaled_flow_gt"
  bottom: "predict_flow2"
  top: "blob44"
}
layer {
  name: "flow_loss2"
  type: "L1Loss"
  bottom: "predict_flow2"
  bottom: "blob44"
  top: "flow_loss2"
  loss_weight: 0.005
  l1_loss_param {
    l2_per_location: true
  }
}
I1114 18:50:10.926136 11950 layer_factory.hpp:76] Creating layer Image1
I1114 18:50:10.926167 11950 net.cpp:108] Creating Layer Image1
I1114 18:50:10.926173 11950 net.cpp:417] Image1 -> img0
I1114 18:50:10.926197 11950 image_data_layer.cpp:36] Opening file img1_list.txt
I1114 18:50:10.932651 11950 image_data_layer.cpp:50] A total of 28232 images.
I1114 18:50:10.945122 11950 image_data_layer.cpp:77] output data size: 4,3,384,512
I1114 18:50:10.964061 11950 net.cpp:154] Setting up Image1
I1114 18:50:10.964110 11950 net.cpp:161] Top shape: 4 3 384 512 (2359296)
I1114 18:50:10.964119 11950 net.cpp:169] Memory required for data: 9437184
I1114 18:50:10.964129 11950 layer_factory.hpp:76] Creating layer Image2
I1114 18:50:10.964148 11950 net.cpp:108] Creating Layer Image2
I1114 18:50:10.964154 11950 net.cpp:417] Image2 -> img1
I1114 18:50:10.964167 11950 image_data_layer.cpp:36] Opening file img2_list.txt
I1114 18:50:10.969980 11950 image_data_layer.cpp:50] A total of 28232 images.
I1114 18:50:10.970526 11950 image_data_layer.cpp:77] output data size: 4,3,384,512
I1114 18:50:10.984844 11950 net.cpp:154] Setting up Image2
I1114 18:50:10.984877 11950 net.cpp:161] Top shape: 4 3 384 512 (2359296)
I1114 18:50:10.984882 11950 net.cpp:169] Memory required for data: 18874368
I1114 18:50:10.984887 11950 layer_factory.hpp:76] Creating layer Flow
I1114 18:50:10.984910 11950 net.cpp:108] Creating Layer Flow
I1114 18:50:10.984916 11950 net.cpp:417] Flow -> flow_gt_aug
I1114 18:50:10.984933 11950 flo_data_layer.cpp:62] Opening file flo_list.txt
I1114 18:50:10.992209 11950 flo_data_layer.cpp:76] A total of 28232 images.
I1114 18:50:10.992346 11950 flo_data_layer.cpp:111] output data size: 4,2,384,512
I1114 18:50:11.004312 11950 net.cpp:154] Setting up Flow
I1114 18:50:11.004346 11950 net.cpp:161] Top shape: 4 2 384 512 (1572864)
I1114 18:50:11.004350 11950 net.cpp:169] Memory required for data: 25165824
I1114 18:50:11.004357 11950 layer_factory.hpp:76] Creating layer Mean1
I1114 18:50:11.004367 11950 net.cpp:108] Creating Layer Mean1
I1114 18:50:11.004374 11950 net.cpp:460] Mean1 <- img0
I1114 18:50:11.004384 11950 net.cpp:417] Mean1 -> img0_aug
I1114 18:50:11.004437 11950 net.cpp:154] Setting up Mean1
I1114 18:50:11.004446 11950 net.cpp:161] Top shape: 4 3 384 512 (2359296)
I1114 18:50:11.004448 11950 net.cpp:169] Memory required for data: 34603008
I1114 18:50:11.004451 11950 layer_factory.hpp:76] Creating layer Mean2
I1114 18:50:11.004459 11950 net.cpp:108] Creating Layer Mean2
I1114 18:50:11.004462 11950 net.cpp:460] Mean2 <- img1
I1114 18:50:11.004467 11950 net.cpp:417] Mean2 -> img1_aug
I1114 18:50:11.004487 11950 net.cpp:154] Setting up Mean2
I1114 18:50:11.004494 11950 net.cpp:161] Top shape: 4 3 384 512 (2359296)
I1114 18:50:11.004498 11950 net.cpp:169] Memory required for data: 44040192
I1114 18:50:11.004500 11950 layer_factory.hpp:76] Creating layer Eltwise3
I1114 18:50:11.004510 11950 net.cpp:108] Creating Layer Eltwise3
I1114 18:50:11.004515 11950 net.cpp:460] Eltwise3 <- flow_gt_aug
I1114 18:50:11.004519 11950 net.cpp:417] Eltwise3 -> scaled_flow_gt
I1114 18:50:11.004541 11950 net.cpp:154] Setting up Eltwise3
I1114 18:50:11.004547 11950 net.cpp:161] Top shape: 4 2 384 512 (1572864)
I1114 18:50:11.004550 11950 net.cpp:169] Memory required for data: 50331648
I1114 18:50:11.004554 11950 layer_factory.hpp:76] Creating layer scaled_flow_gt_Eltwise3_0_split
I1114 18:50:11.004562 11950 net.cpp:108] Creating Layer scaled_flow_gt_Eltwise3_0_split
I1114 18:50:11.004565 11950 net.cpp:460] scaled_flow_gt_Eltwise3_0_split <- scaled_flow_gt
I1114 18:50:11.004570 11950 net.cpp:417] scaled_flow_gt_Eltwise3_0_split -> scaled_flow_gt_Eltwise3_0_split_0
I1114 18:50:11.004575 11950 net.cpp:417] scaled_flow_gt_Eltwise3_0_split -> scaled_flow_gt_Eltwise3_0_split_1
I1114 18:50:11.004582 11950 net.cpp:417] scaled_flow_gt_Eltwise3_0_split -> scaled_flow_gt_Eltwise3_0_split_2
I1114 18:50:11.004587 11950 net.cpp:417] scaled_flow_gt_Eltwise3_0_split -> scaled_flow_gt_Eltwise3_0_split_3
I1114 18:50:11.004592 11950 net.cpp:417] scaled_flow_gt_Eltwise3_0_split -> scaled_flow_gt_Eltwise3_0_split_4
I1114 18:50:11.004633 11950 net.cpp:154] Setting up scaled_flow_gt_Eltwise3_0_split
I1114 18:50:11.004640 11950 net.cpp:161] Top shape: 4 2 384 512 (1572864)
I1114 18:50:11.004643 11950 net.cpp:161] Top shape: 4 2 384 512 (1572864)
I1114 18:50:11.004647 11950 net.cpp:161] Top shape: 4 2 384 512 (1572864)
I1114 18:50:11.004652 11950 net.cpp:161] Top shape: 4 2 384 512 (1572864)
I1114 18:50:11.004654 11950 net.cpp:161] Top shape: 4 2 384 512 (1572864)
I1114 18:50:11.004657 11950 net.cpp:169] Memory required for data: 81788928
I1114 18:50:11.004660 11950 layer_factory.hpp:76] Creating layer Concat1
I1114 18:50:11.004672 11950 net.cpp:108] Creating Layer Concat1
I1114 18:50:11.004676 11950 net.cpp:460] Concat1 <- img0_aug
I1114 18:50:11.004680 11950 net.cpp:460] Concat1 <- img1_aug
I1114 18:50:11.004684 11950 net.cpp:417] Concat1 -> input
I1114 18:50:11.004704 11950 net.cpp:154] Setting up Concat1
I1114 18:50:11.004710 11950 net.cpp:161] Top shape: 4 6 384 512 (4718592)
I1114 18:50:11.004714 11950 net.cpp:169] Memory required for data: 100663296
I1114 18:50:11.004716 11950 layer_factory.hpp:76] Creating layer conv1
I1114 18:50:11.004726 11950 net.cpp:108] Creating Layer conv1
I1114 18:50:11.004731 11950 net.cpp:460] conv1 <- input
I1114 18:50:11.004736 11950 net.cpp:417] conv1 -> conv1
I1114 18:50:11.292814 11950 net.cpp:154] Setting up conv1
I1114 18:50:11.292860 11950 net.cpp:161] Top shape: 4 64 192 256 (12582912)
I1114 18:50:11.292871 11950 net.cpp:169] Memory required for data: 150994944
I1114 18:50:11.292903 11950 layer_factory.hpp:76] Creating layer ReLU1
I1114 18:50:11.292920 11950 net.cpp:108] Creating Layer ReLU1
I1114 18:50:11.292929 11950 net.cpp:460] ReLU1 <- conv1
I1114 18:50:11.292937 11950 net.cpp:403] ReLU1 -> conv1 (in-place)
I1114 18:50:11.293114 11950 net.cpp:154] Setting up ReLU1
I1114 18:50:11.293128 11950 net.cpp:161] Top shape: 4 64 192 256 (12582912)
I1114 18:50:11.293133 11950 net.cpp:169] Memory required for data: 201326592
I1114 18:50:11.293139 11950 layer_factory.hpp:76] Creating layer conv2
I1114 18:50:11.293153 11950 net.cpp:108] Creating Layer conv2
I1114 18:50:11.293159 11950 net.cpp:460] conv2 <- conv1
I1114 18:50:11.293166 11950 net.cpp:417] conv2 -> conv2
I1114 18:50:11.302243 11950 net.cpp:154] Setting up conv2
I1114 18:50:11.302279 11950 net.cpp:161] Top shape: 4 128 96 128 (6291456)
I1114 18:50:11.302284 11950 net.cpp:169] Memory required for data: 226492416
I1114 18:50:11.302297 11950 layer_factory.hpp:76] Creating layer ReLU2
I1114 18:50:11.302307 11950 net.cpp:108] Creating Layer ReLU2
I1114 18:50:11.302314 11950 net.cpp:460] ReLU2 <- conv2
I1114 18:50:11.302319 11950 net.cpp:403] ReLU2 -> conv2 (in-place)
I1114 18:50:11.302680 11950 net.cpp:154] Setting up ReLU2
I1114 18:50:11.302692 11950 net.cpp:161] Top shape: 4 128 96 128 (6291456)
I1114 18:50:11.302696 11950 net.cpp:169] Memory required for data: 251658240
I1114 18:50:11.302700 11950 layer_factory.hpp:76] Creating layer conv2_ReLU2_0_split
I1114 18:50:11.302706 11950 net.cpp:108] Creating Layer conv2_ReLU2_0_split
I1114 18:50:11.302709 11950 net.cpp:460] conv2_ReLU2_0_split <- conv2
I1114 18:50:11.302716 11950 net.cpp:417] conv2_ReLU2_0_split -> conv2_ReLU2_0_split_0
I1114 18:50:11.302721 11950 net.cpp:417] conv2_ReLU2_0_split -> conv2_ReLU2_0_split_1
I1114 18:50:11.302757 11950 net.cpp:154] Setting up conv2_ReLU2_0_split
I1114 18:50:11.302763 11950 net.cpp:161] Top shape: 4 128 96 128 (6291456)
I1114 18:50:11.302767 11950 net.cpp:161] Top shape: 4 128 96 128 (6291456)
I1114 18:50:11.302770 11950 net.cpp:169] Memory required for data: 301989888
I1114 18:50:11.302773 11950 layer_factory.hpp:76] Creating layer conv3
I1114 18:50:11.302783 11950 net.cpp:108] Creating Layer conv3
I1114 18:50:11.302785 11950 net.cpp:460] conv3 <- conv2_ReLU2_0_split_0
I1114 18:50:11.302790 11950 net.cpp:417] conv3 -> conv3
I1114 18:50:11.321126 11950 net.cpp:154] Setting up conv3
I1114 18:50:11.321157 11950 net.cpp:161] Top shape: 4 256 48 64 (3145728)
I1114 18:50:11.321161 11950 net.cpp:169] Memory required for data: 314572800
I1114 18:50:11.321173 11950 layer_factory.hpp:76] Creating layer ReLU3
I1114 18:50:11.321182 11950 net.cpp:108] Creating Layer ReLU3
I1114 18:50:11.321187 11950 net.cpp:460] ReLU3 <- conv3
I1114 18:50:11.321192 11950 net.cpp:403] ReLU3 -> conv3 (in-place)
I1114 18:50:11.321553 11950 net.cpp:154] Setting up ReLU3
I1114 18:50:11.321566 11950 net.cpp:161] Top shape: 4 256 48 64 (3145728)
I1114 18:50:11.321569 11950 net.cpp:169] Memory required for data: 327155712
I1114 18:50:11.321573 11950 layer_factory.hpp:76] Creating layer conv3_1
I1114 18:50:11.321583 11950 net.cpp:108] Creating Layer conv3_1
I1114 18:50:11.321585 11950 net.cpp:460] conv3_1 <- conv3
I1114 18:50:11.321590 11950 net.cpp:417] conv3_1 -> conv3_1
I1114 18:50:11.335602 11950 net.cpp:154] Setting up conv3_1
I1114 18:50:11.335625 11950 net.cpp:161] Top shape: 4 256 48 64 (3145728)
I1114 18:50:11.335629 11950 net.cpp:169] Memory required for data: 339738624
I1114 18:50:11.335636 11950 layer_factory.hpp:76] Creating layer ReLU4
I1114 18:50:11.335645 11950 net.cpp:108] Creating Layer ReLU4
I1114 18:50:11.335649 11950 net.cpp:460] ReLU4 <- conv3_1
I1114 18:50:11.335654 11950 net.cpp:403] ReLU4 -> conv3_1 (in-place)
I1114 18:50:11.335779 11950 net.cpp:154] Setting up ReLU4
I1114 18:50:11.335788 11950 net.cpp:161] Top shape: 4 256 48 64 (3145728)
I1114 18:50:11.335791 11950 net.cpp:169] Memory required for data: 352321536
I1114 18:50:11.335794 11950 layer_factory.hpp:76] Creating layer conv3_1_ReLU4_0_split
I1114 18:50:11.335813 11950 net.cpp:108] Creating Layer conv3_1_ReLU4_0_split
I1114 18:50:11.335816 11950 net.cpp:460] conv3_1_ReLU4_0_split <- conv3_1
I1114 18:50:11.335821 11950 net.cpp:417] conv3_1_ReLU4_0_split -> conv3_1_ReLU4_0_split_0
I1114 18:50:11.335827 11950 net.cpp:417] conv3_1_ReLU4_0_split -> conv3_1_ReLU4_0_split_1
I1114 18:50:11.335858 11950 net.cpp:154] Setting up conv3_1_ReLU4_0_split
I1114 18:50:11.335865 11950 net.cpp:161] Top shape: 4 256 48 64 (3145728)
I1114 18:50:11.335868 11950 net.cpp:161] Top shape: 4 256 48 64 (3145728)
I1114 18:50:11.335870 11950 net.cpp:169] Memory required for data: 377487360
I1114 18:50:11.335873 11950 layer_factory.hpp:76] Creating layer conv4
I1114 18:50:11.335881 11950 net.cpp:108] Creating Layer conv4
I1114 18:50:11.335886 11950 net.cpp:460] conv4 <- conv3_1_ReLU4_0_split_0
I1114 18:50:11.335891 11950 net.cpp:417] conv4 -> conv4
I1114 18:50:11.363392 11950 net.cpp:154] Setting up conv4
I1114 18:50:11.363431 11950 net.cpp:161] Top shape: 4 512 24 32 (1572864)
I1114 18:50:11.363437 11950 net.cpp:169] Memory required for data: 383778816
I1114 18:50:11.363450 11950 layer_factory.hpp:76] Creating layer ReLU5
I1114 18:50:11.363459 11950 net.cpp:108] Creating Layer ReLU5
I1114 18:50:11.363464 11950 net.cpp:460] ReLU5 <- conv4
I1114 18:50:11.363471 11950 net.cpp:403] ReLU5 -> conv4 (in-place)
I1114 18:50:11.363598 11950 net.cpp:154] Setting up ReLU5
I1114 18:50:11.363608 11950 net.cpp:161] Top shape: 4 512 24 32 (1572864)
I1114 18:50:11.363611 11950 net.cpp:169] Memory required for data: 390070272
I1114 18:50:11.363615 11950 layer_factory.hpp:76] Creating layer conv4_1
I1114 18:50:11.363623 11950 net.cpp:108] Creating Layer conv4_1
I1114 18:50:11.363628 11950 net.cpp:460] conv4_1 <- conv4
I1114 18:50:11.363633 11950 net.cpp:417] conv4_1 -> conv4_1
I1114 18:50:11.414523 11950 net.cpp:154] Setting up conv4_1
I1114 18:50:11.414553 11950 net.cpp:161] Top shape: 4 512 24 32 (1572864)
I1114 18:50:11.414558 11950 net.cpp:169] Memory required for data: 396361728
I1114 18:50:11.414566 11950 layer_factory.hpp:76] Creating layer ReLU6
I1114 18:50:11.414577 11950 net.cpp:108] Creating Layer ReLU6
I1114 18:50:11.414580 11950 net.cpp:460] ReLU6 <- conv4_1
I1114 18:50:11.414587 11950 net.cpp:403] ReLU6 -> conv4_1 (in-place)
I1114 18:50:11.414710 11950 net.cpp:154] Setting up ReLU6
I1114 18:50:11.414718 11950 net.cpp:161] Top shape: 4 512 24 32 (1572864)
I1114 18:50:11.414721 11950 net.cpp:169] Memory required for data: 402653184
I1114 18:50:11.414724 11950 layer_factory.hpp:76] Creating layer conv4_1_ReLU6_0_split
I1114 18:50:11.414731 11950 net.cpp:108] Creating Layer conv4_1_ReLU6_0_split
I1114 18:50:11.414733 11950 net.cpp:460] conv4_1_ReLU6_0_split <- conv4_1
I1114 18:50:11.414739 11950 net.cpp:417] conv4_1_ReLU6_0_split -> conv4_1_ReLU6_0_split_0
I1114 18:50:11.414744 11950 net.cpp:417] conv4_1_ReLU6_0_split -> conv4_1_ReLU6_0_split_1
I1114 18:50:11.414774 11950 net.cpp:154] Setting up conv4_1_ReLU6_0_split
I1114 18:50:11.414780 11950 net.cpp:161] Top shape: 4 512 24 32 (1572864)
I1114 18:50:11.414784 11950 net.cpp:161] Top shape: 4 512 24 32 (1572864)
I1114 18:50:11.414786 11950 net.cpp:169] Memory required for data: 415236096
I1114 18:50:11.414790 11950 layer_factory.hpp:76] Creating layer conv5
I1114 18:50:11.414798 11950 net.cpp:108] Creating Layer conv5
I1114 18:50:11.414803 11950 net.cpp:460] conv5 <- conv4_1_ReLU6_0_split_0
I1114 18:50:11.414806 11950 net.cpp:417] conv5 -> conv5
I1114 18:50:11.468237 11950 net.cpp:154] Setting up conv5
I1114 18:50:11.468266 11950 net.cpp:161] Top shape: 4 512 12 16 (393216)
I1114 18:50:11.468271 11950 net.cpp:169] Memory required for data: 416808960
I1114 18:50:11.468278 11950 layer_factory.hpp:76] Creating layer ReLU7
I1114 18:50:11.468288 11950 net.cpp:108] Creating Layer ReLU7
I1114 18:50:11.468293 11950 net.cpp:460] ReLU7 <- conv5
I1114 18:50:11.468299 11950 net.cpp:403] ReLU7 -> conv5 (in-place)
I1114 18:50:11.468417 11950 net.cpp:154] Setting up ReLU7
I1114 18:50:11.468425 11950 net.cpp:161] Top shape: 4 512 12 16 (393216)
I1114 18:50:11.468432 11950 net.cpp:169] Memory required for data: 418381824
I1114 18:50:11.468444 11950 layer_factory.hpp:76] Creating layer conv5_1
I1114 18:50:11.468453 11950 net.cpp:108] Creating Layer conv5_1
I1114 18:50:11.468457 11950 net.cpp:460] conv5_1 <- conv5
I1114 18:50:11.468463 11950 net.cpp:417] conv5_1 -> conv5_1
I1114 18:50:11.520805 11950 net.cpp:154] Setting up conv5_1
I1114 18:50:11.520836 11950 net.cpp:161] Top shape: 4 512 12 16 (393216)
I1114 18:50:11.520840 11950 net.cpp:169] Memory required for data: 419954688
I1114 18:50:11.520849 11950 layer_factory.hpp:76] Creating layer ReLU8
I1114 18:50:11.520859 11950 net.cpp:108] Creating Layer ReLU8
I1114 18:50:11.520864 11950 net.cpp:460] ReLU8 <- conv5_1
I1114 18:50:11.520869 11950 net.cpp:403] ReLU8 -> conv5_1 (in-place)
I1114 18:50:11.521235 11950 net.cpp:154] Setting up ReLU8
I1114 18:50:11.521248 11950 net.cpp:161] Top shape: 4 512 12 16 (393216)
I1114 18:50:11.521252 11950 net.cpp:169] Memory required for data: 421527552
I1114 18:50:11.521256 11950 layer_factory.hpp:76] Creating layer conv5_1_ReLU8_0_split
I1114 18:50:11.521262 11950 net.cpp:108] Creating Layer conv5_1_ReLU8_0_split
I1114 18:50:11.521265 11950 net.cpp:460] conv5_1_ReLU8_0_split <- conv5_1
I1114 18:50:11.521271 11950 net.cpp:417] conv5_1_ReLU8_0_split -> conv5_1_ReLU8_0_split_0
I1114 18:50:11.521277 11950 net.cpp:417] conv5_1_ReLU8_0_split -> conv5_1_ReLU8_0_split_1
I1114 18:50:11.521312 11950 net.cpp:154] Setting up conv5_1_ReLU8_0_split
I1114 18:50:11.521318 11950 net.cpp:161] Top shape: 4 512 12 16 (393216)
I1114 18:50:11.521322 11950 net.cpp:161] Top shape: 4 512 12 16 (393216)
I1114 18:50:11.521325 11950 net.cpp:169] Memory required for data: 424673280
I1114 18:50:11.521328 11950 layer_factory.hpp:76] Creating layer conv6
I1114 18:50:11.521337 11950 net.cpp:108] Creating Layer conv6
I1114 18:50:11.521340 11950 net.cpp:460] conv6 <- conv5_1_ReLU8_0_split_0
I1114 18:50:11.521345 11950 net.cpp:417] conv6 -> conv6
I1114 18:50:11.624868 11950 net.cpp:154] Setting up conv6
I1114 18:50:11.624903 11950 net.cpp:161] Top shape: 4 1024 6 8 (196608)
I1114 18:50:11.624908 11950 net.cpp:169] Memory required for data: 425459712
I1114 18:50:11.624919 11950 layer_factory.hpp:76] Creating layer ReLU9
I1114 18:50:11.624929 11950 net.cpp:108] Creating Layer ReLU9
I1114 18:50:11.624934 11950 net.cpp:460] ReLU9 <- conv6
I1114 18:50:11.624939 11950 net.cpp:403] ReLU9 -> conv6 (in-place)
I1114 18:50:11.625404 11950 net.cpp:154] Setting up ReLU9
I1114 18:50:11.625417 11950 net.cpp:161] Top shape: 4 1024 6 8 (196608)
I1114 18:50:11.625422 11950 net.cpp:169] Memory required for data: 426246144
I1114 18:50:11.625424 11950 layer_factory.hpp:76] Creating layer conv6_1
I1114 18:50:11.625434 11950 net.cpp:108] Creating Layer conv6_1
I1114 18:50:11.625437 11950 net.cpp:460] conv6_1 <- conv6
I1114 18:50:11.625443 11950 net.cpp:417] conv6_1 -> conv6_1
I1114 18:50:11.836102 11950 net.cpp:154] Setting up conv6_1
I1114 18:50:11.836129 11950 net.cpp:161] Top shape: 4 1024 6 8 (196608)
I1114 18:50:11.836134 11950 net.cpp:169] Memory required for data: 427032576
I1114 18:50:11.836143 11950 layer_factory.hpp:76] Creating layer ReLU10
I1114 18:50:11.836151 11950 net.cpp:108] Creating Layer ReLU10
I1114 18:50:11.836156 11950 net.cpp:460] ReLU10 <- conv6_1
I1114 18:50:11.836163 11950 net.cpp:403] ReLU10 -> conv6_1 (in-place)
I1114 18:50:11.836290 11950 net.cpp:154] Setting up ReLU10
I1114 18:50:11.836299 11950 net.cpp:161] Top shape: 4 1024 6 8 (196608)
I1114 18:50:11.836303 11950 net.cpp:169] Memory required for data: 427819008
I1114 18:50:11.836307 11950 layer_factory.hpp:76] Creating layer conv6_1_ReLU10_0_split
I1114 18:50:11.836315 11950 net.cpp:108] Creating Layer conv6_1_ReLU10_0_split
I1114 18:50:11.836318 11950 net.cpp:460] conv6_1_ReLU10_0_split <- conv6_1
I1114 18:50:11.836323 11950 net.cpp:417] conv6_1_ReLU10_0_split -> conv6_1_ReLU10_0_split_0
I1114 18:50:11.836329 11950 net.cpp:417] conv6_1_ReLU10_0_split -> conv6_1_ReLU10_0_split_1
I1114 18:50:11.836362 11950 net.cpp:154] Setting up conv6_1_ReLU10_0_split
I1114 18:50:11.836372 11950 net.cpp:161] Top shape: 4 1024 6 8 (196608)
I1114 18:50:11.836383 11950 net.cpp:161] Top shape: 4 1024 6 8 (196608)
I1114 18:50:11.836386 11950 net.cpp:169] Memory required for data: 429391872
I1114 18:50:11.836390 11950 layer_factory.hpp:76] Creating layer Convolution1
I1114 18:50:11.836398 11950 net.cpp:108] Creating Layer Convolution1
I1114 18:50:11.836401 11950 net.cpp:460] Convolution1 <- conv6_1_ReLU10_0_split_0
I1114 18:50:11.836406 11950 net.cpp:417] Convolution1 -> predict_flow6
I1114 18:50:11.837759 11950 net.cpp:154] Setting up Convolution1
I1114 18:50:11.837774 11950 net.cpp:161] Top shape: 4 2 6 8 (384)
I1114 18:50:11.837777 11950 net.cpp:169] Memory required for data: 429393408
I1114 18:50:11.837784 11950 layer_factory.hpp:76] Creating layer predict_flow6_Convolution1_0_split
I1114 18:50:11.837790 11950 net.cpp:108] Creating Layer predict_flow6_Convolution1_0_split
I1114 18:50:11.837793 11950 net.cpp:460] predict_flow6_Convolution1_0_split <- predict_flow6
I1114 18:50:11.837797 11950 net.cpp:417] predict_flow6_Convolution1_0_split -> predict_flow6_Convolution1_0_split_0
I1114 18:50:11.837803 11950 net.cpp:417] predict_flow6_Convolution1_0_split -> predict_flow6_Convolution1_0_split_1
I1114 18:50:11.837808 11950 net.cpp:417] predict_flow6_Convolution1_0_split -> predict_flow6_Convolution1_0_split_2
I1114 18:50:11.837849 11950 net.cpp:154] Setting up predict_flow6_Convolution1_0_split
I1114 18:50:11.837857 11950 net.cpp:161] Top shape: 4 2 6 8 (384)
I1114 18:50:11.837859 11950 net.cpp:161] Top shape: 4 2 6 8 (384)
I1114 18:50:11.837863 11950 net.cpp:161] Top shape: 4 2 6 8 (384)
I1114 18:50:11.837867 11950 net.cpp:169] Memory required for data: 429398016
I1114 18:50:11.837869 11950 layer_factory.hpp:76] Creating layer Downsample1
I1114 18:50:11.837874 11950 net.cpp:108] Creating Layer Downsample1
I1114 18:50:11.837877 11950 net.cpp:460] Downsample1 <- scaled_flow_gt_Eltwise3_0_split_0
I1114 18:50:11.837882 11950 net.cpp:460] Downsample1 <- predict_flow6_Convolution1_0_split_0
I1114 18:50:11.837887 11950 net.cpp:417] Downsample1 -> blob24
I1114 18:50:11.837904 11950 net.cpp:154] Setting up Downsample1
I1114 18:50:11.837910 11950 net.cpp:161] Top shape: 4 2 6 8 (384)
I1114 18:50:11.837913 11950 net.cpp:169] Memory required for data: 429399552
W1114 18:50:11.837916 11950 vision_layers.hpp:445] DownsampleLayer does not do backward.
I1114 18:50:11.891840 11950 layer_factory.hpp:76] Creating layer flow_loss6
I1114 18:50:11.891867 11950 net.cpp:108] Creating Layer flow_loss6
I1114 18:50:11.891880 11950 net.cpp:460] flow_loss6 <- predict_flow6_Convolution1_0_split_1
I1114 18:50:11.891891 11950 net.cpp:460] flow_loss6 <- blob24
I1114 18:50:11.891901 11950 net.cpp:417] flow_loss6 -> flow_loss6
I1114 18:50:11.892325 11950 net.cpp:154] Setting up flow_loss6
I1114 18:50:11.892343 11950 net.cpp:161] Top shape: (1)
I1114 18:50:11.892348 11950 net.cpp:164]     with loss weight 0.32
I1114 18:50:11.892361 11950 net.cpp:169] Memory required for data: 429399556
I1114 18:50:11.892365 11950 layer_factory.hpp:76] Creating layer deconv5
I1114 18:50:11.892374 11950 net.cpp:108] Creating Layer deconv5
I1114 18:50:11.892377 11950 net.cpp:460] deconv5 <- conv6_1_ReLU10_0_split_1
I1114 18:50:11.892382 11950 net.cpp:417] deconv5 -> deconv5
I1114 18:50:12.089898 11950 net.cpp:154] Setting up deconv5
I1114 18:50:12.089931 11950 net.cpp:161] Top shape: 4 512 12 16 (393216)
I1114 18:50:12.089936 11950 net.cpp:169] Memory required for data: 430972420
I1114 18:50:12.089943 11950 layer_factory.hpp:76] Creating layer ReLU11
I1114 18:50:12.089953 11950 net.cpp:108] Creating Layer ReLU11
I1114 18:50:12.089957 11950 net.cpp:460] ReLU11 <- deconv5
I1114 18:50:12.089965 11950 net.cpp:403] ReLU11 -> deconv5 (in-place)
I1114 18:50:12.090157 11950 net.cpp:154] Setting up ReLU11
I1114 18:50:12.090165 11950 net.cpp:161] Top shape: 4 512 12 16 (393216)
I1114 18:50:12.090168 11950 net.cpp:169] Memory required for data: 432545284
I1114 18:50:12.090171 11950 layer_factory.hpp:76] Creating layer upsample_flow6to5
I1114 18:50:12.090186 11950 net.cpp:108] Creating Layer upsample_flow6to5
I1114 18:50:12.090201 11950 net.cpp:460] upsample_flow6to5 <- predict_flow6_Convolution1_0_split_2
I1114 18:50:12.090207 11950 net.cpp:417] upsample_flow6to5 -> upsampled_flow6_to_5
I1114 18:50:12.090378 11950 net.cpp:154] Setting up upsample_flow6to5
I1114 18:50:12.090384 11950 net.cpp:161] Top shape: 4 2 12 16 (1536)
I1114 18:50:12.090389 11950 net.cpp:169] Memory required for data: 432551428
I1114 18:50:12.090394 11950 layer_factory.hpp:76] Creating layer Concat2
I1114 18:50:12.090399 11950 net.cpp:108] Creating Layer Concat2
I1114 18:50:12.090402 11950 net.cpp:460] Concat2 <- conv5_1_ReLU8_0_split_1
I1114 18:50:12.090406 11950 net.cpp:460] Concat2 <- deconv5
I1114 18:50:12.090410 11950 net.cpp:460] Concat2 <- upsampled_flow6_to_5
I1114 18:50:12.090415 11950 net.cpp:417] Concat2 -> concat5
I1114 18:50:12.090435 11950 net.cpp:154] Setting up Concat2
I1114 18:50:12.090442 11950 net.cpp:161] Top shape: 4 1026 12 16 (787968)
I1114 18:50:12.090445 11950 net.cpp:169] Memory required for data: 435703300
I1114 18:50:12.090448 11950 layer_factory.hpp:76] Creating layer concat5_Concat2_0_split
I1114 18:50:12.090453 11950 net.cpp:108] Creating Layer concat5_Concat2_0_split
I1114 18:50:12.090456 11950 net.cpp:460] concat5_Concat2_0_split <- concat5
I1114 18:50:12.090461 11950 net.cpp:417] concat5_Concat2_0_split -> concat5_Concat2_0_split_0
I1114 18:50:12.090466 11950 net.cpp:417] concat5_Concat2_0_split -> concat5_Concat2_0_split_1
I1114 18:50:12.090492 11950 net.cpp:154] Setting up concat5_Concat2_0_split
I1114 18:50:12.090497 11950 net.cpp:161] Top shape: 4 1026 12 16 (787968)
I1114 18:50:12.090502 11950 net.cpp:161] Top shape: 4 1026 12 16 (787968)
I1114 18:50:12.090503 11950 net.cpp:169] Memory required for data: 442007044
I1114 18:50:12.090507 11950 layer_factory.hpp:76] Creating layer Convolution2
I1114 18:50:12.090514 11950 net.cpp:108] Creating Layer Convolution2
I1114 18:50:12.090517 11950 net.cpp:460] Convolution2 <- concat5_Concat2_0_split_0
I1114 18:50:12.090523 11950 net.cpp:417] Convolution2 -> predict_flow5
I1114 18:50:12.092026 11950 net.cpp:154] Setting up Convolution2
I1114 18:50:12.092047 11950 net.cpp:161] Top shape: 4 2 12 16 (1536)
I1114 18:50:12.092053 11950 net.cpp:169] Memory required for data: 442013188
I1114 18:50:12.092062 11950 layer_factory.hpp:76] Creating layer predict_flow5_Convolution2_0_split
I1114 18:50:12.092080 11950 net.cpp:108] Creating Layer predict_flow5_Convolution2_0_split
I1114 18:50:12.092087 11950 net.cpp:460] predict_flow5_Convolution2_0_split <- predict_flow5
I1114 18:50:12.092102 11950 net.cpp:417] predict_flow5_Convolution2_0_split -> predict_flow5_Convolution2_0_split_0
I1114 18:50:12.092113 11950 net.cpp:417] predict_flow5_Convolution2_0_split -> predict_flow5_Convolution2_0_split_1
I1114 18:50:12.092123 11950 net.cpp:417] predict_flow5_Convolution2_0_split -> predict_flow5_Convolution2_0_split_2
I1114 18:50:12.092185 11950 net.cpp:154] Setting up predict_flow5_Convolution2_0_split
I1114 18:50:12.092196 11950 net.cpp:161] Top shape: 4 2 12 16 (1536)
I1114 18:50:12.092202 11950 net.cpp:161] Top shape: 4 2 12 16 (1536)
I1114 18:50:12.092208 11950 net.cpp:161] Top shape: 4 2 12 16 (1536)
I1114 18:50:12.092212 11950 net.cpp:169] Memory required for data: 442031620
I1114 18:50:12.092217 11950 layer_factory.hpp:76] Creating layer Downsample2
I1114 18:50:12.092226 11950 net.cpp:108] Creating Layer Downsample2
I1114 18:50:12.092232 11950 net.cpp:460] Downsample2 <- scaled_flow_gt_Eltwise3_0_split_1
I1114 18:50:12.092237 11950 net.cpp:460] Downsample2 <- predict_flow5_Convolution2_0_split_0
I1114 18:50:12.092243 11950 net.cpp:417] Downsample2 -> blob29
I1114 18:50:12.092269 11950 net.cpp:154] Setting up Downsample2
I1114 18:50:12.092278 11950 net.cpp:161] Top shape: 4 2 12 16 (1536)
I1114 18:50:12.092284 11950 net.cpp:169] Memory required for data: 442037764
W1114 18:50:12.092288 11950 vision_layers.hpp:445] DownsampleLayer does not do backward.
I1114 18:50:12.092294 11950 layer_factory.hpp:76] Creating layer flow_loss5
I1114 18:50:12.092304 11950 net.cpp:108] Creating Layer flow_loss5
I1114 18:50:12.092316 11950 net.cpp:460] flow_loss5 <- predict_flow5_Convolution2_0_split_1
I1114 18:50:12.092324 11950 net.cpp:460] flow_loss5 <- blob29
I1114 18:50:12.092330 11950 net.cpp:417] flow_loss5 -> flow_loss5
I1114 18:50:12.092659 11950 net.cpp:154] Setting up flow_loss5
I1114 18:50:12.092671 11950 net.cpp:161] Top shape: (1)
I1114 18:50:12.092675 11950 net.cpp:164]     with loss weight 0.08
I1114 18:50:12.092684 11950 net.cpp:169] Memory required for data: 442037768
I1114 18:50:12.092687 11950 layer_factory.hpp:76] Creating layer deconv4
I1114 18:50:12.092695 11950 net.cpp:108] Creating Layer deconv4
I1114 18:50:12.092700 11950 net.cpp:460] deconv4 <- concat5_Concat2_0_split_1
I1114 18:50:12.092708 11950 net.cpp:417] deconv4 -> deconv4
I1114 18:50:12.192910 11950 net.cpp:154] Setting up deconv4
I1114 18:50:12.192940 11950 net.cpp:161] Top shape: 4 256 24 32 (786432)
I1114 18:50:12.192945 11950 net.cpp:169] Memory required for data: 445183496
I1114 18:50:12.192952 11950 layer_factory.hpp:76] Creating layer ReLU12
I1114 18:50:12.192965 11950 net.cpp:108] Creating Layer ReLU12
I1114 18:50:12.192971 11950 net.cpp:460] ReLU12 <- deconv4
I1114 18:50:12.192977 11950 net.cpp:403] ReLU12 -> deconv4 (in-place)
I1114 18:50:12.193166 11950 net.cpp:154] Setting up ReLU12
I1114 18:50:12.193176 11950 net.cpp:161] Top shape: 4 256 24 32 (786432)
I1114 18:50:12.193178 11950 net.cpp:169] Memory required for data: 448329224
I1114 18:50:12.193181 11950 layer_factory.hpp:76] Creating layer upsample_flow5to4
I1114 18:50:12.193191 11950 net.cpp:108] Creating Layer upsample_flow5to4
I1114 18:50:12.193195 11950 net.cpp:460] upsample_flow5to4 <- predict_flow5_Convolution2_0_split_2
I1114 18:50:12.193202 11950 net.cpp:417] upsample_flow5to4 -> upsampled_flow5_to_4
I1114 18:50:12.193374 11950 net.cpp:154] Setting up upsample_flow5to4
I1114 18:50:12.193382 11950 net.cpp:161] Top shape: 4 2 24 32 (6144)
I1114 18:50:12.193385 11950 net.cpp:169] Memory required for data: 448353800
I1114 18:50:12.193389 11950 layer_factory.hpp:76] Creating layer Concat3
I1114 18:50:12.193397 11950 net.cpp:108] Creating Layer Concat3
I1114 18:50:12.193399 11950 net.cpp:460] Concat3 <- conv4_1_ReLU6_0_split_1
I1114 18:50:12.193404 11950 net.cpp:460] Concat3 <- deconv4
I1114 18:50:12.193408 11950 net.cpp:460] Concat3 <- upsampled_flow5_to_4
I1114 18:50:12.193413 11950 net.cpp:417] Concat3 -> concat4
I1114 18:50:12.193434 11950 net.cpp:154] Setting up Concat3
I1114 18:50:12.193440 11950 net.cpp:161] Top shape: 4 770 24 32 (2365440)
I1114 18:50:12.193444 11950 net.cpp:169] Memory required for data: 457815560
I1114 18:50:12.193446 11950 layer_factory.hpp:76] Creating layer concat4_Concat3_0_split
I1114 18:50:12.193451 11950 net.cpp:108] Creating Layer concat4_Concat3_0_split
I1114 18:50:12.193454 11950 net.cpp:460] concat4_Concat3_0_split <- concat4
I1114 18:50:12.193459 11950 net.cpp:417] concat4_Concat3_0_split -> concat4_Concat3_0_split_0
I1114 18:50:12.193464 11950 net.cpp:417] concat4_Concat3_0_split -> concat4_Concat3_0_split_1
I1114 18:50:12.193491 11950 net.cpp:154] Setting up concat4_Concat3_0_split
I1114 18:50:12.193497 11950 net.cpp:161] Top shape: 4 770 24 32 (2365440)
I1114 18:50:12.193501 11950 net.cpp:161] Top shape: 4 770 24 32 (2365440)
I1114 18:50:12.193503 11950 net.cpp:169] Memory required for data: 476739080
I1114 18:50:12.193506 11950 layer_factory.hpp:76] Creating layer Convolution3
I1114 18:50:12.193514 11950 net.cpp:108] Creating Layer Convolution3
I1114 18:50:12.193517 11950 net.cpp:460] Convolution3 <- concat4_Concat3_0_split_0
I1114 18:50:12.193523 11950 net.cpp:417] Convolution3 -> predict_flow4
I1114 18:50:12.194937 11950 net.cpp:154] Setting up Convolution3
I1114 18:50:12.194952 11950 net.cpp:161] Top shape: 4 2 24 32 (6144)
I1114 18:50:12.194954 11950 net.cpp:169] Memory required for data: 476763656
I1114 18:50:12.194967 11950 layer_factory.hpp:76] Creating layer predict_flow4_Convolution3_0_split
I1114 18:50:12.194973 11950 net.cpp:108] Creating Layer predict_flow4_Convolution3_0_split
I1114 18:50:12.194980 11950 net.cpp:460] predict_flow4_Convolution3_0_split <- predict_flow4
I1114 18:50:12.194994 11950 net.cpp:417] predict_flow4_Convolution3_0_split -> predict_flow4_Convolution3_0_split_0
I1114 18:50:12.195000 11950 net.cpp:417] predict_flow4_Convolution3_0_split -> predict_flow4_Convolution3_0_split_1
I1114 18:50:12.195005 11950 net.cpp:417] predict_flow4_Convolution3_0_split -> predict_flow4_Convolution3_0_split_2
I1114 18:50:12.195050 11950 net.cpp:154] Setting up predict_flow4_Convolution3_0_split
I1114 18:50:12.195057 11950 net.cpp:161] Top shape: 4 2 24 32 (6144)
I1114 18:50:12.195061 11950 net.cpp:161] Top shape: 4 2 24 32 (6144)
I1114 18:50:12.195065 11950 net.cpp:161] Top shape: 4 2 24 32 (6144)
I1114 18:50:12.195066 11950 net.cpp:169] Memory required for data: 476837384
I1114 18:50:12.195070 11950 layer_factory.hpp:76] Creating layer Downsample3
I1114 18:50:12.195075 11950 net.cpp:108] Creating Layer Downsample3
I1114 18:50:12.195077 11950 net.cpp:460] Downsample3 <- scaled_flow_gt_Eltwise3_0_split_2
I1114 18:50:12.195081 11950 net.cpp:460] Downsample3 <- predict_flow4_Convolution3_0_split_0
I1114 18:50:12.195086 11950 net.cpp:417] Downsample3 -> blob34
I1114 18:50:12.195106 11950 net.cpp:154] Setting up Downsample3
I1114 18:50:12.195112 11950 net.cpp:161] Top shape: 4 2 24 32 (6144)
I1114 18:50:12.195116 11950 net.cpp:169] Memory required for data: 476861960
W1114 18:50:12.195118 11950 vision_layers.hpp:445] DownsampleLayer does not do backward.
I1114 18:50:12.195125 11950 layer_factory.hpp:76] Creating layer flow_loss4
I1114 18:50:12.195132 11950 net.cpp:108] Creating Layer flow_loss4
I1114 18:50:12.195135 11950 net.cpp:460] flow_loss4 <- predict_flow4_Convolution3_0_split_1
I1114 18:50:12.195139 11950 net.cpp:460] flow_loss4 <- blob34
I1114 18:50:12.195143 11950 net.cpp:417] flow_loss4 -> flow_loss4
I1114 18:50:12.195389 11950 net.cpp:154] Setting up flow_loss4
I1114 18:50:12.195399 11950 net.cpp:161] Top shape: (1)
I1114 18:50:12.195401 11950 net.cpp:164]     with loss weight 0.02
I1114 18:50:12.195411 11950 net.cpp:169] Memory required for data: 476861964
I1114 18:50:12.195415 11950 layer_factory.hpp:76] Creating layer deconv3
I1114 18:50:12.195422 11950 net.cpp:108] Creating Layer deconv3
I1114 18:50:12.195426 11950 net.cpp:460] deconv3 <- concat4_Concat3_0_split_1
I1114 18:50:12.195431 11950 net.cpp:417] deconv3 -> deconv3
I1114 18:50:12.227910 11950 net.cpp:154] Setting up deconv3
I1114 18:50:12.227936 11950 net.cpp:161] Top shape: 4 128 48 64 (1572864)
I1114 18:50:12.227939 11950 net.cpp:169] Memory required for data: 483153420
I1114 18:50:12.227946 11950 layer_factory.hpp:76] Creating layer ReLU13
I1114 18:50:12.227957 11950 net.cpp:108] Creating Layer ReLU13
I1114 18:50:12.227962 11950 net.cpp:460] ReLU13 <- deconv3
I1114 18:50:12.227967 11950 net.cpp:403] ReLU13 -> deconv3 (in-place)
I1114 18:50:12.228150 11950 net.cpp:154] Setting up ReLU13
I1114 18:50:12.228160 11950 net.cpp:161] Top shape: 4 128 48 64 (1572864)
I1114 18:50:12.228163 11950 net.cpp:169] Memory required for data: 489444876
I1114 18:50:12.228166 11950 layer_factory.hpp:76] Creating layer upsample_flow4to3
I1114 18:50:12.228176 11950 net.cpp:108] Creating Layer upsample_flow4to3
I1114 18:50:12.228180 11950 net.cpp:460] upsample_flow4to3 <- predict_flow4_Convolution3_0_split_2
I1114 18:50:12.228185 11950 net.cpp:417] upsample_flow4to3 -> upsampled_flow4_to_3
I1114 18:50:12.228360 11950 net.cpp:154] Setting up upsample_flow4to3
I1114 18:50:12.228368 11950 net.cpp:161] Top shape: 4 2 48 64 (24576)
I1114 18:50:12.228371 11950 net.cpp:169] Memory required for data: 489543180
I1114 18:50:12.228376 11950 layer_factory.hpp:76] Creating layer Concat4
I1114 18:50:12.228382 11950 net.cpp:108] Creating Layer Concat4
I1114 18:50:12.228394 11950 net.cpp:460] Concat4 <- conv3_1_ReLU4_0_split_1
I1114 18:50:12.228399 11950 net.cpp:460] Concat4 <- deconv3
I1114 18:50:12.228402 11950 net.cpp:460] Concat4 <- upsampled_flow4_to_3
I1114 18:50:12.228406 11950 net.cpp:417] Concat4 -> concat3
I1114 18:50:12.228433 11950 net.cpp:154] Setting up Concat4
I1114 18:50:12.228447 11950 net.cpp:161] Top shape: 4 386 48 64 (4743168)
I1114 18:50:12.228451 11950 net.cpp:169] Memory required for data: 508515852
I1114 18:50:12.228453 11950 layer_factory.hpp:76] Creating layer concat3_Concat4_0_split
I1114 18:50:12.228458 11950 net.cpp:108] Creating Layer concat3_Concat4_0_split
I1114 18:50:12.228461 11950 net.cpp:460] concat3_Concat4_0_split <- concat3
I1114 18:50:12.228467 11950 net.cpp:417] concat3_Concat4_0_split -> concat3_Concat4_0_split_0
I1114 18:50:12.228472 11950 net.cpp:417] concat3_Concat4_0_split -> concat3_Concat4_0_split_1
I1114 18:50:12.228505 11950 net.cpp:154] Setting up concat3_Concat4_0_split
I1114 18:50:12.228512 11950 net.cpp:161] Top shape: 4 386 48 64 (4743168)
I1114 18:50:12.228515 11950 net.cpp:161] Top shape: 4 386 48 64 (4743168)
I1114 18:50:12.228518 11950 net.cpp:169] Memory required for data: 546461196
I1114 18:50:12.228521 11950 layer_factory.hpp:76] Creating layer Convolution4
I1114 18:50:12.228531 11950 net.cpp:108] Creating Layer Convolution4
I1114 18:50:12.228535 11950 net.cpp:460] Convolution4 <- concat3_Concat4_0_split_0
I1114 18:50:12.228539 11950 net.cpp:417] Convolution4 -> predict_flow3
I1114 18:50:12.229794 11950 net.cpp:154] Setting up Convolution4
I1114 18:50:12.229807 11950 net.cpp:161] Top shape: 4 2 48 64 (24576)
I1114 18:50:12.229811 11950 net.cpp:169] Memory required for data: 546559500
I1114 18:50:12.229817 11950 layer_factory.hpp:76] Creating layer predict_flow3_Convolution4_0_split
I1114 18:50:12.229822 11950 net.cpp:108] Creating Layer predict_flow3_Convolution4_0_split
I1114 18:50:12.229826 11950 net.cpp:460] predict_flow3_Convolution4_0_split <- predict_flow3
I1114 18:50:12.229830 11950 net.cpp:417] predict_flow3_Convolution4_0_split -> predict_flow3_Convolution4_0_split_0
I1114 18:50:12.229837 11950 net.cpp:417] predict_flow3_Convolution4_0_split -> predict_flow3_Convolution4_0_split_1
I1114 18:50:12.229842 11950 net.cpp:417] predict_flow3_Convolution4_0_split -> predict_flow3_Convolution4_0_split_2
I1114 18:50:12.229888 11950 net.cpp:154] Setting up predict_flow3_Convolution4_0_split
I1114 18:50:12.229894 11950 net.cpp:161] Top shape: 4 2 48 64 (24576)
I1114 18:50:12.229898 11950 net.cpp:161] Top shape: 4 2 48 64 (24576)
I1114 18:50:12.229902 11950 net.cpp:161] Top shape: 4 2 48 64 (24576)
I1114 18:50:12.229904 11950 net.cpp:169] Memory required for data: 546854412
I1114 18:50:12.229907 11950 layer_factory.hpp:76] Creating layer Downsample4
I1114 18:50:12.229912 11950 net.cpp:108] Creating Layer Downsample4
I1114 18:50:12.229917 11950 net.cpp:460] Downsample4 <- scaled_flow_gt_Eltwise3_0_split_3
I1114 18:50:12.229920 11950 net.cpp:460] Downsample4 <- predict_flow3_Convolution4_0_split_0
I1114 18:50:12.229924 11950 net.cpp:417] Downsample4 -> blob39
I1114 18:50:12.229943 11950 net.cpp:154] Setting up Downsample4
I1114 18:50:12.229949 11950 net.cpp:161] Top shape: 4 2 48 64 (24576)
I1114 18:50:12.229951 11950 net.cpp:169] Memory required for data: 546952716
W1114 18:50:12.229954 11950 vision_layers.hpp:445] DownsampleLayer does not do backward.
I1114 18:50:12.229962 11950 layer_factory.hpp:76] Creating layer flow_loss3
I1114 18:50:12.229970 11950 net.cpp:108] Creating Layer flow_loss3
I1114 18:50:12.229982 11950 net.cpp:460] flow_loss3 <- predict_flow3_Convolution4_0_split_1
I1114 18:50:12.229986 11950 net.cpp:460] flow_loss3 <- blob39
I1114 18:50:12.229990 11950 net.cpp:417] flow_loss3 -> flow_loss3
I1114 18:50:12.230252 11950 net.cpp:154] Setting up flow_loss3
I1114 18:50:12.230262 11950 net.cpp:161] Top shape: (1)
I1114 18:50:12.230265 11950 net.cpp:164]     with loss weight 0.01
I1114 18:50:12.230274 11950 net.cpp:169] Memory required for data: 546952720
I1114 18:50:12.230278 11950 layer_factory.hpp:76] Creating layer deconv2
I1114 18:50:12.230290 11950 net.cpp:108] Creating Layer deconv2
I1114 18:50:12.230295 11950 net.cpp:460] deconv2 <- concat3_Concat4_0_split_1
I1114 18:50:12.230300 11950 net.cpp:417] deconv2 -> deconv2
I1114 18:50:12.238880 11950 net.cpp:154] Setting up deconv2
I1114 18:50:12.238903 11950 net.cpp:161] Top shape: 4 64 96 128 (3145728)
I1114 18:50:12.238911 11950 net.cpp:169] Memory required for data: 559535632
I1114 18:50:12.238919 11950 layer_factory.hpp:76] Creating layer ReLU14
I1114 18:50:12.238924 11950 net.cpp:108] Creating Layer ReLU14
I1114 18:50:12.238927 11950 net.cpp:460] ReLU14 <- deconv2
I1114 18:50:12.238931 11950 net.cpp:403] ReLU14 -> deconv2 (in-place)
I1114 18:50:12.243717 11950 net.cpp:154] Setting up ReLU14
I1114 18:50:12.243736 11950 net.cpp:161] Top shape: 4 64 96 128 (3145728)
I1114 18:50:12.243739 11950 net.cpp:169] Memory required for data: 572118544
I1114 18:50:12.243742 11950 layer_factory.hpp:76] Creating layer upsample_flow3to2
I1114 18:50:12.243752 11950 net.cpp:108] Creating Layer upsample_flow3to2
I1114 18:50:12.243755 11950 net.cpp:460] upsample_flow3to2 <- predict_flow3_Convolution4_0_split_2
I1114 18:50:12.243760 11950 net.cpp:417] upsample_flow3to2 -> upsampled_flow3_to_2
I1114 18:50:12.243945 11950 net.cpp:154] Setting up upsample_flow3to2
I1114 18:50:12.243954 11950 net.cpp:161] Top shape: 4 2 96 128 (98304)
I1114 18:50:12.243957 11950 net.cpp:169] Memory required for data: 572511760
I1114 18:50:12.243963 11950 layer_factory.hpp:76] Creating layer Concat5
I1114 18:50:12.243968 11950 net.cpp:108] Creating Layer Concat5
I1114 18:50:12.243970 11950 net.cpp:460] Concat5 <- conv2_ReLU2_0_split_1
I1114 18:50:12.243974 11950 net.cpp:460] Concat5 <- deconv2
I1114 18:50:12.243978 11950 net.cpp:460] Concat5 <- upsampled_flow3_to_2
I1114 18:50:12.243983 11950 net.cpp:417] Concat5 -> concat2
I1114 18:50:12.244005 11950 net.cpp:154] Setting up Concat5
I1114 18:50:12.244011 11950 net.cpp:161] Top shape: 4 194 96 128 (9535488)
I1114 18:50:12.244014 11950 net.cpp:169] Memory required for data: 610653712
I1114 18:50:12.244017 11950 layer_factory.hpp:76] Creating layer Convolution5
I1114 18:50:12.244026 11950 net.cpp:108] Creating Layer Convolution5
I1114 18:50:12.244030 11950 net.cpp:460] Convolution5 <- concat2
I1114 18:50:12.244036 11950 net.cpp:417] Convolution5 -> predict_flow2
I1114 18:50:12.244956 11950 net.cpp:154] Setting up Convolution5
I1114 18:50:12.244971 11950 net.cpp:161] Top shape: 4 2 96 128 (98304)
I1114 18:50:12.244976 11950 net.cpp:169] Memory required for data: 611046928
I1114 18:50:12.244982 11950 layer_factory.hpp:76] Creating layer predict_flow2_Convolution5_0_split
I1114 18:50:12.244987 11950 net.cpp:108] Creating Layer predict_flow2_Convolution5_0_split
I1114 18:50:12.244990 11950 net.cpp:460] predict_flow2_Convolution5_0_split <- predict_flow2
I1114 18:50:12.244994 11950 net.cpp:417] predict_flow2_Convolution5_0_split -> predict_flow2_Convolution5_0_split_0
I1114 18:50:12.245002 11950 net.cpp:417] predict_flow2_Convolution5_0_split -> predict_flow2_Convolution5_0_split_1
I1114 18:50:12.245035 11950 net.cpp:154] Setting up predict_flow2_Convolution5_0_split
I1114 18:50:12.245041 11950 net.cpp:161] Top shape: 4 2 96 128 (98304)
I1114 18:50:12.245045 11950 net.cpp:161] Top shape: 4 2 96 128 (98304)
I1114 18:50:12.245048 11950 net.cpp:169] Memory required for data: 611833360
I1114 18:50:12.245050 11950 layer_factory.hpp:76] Creating layer Downsample5
I1114 18:50:12.245056 11950 net.cpp:108] Creating Layer Downsample5
I1114 18:50:12.245060 11950 net.cpp:460] Downsample5 <- scaled_flow_gt_Eltwise3_0_split_4
I1114 18:50:12.245064 11950 net.cpp:460] Downsample5 <- predict_flow2_Convolution5_0_split_0
I1114 18:50:12.245069 11950 net.cpp:417] Downsample5 -> blob44
I1114 18:50:12.245088 11950 net.cpp:154] Setting up Downsample5
I1114 18:50:12.245095 11950 net.cpp:161] Top shape: 4 2 96 128 (98304)
I1114 18:50:12.245096 11950 net.cpp:169] Memory required for data: 612226576
W1114 18:50:12.245100 11950 vision_layers.hpp:445] DownsampleLayer does not do backward.
I1114 18:50:12.245105 11950 layer_factory.hpp:76] Creating layer flow_loss2
I1114 18:50:12.245111 11950 net.cpp:108] Creating Layer flow_loss2
I1114 18:50:12.245115 11950 net.cpp:460] flow_loss2 <- predict_flow2_Convolution5_0_split_1
…
